model_multinomial_2/dqn_retail_model_3_lr_0.0005_ed_0.99_g_0.9.pth (torch, 71654 bytes, 5 tensors)

0.weight f4 [128, 3]
-0.26791617 0.51010746 0.48622036 -0.2283071 -0.16279925 -0.38705176 0.14537856 0.40255585
0.5637189 0.16304013 -0.33886963 -0.28887686 0.06182185 0.08624569 0.3646057 -0.3382291
-0.52861834 -0.4598532 -0.2477487 -0.42799497 0.44520882 -0.22994274 0.15764076 0.5677048
-0.10102842 -0.3211064 -0.06531218 0.4298912 0.1410631 0.14577238 0.028760504 0.2731061
0.1888024 0.32237265 0.24656017 0.40755084 -0.33439964 0.37774014 0.18587226 -0.3658871
-0.22770047 0.060991313 0.10363713 -0.40150216 0.5945797 0.11987689 -0.45039564 -0.2951022
-0.16760781 -0.108388826 -0.31752306 -0.4247433 0.4711087 -0.4977561 0.56671005 0.25121418
-0.3085009 0.17251678 -0.5543079 0.18048763 0.067313336 -0.24643834 0.4127089 0.13044073
0.39671826 0.4149686 -0.48237553 -0.23251694 -0.33790004 -0.17057274 -0.54523206 -0.08709346
0.562736 -0.5031931 -0.33982927 0.2668855 0.05801873 -0.56441206 -0.5294158 -0.16297898
0.29768437 0.037808966 -0.3815124 0.5172561 -0.50223696 0.25765732 -0.50993794 -0.027856793
0.16272548 0.42471117 0.27196893 0.39427567 -0.43181485 0.07578395 0.506139 0.38051552
0.05120285 -0.3303155 0.5403179 -0.218924 0.4644864 0.59491575 -0.2874917 -0.5103027
0.342811 0.5537839 0.1717463 0.2302465 -0.121727556 0.30842143 -0.5761078 -0.2570776
-0.386418 0.19183315 -0.19284186 -0.3784987 0.45880085 -0.25065103 0.44278193 -0.03158155
0.24032427 -0.341562 0.4433196 -0.37661055 -0.2909059 0.08543402 0.14983825 -0.017758425
-0.56863457 0.45492518 -0.086021855 0.029034212 -0.4405678 -0.21151808 0.4022477 0.4879976
-0.52817863 -0.4952465 -0.48095772 -0.5561922 0.2493793 -0.3171548 0.3941978 -0.5316711
-0.43642062 0.55371886 0.56925714 0.0036117565 -0.29432487 -0.5033004 0.07396224 0.48879734
-0.5162194 -0.39614934 -0.39192626 -0.018827152 -0.3632859 -0.33383754 -0.3914886 -0.3914491
0.35534763 0.056967977 -0.16444854 -0.034601785 0.38114795 -0.1071382 0.15094027 -0.0053602685
0.54533386 -0.23138753 -0.23569857 0.16620867 0.019342316 0.21034575 0.49003303 0.1862904
-0.32771853 0.42444417 -0.4795928 -0.36876518 0.4208709 -0.5134099 0.13825914 -0.5582554
-0.40198794 0.10160752 -0.50505006 0.26853266 -0.026212886 -0.26406518 -0.35001567 -0.0806909
0.3399608 -0.4210578 -0.29934534 0.42419612 0.4832637 -0.24351925 0.3143021 -0.1772758
0.21082999 -0.24962877 -0.43384948 0.24257007 -0.37028787 -0.15241362 0.019079397 0.10874703
-0.25355902 0.5721427 0.18838763 -0.44106433 0.04548813 0.15332855 -0.265208 -0.02639453
-0.4042262 0.17325461 -0.5061303 0.15564643 -0.04533097 0.51643413 0.39826515 -0.3644977
0.46124765 0.5640794 0.488436 -0.26209047 -0.19399951 0.24223615 -0.5190028 -0.23674256
-0.36380857 -0.02503535 0.4728331 0.5742957 0.53162014 -0.28854993 -0.5116504 0.11875544
0.32586625 0.16724494 -0.5315258 -0.04764451 0.41405642 -0.0015255339 -0.2294006 -0.22531623
-0.27296963 0.52818984 0.5076724 -0.437081 -0.08072538 -0.36008757 -0.18302824 0.13307205
00000000: 4f2c 89be 6796 023f e0f1 f83e 56c9 69be
00000010: d9b4 26be a62b c6be 1ede 143e cd1b ce3e
00000020: e24f 103f fef3 263e 5280 adbe abe7 93be
00000030: e838 7d3d 95a1 b03d 99ad ba3e 5d2c adbe
00000040: 8853 07bf e171 ebbe d6b1 7dbe 2822 dbbe
00000050: 69f2 e33e 1c76 6bbe 946c 213e 1a55 113f
00000060: fde7 cebd 0f68 a4be 64c2 85bd b31a dc3e
00000070: d872 103e 5b45 153e 269b eb3c 90d4 8b3e
00000080: 6b55 413e 070e a53e 457a 7c3e 81aa d03e
00000090: 6e36 abbe 2867 c13e 4c55 3e3e 8e55 bbbe
000000a0: 502a 69be 07d2 793d b43f d43d b191 cdbe
000000b0: 6036 183f 0482 f53d 429a e6be a317 97be
000000c0: 62a1 2bbe f6fa ddbd 6292 a2be f477 d9be
000000d0: 2935 f13e e3d9 febe e913 113f 259f 803e
000000e0: d4f3 9dbe 3da8 303e 1fe7 0dbf c0d1 383e
000000f0: 93db 893d 555a 7cbe 954e d33e 4192 053e
00000100: a81e cb3e c476 d43e edf9 f6be ec18 6ebe
00000110: 3c01 adbe 9faa 2ebe 5494 0bbf 0e5e b2bd
00000120: 770f 103f 43d1 00bf 1afe adbe 37a5 883e
00000130: 0ca5 6d3d 4f7d 10bf cb87 07bf f6e3 26be
00000140: 166a 983e 93dd 1a3d 9855 c3be e56a 043f
00000150: 9a92 00bf a9eb 833e 4b8b 02bf ee33 e4bc
00000160: 82a1 263e be73 d93e 833f 8b3e 80de c93e
00000170: d616 ddbe 9e34 9b3d 5392 013f eed2 c23e
00000180: 14ba 513d 1d1f a9be 4652 0a3f 9d2d 60be
00000190: 29d1 ed3e 664c 183f 1d32 93be 33a3 02bf
000001a0: ec84 af3e c8c4 0d3f 43de 2f3e bdc5 6b3e
000001b0: 4c4c f9bd 6ae9 9d3e cd7b 13bf ad9f 83be
000001c0: 95d8 c5be e96f 443e 5678 45be 95ca c1be
000001d0: f2e7 ea3e 5555 80be 50b4 e23e a85b 01bd
000001e0: 9117 763e 37e1 aebe c9fa e23e 19d3 c0be
000001f0: 9ef1 94be 08f8 ae3d 336f 193e 1e7a 91bc
00000200: 0992 11bf f4eb e83e 3a2c b0bd 28d9 ed3c
00000210: 1a92 e1be 3298 58be 69f3 cd3e d2da f93e
00000220: b736 07bf f390 fdbe 1740 f6be 9d62 0ebf
00000230: 4a5d 7f3e 1d62 a2be 4bd4 c93e 991b 08bf
00000240: 8672 dfbe 85c0 0d3f d6ba 113f 38b3 6c3b
00000250: c0b1 96be 4cd8 00bf 8479 973d a543 fa3e
00000260: f426 04bf 16d4 cabe 8faa c8be 663b 9abc
00000270: 9c00 babe c1ec aabe 3271 c8be 046c c8be
00000280: 20f0 b53e 4157 693d 3365 28be 9aba 0dbd
00000290: d325 c33e 466b dbbd 1690 1a3e 31a5 afbb
000002a0: 009b 0b3f daf0 6cbe f75a 71be 9b32 2a3e
000002b0: c773 9e3c e064 573e 9ce5 fa3e e9c2 3e3e
000002c0: b9ca a7be bf50 d93e 308d f5be cace bcbe
000002d0: 647c d73e d56e 03bf ce93 0d3e d3e9 0ebf
000002e0: 5dd1 cdbe 9a17 d03d f64a 01bf 1d7d 893e
000002f0: 68bc d6bc 8d33 87be 4135 b3be 4541 a5bd
00000300: 580f ae3e e394 d7be cb43 99be 3c30 d93e
00000310: 576e f73e 1c5d 79be 34ec a03e ca87 35be
00000320: d1e3 573e af9e 7fbe 8521 debe 4a64 783e
00000330: 5f96 bdbe 5112 1cbe 654c 9c3c c3b6 de3d
00000340: 7dd2 81be f277 123f b0e8 403e 2fd3 e1be
00000350: c351 3a3d 2902 1d3e 58c9 87be 5739 d8bc
00000360: bdf6 cebe a869 313e c191 01bf c761 1f3e
00000370: f8ac 39bd 0735 043f 69e9 cb3e 719f babe
00000380: a728 ec3e 8267 103f 4914 fa3e b930 86be
00000390: cfa7 46be c10c 783e 5edd 04bf a46c 72be
000003a0: 1e45 babe ef16 cdbc 2e17 f23e 0b05 133f
000003b0: 4218 083f d1bc 93be 85fb 02bf 0d36 f33d
000003c0: f1d7 a63e 4242 2b3e 1312 08bf e426 43bd
000003d0: 34ff d33e 6cf4 c7ba fee7 6abe 4cb9 66be
000003e0: adc2 8bbe 7337 073f d2f6 013f 15c9 dfbe
000003f0: 5953 a5bd 665d b8be c16b 3bbe 0a44 083e

0.bias f4 [128]
0.35518232 0.040489845 -0.49864992 0.03963503 -0.410329 0.5155113 0.16360958 0.5022649
0.2727001 0.268597 0.19426475 -0.21707253 -0.5248393 0.070017025 -0.35104954 0.36774656
0.13408545 0.123552464 -0.2866365 0.058434002 -0.39366028 -0.35314187 -0.07784042 -0.21247248
-0.100081235 -0.04741186 0.47531104 -0.4219194 0.54802424 0.47676516 0.007460515 0.39560258
0.15692404 -0.07301723 0.25254914 -0.0070843687 0.093849435 0.21635288 -0.4296276 0.24684037
-0.16385816 0.53915405 -0.538184 0.25683054 0.14995502 -0.18028527 0.3805692 0.34941724
0.11679823 0.36589047 0.51921064 0.41265583 0.24049906 -0.4230299 -0.15354246 -0.015685473
0.22574548 0.31867152 -0.18445998 0.08520682 -0.4796054 0.095895484 0.34532905 -0.24862948
-0.30817035 0.21611708 -0.2676516 0.4761891 0.18180439 0.56748825 0.45532948 0.24037471
0.016492039 0.07236494 0.025786016 0.4914913 0.21984142 -0.5620381 -0.3271736 0.10109428
0.08303001 -0.04041255 0.5580285 0.06634436 -0.15017734 -0.30208832 -0.5124753 0.13942814
-0.21818238 -0.35042894 0.48839507 0.2822669 0.2584592 0.06577683 0.58309466 -0.31332698
0.0045461426 -0.2334379 -0.5443962 -0.35005394 0.040121198 0.54737407 -0.33375177 0.3403936
-0.13640808 0.31559375 -0.5079545 0.3214105 -0.4257773 -0.28604427 0.3047849 -0.19788794
-0.075928554 -0.40450916 0.42235953 0.075943105 -0.4216373 -0.19166249 -0.30775082 -0.0021934505
0.15207838 0.6044743 0.2195057 0.4390341 0.22344306 -0.02281629 0.15142329 0.21648021
00000000: 75da b53e aed8 253d 0b4f ffbe 5758 223d
00000010: a516 d2be 8cf8 033f 4589 273e 6f94 003f
00000020: 599f 8b3e 8c85 893e 57ed 463e 4348 5ebe
00000030: de5b 06bf 1665 8f3d c4bc b3be 4749 bc3e
00000040: b24d 093e 1309 fd3d 05c2 92be 7e58 6f3d
00000050: d78d c9be 03cf b4be cc6a 9fbd 6392 59be
00000060: 64f7 ccbd f032 42bd f85b f33e d205 d8be
00000070: 514b 0c3f 901a f43e 5677 f43b 6c8c ca3e
00000080: b2b0 203e 0f8a 95bd 1f4e 813e fe23 e8bb
00000090: 2234 c03d 9c8b 5d3e 26f8 dbbe b9c3 7c3e
000000a0: 6fca 27be 0006 0a3f 6dc6 09bf 4b7f 833e
000000b0: cf8d 193e b49c 38be f7d9 c23e d1e6 b23e
000000c0: e933 ef3d ff55 bb3e fdea 043f a047 d33e
000000d0: 6345 763e 6097 d8be 3c3a 1dbe d27e 80bc
000000e0: d329 673e ea28 a33e 14e3 3cbe ea80 ae3d
000000f0: d78e f5be da64 c43d f8ce b03e ba98 7ebe
00000100: 81c8 9dbe cc4d 5d3e a109 89be 0fcf f33e
00000110: ee2a 3a3e e946 113f f220 e93e ca24 763e
00000120: 501a 873c 1234 943d 323d d33c bfa4 fb3e
00000130: 1c1e 613e bbe1 0fbf 4c83 a7be 850a cf3d
00000140: a30b aa3d a187 25bd f5da 0e3f 8ddf 873d
00000150: 17c8 19be 52ab 9abe 9531 03bf 40c6 0e3e
00000160: 346b 5fbe 6c6b b3be eb0e fa3e 4a85 903e
00000170: c454 843e 01b6 863d b145 153f 656c a0be
00000180: cff7 943b 580a 6fbe 8d5d 0bbf 453a b3be
00000190: 2056 243d b520 0c3f 83e1 aabe 1248 ae3e
000001a0: 8fae 0bbe 8195 a13e 4e09 02bf eb8f a43e
000001b0: 7bff d9be 6574 92be c40c 9c3e 23a3 4abe
000001c0: 6e80 9bbd d31b cfbe 823f d83e 0f88 9b3d
000001d0: d8e0 d7be 2c43 44be 8491 9dbe febf 0fbb
000001e0: 6fba 1b3e d4be 1a3f 1ac6 603e 14c9 e03e
000001f0: 42ce 643e 3ae9 babc b50e 1b3e fdac 5d3e

2.weight f4 [128, 128]
0.040811878 0.04957114 -0.027942697 0.07314146 -0.009903361 -0.017452072 -0.07435231 -0.08305776
0.02591026 -0.053193957 0.083272584 0.085142836 0.08838375 0.024439767 -0.083121285 -0.006579218
-0.022338314 0.04729935 -0.05552313 -0.015287041 0.026943205 0.08683898 0.07162848 -0.036746856
-0.06406443 -0.087682284 -0.036061253 -0.0005732498 -0.010478201 0.008661546 -0.0269001 -0.009801249
-0.02345646 0.009012871 -0.021020751 0.05152252 0.03545063 0.02348239 -0.03690318 -0.06696561
-0.06364194 -0.07063988 -0.066408806 0.024375703 0.020145034 0.04903946 -0.07560559 0.028004589
-0.087294236 0.0637698 -0.07701962 0.07747372 0.07124943 -0.033648483 0.02783339 -0.08668005
-0.045370735 -0.0030842642 -0.06804748 -0.056409795 -0.04606561 -0.0571891 0.027975582 0.0029676966
-0.006084182 -0.018358514 -0.042491358 -0.03350861 -0.0263518 -0.0681763 -0.014994868 0.062096722
0.032194175 0.03233543 0.081102714 -0.07519935 0.019717349 -0.06971697 -0.031100212 0.010143766
-0.055290837 -0.06541245 -0.044213306 0.019108823 -0.010167527 -0.07243045 -0.0061386568 0.08556019
0.062964074 0.043838065 -0.034035098 0.026866635 -0.06465636 -0.056564305 0.022044035 0.02169665
0.039514598 -0.08008276 -0.08194617 0.055640265 -0.03072932 0.019477766 0.044654205 -0.033284325
-0.06243988 -0.08476555 -0.073289424 0.051148403 0.011524266 -0.0033292216 0.013677484 0.08492284
-0.0046614204 -0.007217911 0.019523252 0.08185965 0.079073586 -0.04288369 0.008665339 -0.003242968
-0.026412955 -0.02421131 -0.06370259 -0.031707462 -0.0032254667 -0.022401355 -0.033416066 0.06467952
-0.045903005 -0.08689932 0.013566876 0.037758138 0.1170982 0.073342524 0.043917436 0.0072622653
0.013255237 0.09430643 0.09899199 0.05091173 -0.06265281 -0.02340954 0.10509593 0.038405575
-0.02672891 -0.018029356 0.055015016 0.10267655 -0.016487276 0.10714209 0.004866623 0.010867565
0.042734858 0.0054623615 -0.08061832 0.1015424 0.03917599 0.037026435 0.047783334 0.08130122
0.06882672 0.08063653 -0.05542937 0.050346117 -0.010130911 0.077839054 -0.043898147 -0.06722693
0.0751283 0.008123503 0.011516445 0.11304942 0.06960735 -0.052280746 0.0107165035 -0.03572351
-0.05083483 0.07284638 0.02651012 0.061262414 0.0062565836 0.07836061 0.08344532 0.035585344
0.09806496 0.061272476 0.087864205 -0.053883683 0.073338546 -0.014695373 -0.08625501 0.029236605
0.026190115 0.05713187 0.10884561 0.055049784 -0.057583097 -0.010269134 0.08771737 -0.0454847
0.07222251 0.102817714 0.052720256 0.102877036 -0.080639325 0.07619318 -0.036035366 -0.046464708
0.08541112 -0.048339084 0.02117603 0.06205407 -0.021191383 0.09812727 0.07069616 0.038370192
0.049530353 -0.06689107 0.047477864 -0.080819026 -0.087352484 0.08073439 -0.013524801 0.0360885
0.0703047 -0.008258047 0.02139421 0.0364591 0.0029618333 -0.012554134 0.014292407 0.031424798
0.0568737 0.020826057 0.0705953 0.09845331 0.067561746 -0.0708891 0.038902495 -0.040182076
0.104524806 0.114731774 0.03171053 0.07652915 -0.04331042 0.10255719 0.11422985 0.033271663
-0.023838582 0.032614578 0.06777228 0.03459607 0.047263674 0.12083703 -0.0021566963 -0.04362557
00000000: 5b2a 273d 1c0b 4b3d 15e8 e4bc 31cb 953d
00000010: b541 22bc a6f7 8ebc 0646 98bd 301a aabd
00000020: c141 d43c e8e1 59bd d18a aa3d 5e5f ae3d
00000030: 8a02 b53d e835 c83c 7e3b aabd 7b96 d7bb
00000040: d7fe b6bc f7bc 413d 396c 63bd 7f76 7abc
00000050: ffb7 dc3c a3d8 b13d f4b1 923d df83 16bd
00000060: 3634 83bd c592 b3bd f7b4 13bd 2546 16ba
00000070: c3ac 2bbc 28e9 0d3c 995d dcbc 6b95 20bc
00000080: c327 c0bc b9aa 133c b633 acbc 4709 533d
00000090: ae34 113d 245e c03c ca27 17bd 4425 89bd
000000a0: b556 82bd a4ab 90bd 5701 88bd 8eaf c73c
000000b0: 3307 a53c 9add 483d 1bd7 9abd e169 e53c
000000c0: 52c7 b2bd be99 823d 76bc 9dbd 8baa 9e3d
000000d0: 39eb 913d fed2 09bd d902 e43c 4f85 b1bd
000000e0: aad6 39bd 5e21 4abb 7a5c 8bbd f50d 67bd
000000f0: 4baf 3cbd 1e3f 6abd 0c2d e53c b07d 423b
00000100: d15d c7bb 9864 96bc 6b0b 2ebd 5340 09bd
00000110: bbdf d7bc 04a0 8bbd 09ad 75bc 2259 7e3d
00000120: 0ade 033d 2872 043d 2e19 a63d 1e02 9abd
00000130: 4786 a13c c5c7 8ebd dfc5 febc 0a32 263c
00000140: a578 62bd f6f6 85bd 0319 35bd 1b8a 9c3c
00000150: b395 26bc 6a56 94bd c926 c9bb 2e3a af3d
00000160: 4ff3 803d 8b8f 333d 6368 0bbd 6b17 dc3c
00000170: 8e6a 84bd f9af 67bd b195 b43c 2cbd b13c
00000180: 0fda 213d 6e02 a4bd 65d3 a7bd 0ce7 633d
00000190: 0ebc fbbc d68f 9f3c 54e7 363d 2555 08bd
000001a0: f6c0 7fbd 9099 adbd c418 96bd fd80 513d
000001b0: 46d0 3c3c 122f 5abb 8717 603c 07ec ad3d
000001c0: d4be 98bb 3a84 ecbb 3aef 9f3c 08a6 a73d
000001d0: 55f1 a13d cfa6 2fbd 11f9 0d3c fa87 54bb
000001e0: fb5f d8bc cc56 c6bc 8176 82bd afdf 01bd
000001f0: 5a62 53bb 0c83 b7bc 49df 08bd b276 843d
00000200: ca04 3cbd 45f8 b1bd 9a47 5e3c 47a8 1a3d
00000210: 2ed1 ef3d 9b34 963d c5e2 333d 4cf8 ed3b
00000220: 7e2c 593c bb23 c13d 50bc ca3d d188 503d
00000230: 1e50 80bd 5dc5 bfbc 893c d73d 2a4f 1d3d
00000240: 96f6 dabc 4db2 93bc 6d57 613d 1548 d23d
00000250: 5310 87bc 506d db3d 3178 9f3b df0d 323c
00000260: bf0a 2f3d 9cfd b23b 381b a5bd 76f5 cf3d
00000270: 0177 203d 08a9 173d 75b8 433d 4181 a63d
00000280: 06f5 8c3d c424 a53d e809 63bd bb37 4e3d
00000290: 1ffc 25bc 156a 9f3d 8bce 33bd 46ae 89bd
000002a0: dedc 993d 7118 053c 79af 3c3c 7486 e73d
000002b0: 4c8e 8e3d 5624 56bd 4694 2f3c d152 12bd
000002c0: 2f38 50bd 7c30 953d c02b d93c 4cee 7a3d
000002d0: 0704 cd3b 877b a03d 61e5 aa3d f0c1 113d
000002e0: 48d6 c83d d9f8 7a3d 26f2 b33d 23b5 5cbd
000002f0: 8532 963d ddc4 70bc 77a6 b0bd 9b81 ef3c
00000300: a78c d63c 1c03 6a3d 72ea de3d e27b 613d
00000310: 41dc 6bbd df3f 28bc 2aa5 b33d 2a4e 3abd
00000320: 65e9 933d 1892 d23d 32f1 573d 32b1 d23d
00000330: 3b26 a5bd 2c0b 9c3d d299 13bd c751 3ebd
00000340: 06ec ae3d 34ff 45bd 5b79 ad3c 692c 7e3d
00000350: 8d99 adbc f3f6 c83d 26c9 903d 102a 1d3d
00000360: 57e0 4a3d 2ffe 88bd 2678 423d 7284 a5bd
00000370: dce5 b2bd 1258 a53d 2097 5dbc 89d1 133d
00000380: e9fb 8f3d c24c 07bc e942 af3c 2356 153d
00000390: 511b 423b dbaf 4dbc b32a 6a3c 4ab7 003d
000003a0: 66f4 683d 689b aa3c 4594 903d e4a1 c93d
000003b0: d05d 8a3d 4e2e 91bd 3958 1f3d f695 24bd
000003c0: 1a11 d63d 7ef8 ea3d e7e2 013d 51bb 9c3d
000003d0: 4466 31bd 8109 d23d 57f1 e93d de47 083d
000003e0: 2149 c3bc dd96 053d 31cc 8a3d 9cb4 0d3d
000003f0: 8e97 413d 6879 f73d 5c57 0dbb bab0 32bd

2.bias f4 [128]
0.021117257 0.06708408 0.06623706 -0.09334183 -0.06600457 -0.0344192 0.05800012 0.10261166
-0.02958204 0.06102176 0.05312644 0.008954083 -0.07556636 -0.05914168 0.081587106 0.06318129
0.01824717 0.084398046 0.10637535 0.068274826 0.10620332 0.09631242 0.075389296 -0.027722215
-0.021030538 0.04821144 -0.04172848 0.084681734 -0.09323521 0.11688958 -0.08014294 0.022861335
0.044442628 0.02696345 -0.00947059 -0.0040430315 -0.08137044 -0.0882627 -0.046925522 -0.06228949
-0.009094133 0.07372522 -0.060794353 0.06096771 0.0030953172 0.026901258 -0.06960611 0.1180536
0.07122163 0.019884683 0.0015066551 -0.04744611 -0.046297975 -0.049047586 -0.007859607 0.07594114
0.003025764 0.0041604433 -0.054646075 0.043656986 0.009612927 0.09744777 0.039684754 0.011913913
-0.068812884 -0.052628793 0.003991022 0.09256193 -0.05927247 -0.07428599 0.082472354 -0.014093423
0.0017634663 0.01443445 0.016099643 0.027937563 -0.04545706 -0.085001186 0.033141676 0.05647868
-0.022470403 0.116453454 0.08242724 0.119089976 -0.089749224 0.085442364 0.07899838 0.07028776
0.019217098 0.0457335 0.10448419 -0.07582988 0.020182682 -0.026227193 0.025601598 0.05030535
-0.0394753 -0.018468423 0.08293956 -0.032984383 -0.052008923 0.08008334 0.09509099 0.08079473
0.06521355 -0.08263141 0.11891596 0.017352415 0.053170282 -0.09063844 0.080140375 0.012902526
0.06872508 -0.025937187 0.042185415 0.0025864835 0.07645933 -0.03411537 -0.03178699 0.056433804
-0.0056103626 -0.055744033 -0.019590916 0.049382646 -0.016820122 -0.032595936 -0.0061159013 0.026094241
00000000: 19fe ac3c 6163 893d 4ca7 873d 002a bfbd
00000010: 672d 87bd 26fb 0cbd 8991 6d3d 1026 d23d
00000020: 0956 f2bc f4f1 793d 1c9b 593d 25b4 123c
00000030: 89c2 9abd 8c3e 72bd 2417 a73d 3165 813d
00000040: 177b 953c e2d8 ac3d 52db d93d acd3 8b3d
00000050: 2081 d93d 723f c53d b465 9a3d b319 e3bc
00000060: 3c48 acbc 5c79 453d 7ceb 2abd 9e6d ad3d
00000070: 1af2 bebd ce63 ef3d fb21 a4bd b247 bb3c
00000080: 7909 363d 74e2 dc3c 892a 1bbc 687b 84bb
00000090: 8ca5 a6bd 13c3 b4bd fa34 40bd 4423 7fbd
000000a0: 8fff 14bc 40fd 963d 8003 79bd 47b9 793d
000000b0: ceda 4a3b 0760 dc3c a68d 8ebd 16c6 f13d
000000c0: a5dc 913d 34e5 a23c f57a c53a da56 42bd
000000d0: f2a2 3dbd 1fe6 48bd 95c5 00bc 0787 9b3d
000000e0: e54b 463b 5454 883b 90d4 5fbd abd1 323d
000000f0: 8a7f 1d3c b292 c73d 7b8c 223d 9332 433c
00000100: c5ed 8cbd 4a91 57bd 1ec7 823b 1c91 bd3d
00000110: b1c7 72bd 4123 98bd 44e7 a83d 1ae8 66bc
00000120: 1c24 e73a 797e 6c3c 66e3 833c 51dd e43c
00000130: 2f31 3abd 1a15 aebd 91bf 073d 3056 673d
00000140: da13 b8bc 267f ee3d 9dcf a83d 72e5 f33d
00000150: 71ce b7bd 68fc ae3d e7c9 a13d 07f3 8f3d
00000160: 2d6d 9d3c 0d53 3b3d cffb d53d b24c 9bbd
00000170: 2756 a53c 69da d6bc 71ba d13c fc0c 4e3d
00000180: dab0 21bd 174b 97bc 37dc a93d a21a 07bd
00000190: 4f07 55bd bc02 a43d 11bf c23d b577 a53d
000001a0: af8e 853d a83a a9bd 368a f33d a726 8e3c
000001b0: 15c9 593d a5a0 b9bd a320 a43d 1e65 533c
000001c0: bcbf 8c3d 397a d4bc 9dca 2c3d fe81 293b
000001d0: b696 9c3d 8fbc 0bbd 1333 02bd 2227 673d
000001e0: 22d7 b7bb db53 64bd 217d a0bc 7545 4a3d
000001f0: 5aca 89bc 5183 05bd e667 c8bb 97c3 d53c

4.weight f4 [1, 128]
0.0029155398 -0.09205865 0.08474902 0.08018241 0.005628332 -0.06254064 -0.051329162 -0.12616843
-0.14050312 0.0069510727 0.024810521 0.07777763 -0.023988575 -0.04558108 -0.017764674 0.02925084
0.063499585 -0.117004655 -0.089310735 -0.058839362 -0.06931026 -0.15316704 0.043880917 0.07874578
-0.08985194 0.056450237 0.08268509 -0.09133039 0.0048549324 -0.074092366 0.0053350534 -0.080147445
0.056416243 0.077429466 -0.060323607 -0.062392034 0.08123699 0.034992684 0.067382134 0.044689726
0.07644903 -0.09867168 -0.028711434 -0.08218429 0.025088038 0.03173885 -0.012795667 -0.13971859
-0.058097765 0.007534081 -0.057169795 -0.046170272 -0.14994818 -0.07100867 -0.0108942855 -0.059443463
-0.10196194 0.07227844 0.061889116 -0.07012483 0.03571482 -0.122068614 -0.057769377 -0.00094832515
-0.03948195 -0.11893595 -0.08945498 -0.0810092 0.0059826355 0.05657364 0.038631525 -0.07486335
-0.06783325 -0.09743133 -0.13974202 -0.122602336 0.063420795 0.0798062 -0.06667916 -0.11463111
0.04377484 -0.07859946 -0.13161819 -0.14673907 0.0015212185 -0.06665531 -0.08693215 0.059122197
0.07603771 -0.14165777 -0.08116571 -0.04911783 0.038726714 0.07754802 0.039731562 -0.035032377
0.07141436 -0.064404696 -0.11889846 0.017783295 0.06402005 -0.0781208 -0.105406076 0.052799053
0.044189733 0.080842875 -0.10921453 -0.11958238 0.045832623 0.04654902 0.034159694 -0.13720644
0.058173873 0.042342406 0.0444348 -0.07931099 0.03725954 0.034320887 -0.13988817 0.0461911
0.036073737 -0.038894366 0.034930117 -0.051105637 0.02719355 0.060862567 -0.06329877 0.0131877875
00000000: a412 3f3b 3f89 bcbd e590 ad3d ad36 a43d
00000010: df6d b83b 4f15 80bd 873e 52bd 4c32 01be
00000020: 0de0 0fbe d3c5 e33b 6f3f cb3c e149 9f3d
00000030: b083 c4bc 3ab3 3abd 3987 91bc 759f ef3c
00000040: 120c 823d 23a0 efbd 8ce8 b6bd 8b01 71bd
00000050: 8af2 8dbd d2d7 1cbe 7abc 333d 7845 a13d
00000060: 4b04 b8bd 5d38 673d cd56 a93d 6d0b bbbd
00000070: 2016 9f3b bdbd 97bd acd1 ae3b 5824 a4bd
00000080: b814 673d 5793 9e3d e315 77bd ca8e 7fbd
00000090: 945f a63d 7d54 0f3d a5ff 893d 930c 373d
000000a0: 4f91 9c3d 6114 cabd 3e34 ebbc 3d50 a8bd
000000b0: 6e85 cd3c 9900 023d eba4 51bc 6412 0fbe
000000c0: ecf7 6dbd 74e0 f63b e02a 6abd 0a1d 3dbd
000000d0: 048c 19be fe6c 91bd f27d 32bc fd7a 73bd
000000e0: 6cd1 d0bd b806 943d 717f 7d3d 9b9d 8fbd
000000f0: b449 123d 1cff f9bd 959f 6cbd 0699 78ba
00000100: d3b7 21bd b194 f3bd 2c34 b7bd 27e8 a5bd
00000110: fc09 c43b c3b9 673d 173c 1e3d f551 99bd
00000120: 29ec 8abd 148a c7bd 8818 0fbe ef16 fbbd
00000130: c3e2 813d 6f71 a33d 158f 88bd b7c3 eabd
00000140: 3f4d 333d c1f8 a0bd ebc6 06be c442 16be
00000150: 9f63 c73a 9482 88bd 7c09 b2bd 1e2a 723d
00000160: a9b9 9b3d bc0e 11be 353a a6bd c72f 49bd
00000170: e79f 1e3d 7fd1 9e3d 90bd 223d 1c7e 0fbd
00000180: b141 923d 9ce6 83bd 0981 f3bd 46ae 913c
00000190: f21c 833d ccfd 9fbd 24df d7bd d243 583d
000001a0: 4b00 353d f390 a53d deab dfbd 9be7 f4bd
000001b0: fdba 3b3d 2faa 3e3d 09eb 0b3d d87f 0cbe
000001c0: ba47 6e3d 3b6f 2d3d 4401 363d cd6d a2bd
000001d0: 769d 183d 0f94 0c3d d83e 0fbe e132 3d3d
000001e0: 0ec2 133d b34f 1fbd e212 0f3d 2554 51bd
000001f0: 02c5 de3c 074b 793d c9a2 81bd 9711 583c
