model_multinomial_2/dqn_retail_model_2_lr_0.005_ed_0.998_g_0.95.pth (torch, 71664 bytes, 5 tensors)

0.weight f4 [128, 3]
0.35472718 -0.08549019 -0.26712522 0.0056549795 -0.5356157 -0.119870506 0.47315085 -0.086508185
0.0742736 -0.17815438 -0.4509666 0.4871292 -0.17446849 -0.52298886 -0.57575303 0.12557645
-0.15945685 0.20732449 0.27128667 -0.29306093 0.49130547 0.5075536 2.2049973e-05 -0.33248824
0.49963814 -0.46202034 0.21264866 0.077041745 -0.23694514 -0.3351946 0.49932864 0.18378586
-0.040373538 0.48177105 -0.5381094 0.27733508 -0.41595313 -0.39503685 0.2908808 -0.564697
-0.0065346383 -0.2672626 -0.059944212 0.0928803 0.09627653 0.25896442 0.058139134 0.4734504
-0.50723296 0.49346426 0.5537497 0.31528348 -0.02376475 -0.10622346 -0.14173286 -0.23098668
0.055375267 0.11621085 0.44396603 -0.30986553 0.1775779 -0.39869887 0.4960432 0.32616305
-0.29615387 0.13975078 0.4856941 0.4074618 0.39578614 -0.25412196 -0.16677895 -2.0922957e-05
0.12829542 -0.32495868 -0.38879657 0.49221808 -0.40697092 -0.52911955 -0.04525195 -0.25753874
-0.3498224 0.47688454 0.08768515 0.40645054 0.33886552 0.33870277 0.05151729 -0.37056333
-0.5575069 0.4546514 0.4602335 -0.52561563 0.3247526 -0.31529456 -0.22599271 -0.42508784
-0.28056768 0.3666029 -0.09722299 -0.28175962 -0.4280289 -0.4644806 -0.039507683 0.56834954
0.09472329 -0.1134378 0.09567244 0.25741917 0.20430145 -0.4244909 -0.43781036 0.030961843
0.17566472 0.4568045 0.028275449 -0.493109 -0.5433967 0.4688779 -0.40409863 0.21787423
0.5070468 -0.3776584 -0.29786357 -0.2221991 -0.27733505 0.37845957 0.22380145 0.057616744
0.23335539 0.43671447 0.08324322 -0.46543917 -0.14505036 -0.054024585 0.13996927 -0.16035078
0.22592053 0.4534202 0.4798772 -0.15017894 -0.24837993 -0.23644868 0.45188093 -0.52226734
0.5491202 0.52632535 0.1657301 0.21952316 -0.07613371 0.14448959 -0.41790384 -0.082966745
0.13918288 -0.3931169 0.026560936 -0.48694876 -0.4981288 0.4445641 -0.022528863 -0.0356905
-0.005162602 -0.24356936 -0.32153803 0.36457816 0.34600952 -0.39057696 -0.31907755 0.14900123
0.472168 0.147978 0.3116027 0.56355345 0.46730503 0.007345959 0.59408337 0.10039121
0.51505953 -0.34628338 -0.52955383 0.37958246 0.17537273 -0.1349566 -0.25637698 0.57421213
-0.5335078 0.13577667 -0.07516689 -0.30319503 -0.376105 -0.2638671 0.3718055 -0.23746592
0.10928485 -0.49303618 -0.23298562 -0.1827784 -0.115455896 0.4463709 0.53223324 0.05317136
-0.313771 -0.18914339 0.36646256 -0.14343292 -0.5632933 0.16578883 -0.32949907 -0.028026516
0.048437696 0.40016744 0.27796334 0.3315658 -0.52668583 0.39563507 0.3451381 0.60032964
0.5090051 -0.52358395 -0.28079554 0.0875822 0.3195508 -0.063528195 -0.32412297 0.1365205
-0.23346083 0.10679102 -0.15777184 0.2685125 0.10923916 0.21714176 0.41842335 0.23543942
0.5583441 0.32179296 0.15340842 -0.25176463 0.041396283 -0.19668867 0.4722254 -0.15850715
0.5214846 -0.4446067 -0.2569767 -0.2465377 0.100904174 0.16004498 -0.16388443 0.3661123
-0.04806939 -0.4112707 -0.4450664 -0.10427926 0.40388587 0.38322523 0.45602357 -0.23549028
00000000: cd9e b53e 7b15 afbd a3c4 88be 684d b93b
00000010: 1c1e 09bf ab7e f5bd d440 f23e 342b b1bd
00000020: c21c 983d 1a6e 36be 18e5 e6be 0069 f93e
00000030: dea7 32be 99e2 05bf 8d64 13bf 1d97 003e
00000040: a848 23be df4c 543e 16e6 8a3e 150c 96be
00000050: 648c fb3e 08ef 013f f5f7 b837 e63b aabe
00000060: 92d0 ff3e ee8d ecbe 92c0 593e 10c8 9d3d
00000070: bfa1 72be a09e abbe 01a8 ff3e 5c32 3c3e
00000080: b95e 25bd b2aa f63e 8ac1 09bf ddfe 8d3e
00000090: cff7 d4be 4542 cabe 54ee 943e fc8f 10bf
000000a0: 8520 d6bb a5d6 88be 1088 75bd 0738 be3d
000000b0: a12c c53d fc96 843e 4d23 6e3d 1768 f23e
000000c0: 05da 01bf 59a7 fc3e 8ac2 0d3f d66c a13e
000000d0: 4bae c2bc af8b d9bd 6b22 11be c687 6cbe
000000e0: 2dd1 623d f4ff ed3d 844f e33e b2a6 9ebe
000000f0: fbd6 353e 4222 ccbe 60f9 fd3e d8fe a63e
00000100: 7ba1 97be d41a 0f3e e6ac f83e d59e d03e
00000110: 7ba4 ca3e 461c 82be 1ac8 2abe b583 afb7
00000120: e05f 033e fc60 a6be 5810 c7be 0204 fc3e
00000130: 7e5e d0be 6174 07bf 1c5a 39bd 1edc 83be
00000140: ec1b b3be 362a f43e 4694 b33d 491a d03e
00000150: c87f ad3e 736a ad3e cb03 533d 7aba bdbe
00000160: c6b8 0ebf 11c8 e83e baa3 eb3e bf8e 06bf
00000170: f945 a63e 4a6e a1be a26a 67be 1da5 d9be
00000180: 91a6 8fbe 60b3 bb3e d91c c7bd cc42 90be
00000190: 9b26 dbbe 67d0 edbe cfd2 21bd 5b7f 113f
000001a0: 49fe c13d 1452 e8bd eaef c33d 72cc 833e
000001b0: 6634 513e df56 d9be ae28 e0be b1a3 fd3c
000001c0: 74e1 333e 48e2 e93e eaa1 e73c c878 fcbe
000001d0: 0c1c 0bbf c410 f03e 04e6 cebe 6c1a 5f3e
000001e0: d2cd 013f 715c c1be 9381 98be 2988 63be
000001f0: dcfe 8dbe 74c5 c13e 352c 653e 89ff 6b3d
00000200: b7f4 6e3e 0a99 df3e 6c7b aa3d 0b4e eebe
00000210: 1588 14be e248 5dbd 1b54 0f3e ff32 24be
00000220: b657 673e b126 e83e 77b2 f53e 82c8 19be
00000230: 4f57 7ebe 9a1f 72be f05c e73e 50b3 05bf
00000240: 2493 0c3f 42bd 063f 27b5 293e aeca 603e
00000250: feeb 9bbd 14f5 133e 7ef7 d5be 78ea a9bd
00000260: f585 0e3e 9e46 c9be 5296 d93c 5951 f9be
00000270: bd0a ffbe e89d e33e 738e b8bc 3430 12bd
00000280: 0b2b a9bb 3f6a 79be a2a0 a4be fda9 ba3e
00000290: 2928 b13e b4f9 c7be 225e a3be c793 183e
000002a0: 01c0 f13e 8b87 173e 648a 9f3e 0a45 103f
000002b0: 9b42 ef3e 5fb6 f03b d915 183f e899 cd3d
000002c0: f1da 033f 0e4c b1be d790 07bf a258 c23e
000002d0: e994 333e 1032 0abe d843 83be 91ff 123f
000002e0: f893 08bf 0a09 0b3e 19f1 99bd 613c 9bbe
000002f0: d690 c0be 9719 87be 4a5d be3e 442a 73be
00000300: bcd0 df3d 3d6f fcbe c893 6ebe 432a 3bbe
00000310: 2474 ecbd ba8a e43e 7040 083f 36ca 593d
00000320: 98a6 a0be ceae 41be fba0 bb3e 14e0 12be
00000330: fd33 10bf 8cc4 293e 1ab4 a8be dd97 e5bc
00000340: 9b66 463d bfe2 cc3e 3651 8e3e fec2 a93e
00000350: e2d4 06bf ae90 ca3e f1b5 b03e 34af 193f
00000360: 294e 023f 9909 06bf 6fc4 8fbe 4c5e b33d
00000370: 2a9c a33e 121b 82bd 72f3 a5be 08cc 0b3e
00000380: 5b10 6fbe 40b5 da3d f18e 21be 787a 893e
00000390: c8b8 df3d 695a 5e3e 963b d63e 0817 713e
000003a0: a4ef 0e3f 0cc2 a43e 1917 1d3e 4be7 80be
000003b0: 268f 293d c168 49be 87c7 f13e b34f 22be
000003c0: 0480 053f 7da3 e3be 7392 83be 6174 7cbe
000003d0: d9a6 ce3d d5e2 233e 52d1 27be 1273 bb3e
000003e0: 69e4 44bd 1392 d2be bedf e3be 5d90 d5bd
000003f0: 21ca ce3e 1936 c43e ec7b e93e 5d24 71be

0.bias f4 [128]
0.5728694 -0.2140967 -0.036091216 -0.2810701 0.42476982 -0.38608965 -0.08864824 0.12828964
-0.24646679 0.04496119 0.1412188 -0.063168176 0.3658233 0.54196584 0.5503467 -0.013941689
0.18211 -0.43770397 0.062127613 -0.33765137 0.19117185 -0.38096765 -0.13009675 0.3486377
-0.20767963 -0.1313525 -0.061933532 0.117308706 0.35093492 -0.18799978 0.4031319 0.2136794
0.24019423 -0.15583597 -0.50408095 0.5433222 -0.31233498 0.51619977 -0.36237624 -0.3627594
0.15269391 0.31766486 0.33756822 0.5833004 0.3615187 0.027268002 0.49143386 -0.31425476
-0.51388437 0.23773167 0.05568094 -0.34300992 0.023674188 0.2808618 0.18335217 0.2069147
-0.25318092 -0.16013199 -0.30106467 0.4594703 -0.2528032 0.07690898 0.12683345 0.004295538
0.35446548 0.10033749 -0.22263211 0.5302477 0.034139726 0.17261598 -0.4167849 0.42503127
0.22689642 0.14281534 -0.045637373 0.59928125 0.27151218 0.11739932 -0.51827186 -0.33446455
0.57752943 0.14426714 -0.008524728 -0.3137773 0.5019901 -0.13394925 -0.49953854 -0.31372333
0.26624385 0.25284663 0.4643178 -0.4948703 0.21580969 0.5291352 -0.09647712 -0.13958883
0.30405372 -0.2760038 0.34552154 0.55382377 -0.11374023 0.48900256 0.40282977 0.4235529
0.046349794 -0.33135274 0.27357253 0.023919 0.27955848 0.4249347 -0.10240568 -0.5202935
0.358819 0.41646573 -0.11476435 0.15970251 0.18471517 -0.33713454 0.5801027 -0.08265318
0.57332397 0.11791473 0.56095684 0.54561156 -0.15572715 0.562192 -0.3919348 0.13836592
00000000: 92a7 123f 2a3c 5bbe 62d4 13bd 6ce8 8fbe
00000010: 6e7b d93e 8bad c5be 358d b5bd 5c5e 033e
00000020: ca61 7cbe 3a29 383d a99b 103e 515e 81bd
00000030: 314d bb3e 46be 0a3f 85e3 0c3f af6b 64bc
00000040: 0b7b 3a3e bc1a e0be 8679 7e3d a4e0 acbe
00000050: 8ec2 433e 310e c3be 1538 05be a480 b23e
00000060: f8a9 54be 4581 06be 04ae 7dbd 8c3f f03d
00000070: bead b33e 0483 40be 4e67 ce3e c6ce 5a3e
00000080: 7af5 753e 7793 1fbe 730b 01bf 2a17 0b3f
00000090: 5fea 9fbe ab25 043f 6189 b9be 9abb b9be
000000a0: cb5b 1c3e f8a4 a23e bed5 ac3e 2d53 153f
000000b0: fb18 b93e 2561 df3c 389d fb3e 00e6 a0be
000000c0: ed8d 03bf ee6f 733e b311 643d ff9e afbe
000000d0: 5ff0 c13c 1ecd 8f3e acc0 3b3e 72e1 533e
000000e0: eea0 81be a4f9 23be 2625 9abe b13f eb3e
000000f0: 6c6f 81be 7582 9d3d a1e0 013e 96c1 8c3b
00000100: 807c b53e be7d cd3d acf9 63be 50be 073f
00000110: 19d6 0b3d 3ec2 303e d564 d5be b39d d93e
00000120: 8957 683e 2f3e 123e 41ee 3abd 7f6a 193f
00000130: a503 8b3e 0e6f f03d 77ad 04bf f03e abbe
00000140: f8d8 133f c4ba 133e 4dab 0bbc 6ba7 a0be
00000150: 6c82 003f fe29 09be 84c3 ffbe 58a0 a0be
00000160: 1d51 883e 1d75 813e 10bb ed3e a45f fdbe
00000170: 37fd 5c3e 6875 073f cc95 c5bd 60f0 0ebe
00000180: eeac 9b3e 5f50 8dbe 33e8 b03e 65c7 0d3f
00000190: a3f0 e8bd 8b5e fa3e b43f ce3e eddb d83e
000001a0: 48d9 3d3d 11a7 a9be b311 8c3e c7f1 c33c
000001b0: 4a22 8f3e 0a91 d93e 12ba d1bd f431 05bf
000001c0: 20b7 b73e ff3a d53e 9209 ebbd 0e89 233e
000001d0: f925 3d3e e69c acbe 9c81 143f 1246 a9bd
000001e0: 5cc5 123f 477d f13d de9a 0f3f 33ad 0b3f
000001f0: f076 1fbe d1eb 0f3f aeab c8be ccaf 0d3e

2.weight f4 [128, 128]
-0.013331308 -0.008870173 0.0117677245 -0.017419888 -0.06347826 0.003734127 0.06899029 0.029448766
0.039981667 -0.003430773 -0.017864687 0.02801244 0.05527844 -0.084141985 -0.010980762 0.110125765
-0.081611335 0.09055149 -0.009751088 0.0203895 0.0458867 0.032224383 0.03160934 -0.045905776
-0.013246789 -0.02044065 0.08104052 0.12186728 0.030053072 -0.03459523 0.022346694 0.08498326
-0.08172932 0.008281234 0.00110117 -0.044324104 0.016523734 -0.040953152 -0.049308557 0.09846286
0.0749145 0.0613647 0.056714807 0.08369402 0.08965981 0.06813925 0.0047332793 0.04873538
-0.009126697 -0.02563048 0.022990305 -0.08567244 -0.0033593988 0.07190051 -0.061830416 0.008592207
0.025903821 0.11831458 0.092186764 0.03757043 0.07855356 0.10191732 0.07607145 0.05061862
0.0699765 0.06381188 -0.018150348 -0.074816726 0.007991579 0.045072712 0.009612929 0.11891975
-0.054062925 0.033673503 0.06905983 -0.03419346 0.029403072 0.09715171 0.111746825 0.03106014
-0.041250214 0.077395014 0.03765809 0.0852062 -0.021295477 0.010328801 -0.0071575465 -0.08441005
-0.06644529 0.012650271 -0.013621999 0.043570694 -0.057106536 -0.03209427 -0.044036552 0.03318388
0.047159158 0.080766626 0.0156718 0.05072792 0.12678464 -0.0019475102 -0.002811542 -0.055169318
-0.011238429 0.06523112 -0.03286293 0.07519795 -0.048205934 0.0498429 -0.0023503464 0.045448773
0.05645565 0.110115886 -0.020686464 -0.03471325 0.11981577 -0.084396996 0.104389526 -0.03827369
0.048718806 -0.05952213 0.0035183402 -0.047674637 -0.0830994 -0.036576796 0.0025439837 0.05900028
0.06530876 0.010919627 -0.040180773 0.08114603 -0.045724377 0.065907866 0.048256222 -0.03834979
-0.0068720737 -0.04487672 0.11159277 -0.017724138 -0.0068498 0.013217347 -0.03851099 -0.012401886
0.064716086 0.011703386 -0.08442868 -0.03583726 -0.028851809 0.067359515 -0.016464379 0.038656108
0.043394603 0.05743065 -0.013864469 0.10636227 0.100993775 0.055227328 -0.021312809 -0.054789636
-0.030881364 -0.0013864416 0.021097401 0.10045697 -0.06365076 -0.028088646 -0.044500582 0.105938606
0.035616763 0.04777382 0.08045668 0.06851071 0.08293007 -0.035574745 0.08587984 -0.014049736
0.053640027 -0.030460425 -0.0053646932 0.032374784 -0.08007713 -0.035064038 0.055911105 -0.008380983
0.12199915 0.11404453 0.021465143 -0.07549941 0.04799031 0.08569321 -0.05049286 0.027937585
0.05711852 0.105406955 -0.05406851 0.018831527 -0.0074480013 0.11271405 0.009594125 0.002128586
0.10376275 0.106762804 -0.041511673 -0.026014384 0.013013299 0.123442285 -0.020129755 0.0011646859
0.097251214 -0.01741494 -0.04228453 0.071903706 0.020396266 0.050290197 -0.063848436 0.002132351
0.007162075 -0.0041460805 -0.051956728 0.045718513 -0.060144838 -0.07964431 0.06665106 0.082633875
0.06875408 -0.015736125 0.026602427 0.06547264 0.03144372 -0.040455423 0.084093384 -0.06272098
0.056933794 -0.07153998 0.056395676 0.08637433 0.055280652 -0.038334686 0.12412008 -0.062388733
0.028472599 0.0028063748 -0.033282984 0.010125992 0.0759356 -0.038537033 0.032311805 -0.03764916
0.11570224 0.058953453 0.09145342 -0.082110666 0.07914588 0.01590276 -0.037437096 0.06448184
00000000: 8f6b 5abc 3454 11bc 6acd 403c 27b4 8ebc
00000010: e400 82bd 41b8 743b c84a 8d3d 8a3e f13c
00000020: d1c3 233d d2d6 60bb f758 92bc 587a e53c
00000030: a56b 623d a252 acbd a7e8 33bc 9e89 e13d
00000040: d823 a7bd 0f73 b93d 07c3 1fbc e107 a73c
00000050: b1f3 3b3d b7fd 033d cc78 013d b207 3cbd
00000060: 0f09 59bc 2673 a7bc 92f8 a53d 8d95 f93d
00000070: dc31 f63c bab3 0dbd 6a10 b73c b40b ae3d
00000080: b461 a7bd 03ae 073c 2255 903a 318d 35bd
00000090: c85c 873c 7ebe 27bd c5f7 49bd e5a6 c93d
000000a0: c66c 993d 8d59 7b3d c94d 683d c567 ab3d
000000b0: 909f b73d 978c 8b3d a019 9b3b c09e 473d
000000c0: 2488 15bc 03f7 d1bc 2a56 bc3c 0875 afbd
000000d0: 5c29 5cbb 9340 933d e441 7dbd 54c6 0c3c
000000e0: 4034 d43c ea4e f23d 6acc bc3d 74e3 193d
000000f0: b0e0 a03d 07ba d03d 59cb 9b3d 7855 4f3d
00000100: d74f 8f3d ceaf 823d 0ab0 94bc 8339 99bd
00000110: 1def 023c 2a9e 383d 8c7f 1d3c 338c f33d
00000120: 1671 5dbd 3aed 093d 3d6f 8d3d 710e 0cbd
00000130: b6de f03c 7af7 c63d 85db e43d d671 fe3c
00000140: fcf5 28bd 4781 9e3d 5f3f 1a3d 9780 ae3d
00000150: da73 aebc 223a 293c da89 eabb 2ddf acbd
00000160: 7814 88bd 1543 4f3c ce2e 5fbc 2f77 323d
00000170: 8be8 69bd 4875 03bd ac5f 34bd d2eb 073d
00000180: f629 413d f968 a53d 2662 803c 14c8 4f3d
00000190: d5d3 013e 9943 ffba d941 38bb 39f9 61bd
000001a0: 6321 38bc e597 853d 489b 06bd 6201 9a3d
000001b0: 9673 45bd 1228 4c3d 4508 1abb 7e28 3a3d
000001c0: 0a3e 673d 7084 e13d a976 a9bc 7b2f 0ebd
000001d0: f861 f53d 55d8 acbd 2dca d53d dfc4 1cbd
000001e0: 5f8d 473d 7acd 73bd f493 663b 7b46 43bd
000001f0: 0530 aabd 8dd1 15bd f7b8 263b 47aa 713d
00000200: 99c0 853d 3ce8 323c 9894 24bd e42f a63d
00000210: 7c49 3bbd b4fa 863d 51a8 453d ab14 1dbd
00000220: 222f e1bb a7d0 37bd c08a e43d 3632 91bc
00000230: 4974 e0bb 928d 583c b3bd 1dbd 4831 4bbc
00000240: de89 843d 8fbf 3f3c f2e8 acbd 17ca 12bd
00000250: a15a ecbc c9f3 893d 4ee0 86bc de55 1e3d
00000260: 8abe 313d 673c 6b3d cc27 63bc 76d4 d93d
00000270: d3d5 ce3d 0d36 623d 3398 aebc 196b 60bd
00000280: eafa fcbc 43b9 b5ba 75d4 ac3c 62bc cd3d
00000290: 545b 82bd 291a e6bc 3e46 36bd 57f6 d83d
000002a0: e2e2 113d 7bae 433d 79c6 a43d 584f 8c3d
000002b0: 3ed7 a93d d3b6 11bd c5e1 af3d dd30 66bc
000002c0: a5b5 5b3d 2488 f9bc 4fca afbb 6c9b 043d
000002d0: 7aff a3bd 4f9f 0fbd 0b03 653d 6450 09bc
000002e0: b1da f93d 2e90 e93d abd7 af3c 6f9f 9abd
000002f0: 7d91 443d ec7f af3d 9ad1 4ebd 5ddd e43c
00000300: 1cf5 693d 9adf d73d f176 5dbd 9344 9a3c
00000310: 5d0e f4bb a0d6 e63d ad30 1d3c bf7f 0b3b
00000320: 9181 d43d 75a6 da3d 2508 2abd 1e1c d5bc
00000330: bb35 553c 4fcf fc3d 28e7 a4bc 60a8 983a
00000340: a52b c73d c7a9 8ebc 8b32 2dbd 4042 933d
00000350: 1216 a73c 18fd 4d3d f8c2 82bd eabe 0b3b
00000360: d7af ea3b d8db 87bb 94d0 54bd 5643 3b3d
00000370: 6f5a 76bd 8e1c a3bd 5a80 883d f33b a93d
00000380: f0ce 8c3d 0ce9 80bc 55ed d93c 8516 863d
00000390: 21cb 003d 96b4 25bd 2739 ac3d db73 80bd
000003a0: 6933 693d 8e83 92bd 27ff 663d 06e5 b03d
000003b0: f76d 623d d504 1dbd ab32 fe3d 548b 7fbd
000003c0: 5e3f e93c 28eb 373b bd53 08bd 7de7 253c
000003d0: 2084 9b3d 02d9 1dbd 6259 043d 0136 1abd
000003e0: 4cf5 ec3d 2d79 713d ee4b bb3d a329 a8bd
000003f0: 3c17 a23d 8146 823c a457 19bd 0e0f 843d

2.bias f4 [128]
-0.036237806 0.035009164 0.10594069 0.016943011 0.0484294 0.03180851 -0.002762287 0.055119276
-0.021392383 0.052701935 0.03838436 0.056207817 0.11936105 0.083832905 0.04273303 0.06400411
0.048106473 0.053246673 0.074570134 -0.015158894 -0.04019805 0.065235384 0.054651566 0.06649653
0.033641852 -0.008210197 0.070922405 0.065871984 0.07664665 -0.06532154 -0.06287253 0.07805036
0.0542719 0.08365599 0.066524826 0.08063896 -0.05464808 0.058872133 0.038912483 -0.0034875462
0.023515586 -0.0346422 -0.0384072 0.083820544 -0.08500794 -0.026527463 0.011215234 -0.02470297
-0.0073636007 0.022257335 -0.052623495 0.10725667 -0.07705403 0.06539918 0.0025287666 -0.05732751
0.052899253 -0.048971377 0.07966775 -0.008326023 -0.044256132 0.014600655 -0.084910534 -0.06447596
-0.027203705 0.07805988 0.028201625 -0.08319156 0.057172455 -0.0027452842 -0.034663033 0.038296007
-0.055405054 -0.07456866 -0.06932446 0.076456055 0.0031831302 0.08124813 -0.0006898693 -0.075328685
0.0401191 -0.07275655 -0.08625177 -0.08654902 -0.06347583 -0.002828479 0.03463297 -0.0014020251
-0.07677519 0.023593973 -0.06828057 -0.013746692 0.020955002 -0.0012213025 0.06999538 0.050850287
0.06180924 0.085583255 0.08055755 -0.05283707 0.032811534 -0.054478586 -0.048403323 -0.060506143
0.02693803 0.057062533 -0.053682517 0.072495215 0.08021175 -0.04823159 0.021793265 -0.024647983
0.046232298 -0.040432215 0.01920673 0.07344199 -0.017908152 -0.0074147503 -0.08026985 0.083004385
0.07483113 0.023177886 0.043615054 0.038485475 -0.018184962 -0.058737975 0.02745153 0.1073661
00000000: 186e 14bd c565 0f3d 6ff7 d83d 12cc 8a3c
00000010: e85d 463d a449 023d 7c07 35bb c0c4 613d
00000020: 143f afbc fcdd 573d eb38 1d3d 2b3a 663d
00000030: 9173 f43d 96b0 ab3d d408 2f3d 9614 833d
00000040: 4b0b 453d 2f19 5a3d 3ab8 983d 025d 78bc
00000050: b6a6 24bd 219a 853d 52da 5f3d 552f 883d
00000060: 0acc 093d 1084 06bc c43f 913d e4e7 863d
00000070: ebf8 9c3d 4dc7 85bd 50c3 80bd ded8 9f3d
00000080: 364c 5e3d d553 ab3d 2b3e 883d 0a26 a53d
00000090: aad6 5fbd e823 713d b262 1f3d 518f 64bb
000000a0: c2a3 c03c fbe4 0dbd de50 1dbd 1baa ab3d
000000b0: a518 aebd 1f50 d9bc 1ac0 373c e25d cabc
000000c0: 5c4a f1bb 0455 b63c bc8b 57bd 63a9 db3d
000000d0: 81ce 9dbd 01f0 853d aab9 253b 40d0 6abd
000000e0: e3ac 583d 3696 48bd d828 a33d df69 08bc
000000f0: eb45 35bd 9637 6f3c 93e5 adbd f90b 84bd
00000100: 4eda debc dcdd 9f3d 1807 e73c 5660 aabd
00000110: aa2d 6a3d 3aea 33bb d3fa 0dbd 46dc 1c3d
00000120: 69f0 62bd 74b7 98bd fcf9 8dbd fe94 9c3d
00000130: 109c 503b 6b65 a63d 58d8 34ba ed45 9abd
00000140: ed53 243d 6301 95bd c5a4 b0bd 9d40 b1bd
00000150: 9eff 81bd 015e 39bb 4ddb 0d3d 28c4 b7ba
00000160: 503c 9dbd 2648 c13c afd6 8bbd ce39 61bc
00000170: d3a9 ab3c 1d14 a0ba bd59 8f3d 6448 503d
00000180: b02b 7d3d 4646 af3d 5bfb a43d af6b 58bd
00000190: 6365 063d f024 5fbd 9042 46bd 4ad5 77bd
000001a0: 25ad dc3c 67ba 693d 33e2 5bbd 5f78 943d
000001b0: 0f46 a43d 7d8e 45bd ca87 b23c 91ea c9bc
000001c0: 145e 3d3d 409c 25bd 6f57 9d3c c168 963d
000001d0: 1eb4 92bc 6ff7 f2bb 8564 a4bd 34fe a93d
000001e0: 1041 993d 8ddf bd3c b3a5 323d f2a2 1d3d
000001f0: a1f8 94bc 3b97 70bd 08e2 e03c c2e2 db3d

4.weight f4 [1, 128]
-0.08192294 -0.08826067 -0.15225916 0.012149448 0.011844785 -0.10140636 0.08296572 0.013345754
0.07125436 0.07411443 0.07032326 0.06915747 -0.1360353 -0.17322294 -0.10719779 -0.045236222
0.01732849 0.019115472 -0.14123951 -0.10802015 0.05626916 -0.070041336 -0.092357956 -0.14780441
0.06826634 -0.14872527 -0.04944192 0.08575171 -0.07216422 -0.009291251 -0.0016488575 -0.1504396
-0.11853242 -0.017258702 0.061530247 -0.113079004 0.07068826 -0.16427249 -0.15263757 0.048881736
-0.15260485 -0.06758709 0.050586678 -0.021637423 0.025862789 -0.0431447 0.05907813 -0.10778502
0.026376512 0.031705704 -0.11807004 -0.13242166 0.026013575 0.027190194 -0.059178665 0.053893693
0.061876383 -0.1646794 -0.011892516 0.061579973 -0.11184367 0.019356314 -0.039912075 -0.022763362
-0.10040658 0.05528103 0.07237787 0.019498289 0.00073567696 0.009124272 -0.018127201 0.053771835
0.019204833 -0.038325477 0.0042790114 0.016458482 0.032424424 -0.11484955 -0.11803989 0.024183545
0.05421469 0.066475205 -0.06419861 0.02345835 0.033864096 -0.11045593 0.023464924 -0.078322634
-0.0022147114 -0.004268774 0.017159618 0.0013259968 -0.05084231 -0.15588658 -0.105853625 -0.07109486
0.06919454 -0.11327202 -0.07706716 0.014229819 0.03880856 0.020784594 0.04182708 0.027567847
0.0766477 0.02475224 -0.10727694 -0.006673321 0.053572573 0.052421473 -0.00086480135 0.061450567
-0.1387604 0.08210479 -0.07472194 0.06483336 0.059666492 0.023878168 -0.0771011 -0.14337282
0.04783996 -0.1429144 0.045983233 -0.08645957 -0.1004791 -0.08479527 0.04637254 -0.09169726
00000000: 37c7 a7bd 03c2 b4bd d3e9 1bbe 7a0e 473c
00000010: a110 423c 23ae cfbd eee9 a93d 26a8 5a3c
00000020: ceed 913d 4ec9 973d a405 903d 6ea2 8d3d
00000030: d64c 0bbe 5b61 31be 848a dbbd 9e49 39bd
00000040: 7af4 8d3c 0d98 9c3c 17a1 10be ab39 ddbd
00000050: 7e7a 663d d571 8fbd 2b26 bdbd 0a5a 17be
00000060: 39cf 8b3d 704b 18be 9c83 4abd 989e af3d
00000070: d6ca 93bd 553a 18bc 7a1e d8ba d70c 1abe
00000080: 20c1 f2bd 1f62 8dbc 2407 7c3d f795 e7bd
00000090: 02c5 903d 0c37 28be 064d 1cbe 3738 483d
000000a0: 7244 1cbe 1a6b 8abd fa33 4f3d f740 b1bc
000000b0: 33de d33c 7fb8 30bd e9fb 713d 64be dcbd
000000c0: 8e13 d83c d7dd 013d b5ce f1bd 8b99 07be
000000d0: 6c1a d53c f8bd de3c 5465 72bd a2bf 5c3d
000000e0: 1772 7d3d b7a1 28be d4d8 42bc 483b 7c3d
000000f0: 4b0e e5bd 2291 9e3c d87a 23bd 3b7a babc
00000100: f7a1 cdbd 5c6e 623d d93a 943d e0ba 9f3c
00000110: 72da 403a f87d 153c 7f7f 94bc db3f 5c3d
00000120: 7453 9d3c 2dfb 1cbd f336 8c3b f0d3 863c
00000130: 79cf 043d 3e36 ebbd e6be f1bd 921c c63c
00000140: 3910 5e3d 2724 883d 907a 83bd ba2b c03c
00000150: 14b5 0a3d b836 e2bd 8339 c03c 9e67 a0bd
00000160: b124 11bb 12e1 8bbb 5492 8c3c 12cd ad3a
00000170: 0740 50bd bba0 1fbe c9c9 d8bd 2f9a 91bd
00000180: deb5 8d3d 29fb e7bd 63d5 9dbd 3024 693c
00000190: baf5 1e3d 7444 aa3c df52 2b3d f7d5 e13c
000001a0: 78f9 9c3d 36c5 ca3c 03b4 dbbd e0ab dabb
000001b0: ea6e 5b3d e6b7 563d d6b3 62ba 97b3 7b3d
000001c0: 3517 0ebe 8e26 a83d d107 99bd 5ac7 843d
000001d0: da64 743d 269c c33c 2ee7 9dbd 53d0 12be
000001e0: d5f3 433d 2758 12be ea58 3c3d b711 b1bd
000001f0: fdc7 cdbd 24a9 adbd 22f1 3d3d c6cb bbbd
