model_multinomial_2/dqn_retail_model_1_lr_0.001_ed_0.995_g_0.99.pth (torch, 71664 bytes, 5 tensors)

0.weight f4 [128, 3]
00000000: c551 953e 5b7b c3be 40f2 dabe b6bd 5d3e
00000010: 733f efbc 8b6d dd3e 9673 d13e ae4d bc3e
00000020: 67f2 6e3e c84b 193f 0dbf 5a3e d5d5 b6bd
00000030: e265 903e 3d86 d7bd cae9 0ebf a32e c93b
00000040: 556e 8cbe 3cc8 7c3e 4c63 053e c991 a2be
00000050: 6768 fa3d cb51 3ebe f191 a0be 1154 6cbe
00000060: d75c 18bc 229f ce3e 904f 093f c15d 89be
00000070: dfa2 073e 8632 3b3d 2ec4 f53e 0d2b cb3e
00000080: 6fc9 d8be eeac 95bd a94a 313e c7b7 8e3e
00000090: 7995 b73e be6b 0abf 65ff f6bd f471 ee3e
000000a0: a835 17bd 8d87 153f 878f c93e a374 403e
000000b0: 9575 f83c 8a28 eabc 076c 96bc 1a66 bc3e
000000c0: 878c 0bbf a21e 113e 5e86 ae3e 3f45 6cbe
000000d0: 8607 eebe 1d3e e03e 2104 a1be b8dd a23e
000000e0: 630b 04bf a448 7fbe ebe0 83bd 0d2e 0abf
000000f0: ce65 cabe e182 e13e 0488 063f d08c e13e
00000100: bb29 b63e c0c1 0d3f d464 bfbb 925c babe
00000110: e795 a2bc 1d59 343e ebc2 0bbf 27a6 e5be
00000120: 9fad bc3e 7b20 1dbe b7f6 96bd 505e e0be
00000130: 463f bfbe 89a0 2bbe be8c 10be 645b eebe
00000140: 507e efbe d40e d4be 9d85 f1be 3a37 98be
00000150: 1058 be3e 188e f3be 37a4 56bd df9e 1e3e
00000160: a8ef 053f 540b a23e af71 cd3e 1cf7 d23e
00000170: 9a4e 1f3f 773f a4be 1238 0c3f 4c37 d3be
00000180: 03eb 84be 62d5 b8be 5b9a 03be 890a ca3e
00000190: 15a2 6e3e c36c 01bf bc5f d0be f094 4bbe
000001a0: cf7b 90be 6112 08bf 19ca 523e 2e98 f33c
000001b0: ed76 a7be 27fd cc3e 7a1c 39be 5088 413e
000001c0: 1cfc 63be 51bd 97bc b089 023f d5cb 4e3e
000001d0: 592c b43d b2e7 e93e b9be 413e 08cb bd3b
000001e0: f26e a3be 7bc2 4dbe ed21 2c3e 9d52 0d3f
000001f0: 46ee 6cbe 7a1f 083b 1de3 5c3e 9a55 c3be
00000200: 933d ef3e 655c ee3d 87bb 2fbe 1f8c 00bf
00000210: 43e0 933e 8187 9c3e ee3b c1be 710f 163c
00000220: fb7f 23be 6f30 c7be 4f3e 0dbf 46f7 f53e
00000230: 199c 2b3d b663 393e b699 ac3d e7ca 173f
00000240: a106 85be cea5 c93d cd9a 0c3f 403e 773e
00000250: cbb3 963e 9fdd d23d 4db3 ad3e 0d0b e7bd
00000260: 4e14 d33d 520d 8a3d 0138 e8be 13db 153e
00000270: 84c3 113f e636 eb3e 81be 4f3c 208e 033f
00000280: a0b6 e83d 5944 ab3d d190 a4be da16 d23d
00000290: c0fa c63e 30fd 4bbe 18f6 a33e 7a0a cd3d
000002a0: bd44 adbd d7e5 99bd 773d c4be 16ee 853e
000002b0: fe12 0a3f 529c ab3d f677 15be 3ad5 cebe
000002c0: 27e5 96be 9eb2 b2be 4ce9 8fbe e8b7 febe
000002d0: c57d 85be bfdd 03be 9f5d 103f 9f92 013f
000002e0: 8ce6 05bd 0921 143f 2839 fabe 2503 c7be
000002f0: ad06 efbe 232c a73e ed90 84be 28ea 283e
00000300: 46a6 62be 6691 e73d a452 833e 5ce6 173f
00000310: 637f b63c efef 113d 0364 51bd c70e b4bc
00000320: 3f16 30be c365 f43e 22da 933d b53c 063c
00000330: 6559 06bf 2b73 a9be 24a6 21be 48f0 803c
00000340: 8400 b13e 9a98 92be b2f5 23be 184c 13bf
00000350: b40e 003f 93fb 1d3f e1c5 553e d6a6 8a3e
00000360: 2344 e0be edb3 c33e 429a 0a3e 88c9 cc3e
00000370: e286 07be c7c5 6e3e 1938 36be de11 6d3e
00000380: 8227 adbd 43f9 f2bd 1487 dc3d 43c3 b3be
00000390: 2af5 113f 8c2b 823d 7c97 04be a03c abbe
000003a0: b02a d73e 5aa3 acbe a3e3 7bbe eb1a 2f3d
000003b0: 6e72 12bf 3bef c9be 36fd c8be af0b 8b3e
000003c0: 45b6 263d 1099 9d3d 71db 8bbe 9c17 98be
000003d0: 5159 ddbd 37c8 083f 6bdb c23d dc93 a73e
000003e0: 6e30 18be 4f0e 06bf f90a 8ebe 507b 0fbc
000003f0: fd79 f5be 30cb c3be 0ed5 883e 817f 9a3e
0.29163948 -0.3818005 -0.42762947 0.216544 -0.02920506 0.43247637 0.40908498 0.36778015
0.23334657 0.5988126 0.21361943 -0.08927504 0.2820273 -0.10523651 -0.55825484 0.0061395927
-0.27427927 0.24685758 0.1302616 -0.3175185 0.122269444 -0.18585889 -0.31361344 -0.23078944
-0.0092994785 0.40355784 0.5363703 -0.2682934 0.13245724 0.04570248 0.48001236 0.39681283
-0.42341182 -0.07308374 0.17313637 0.27874586 0.35856226 -0.5407065 -0.120604314 0.46571314
-0.036916405 0.5840996 0.39367315 0.18794493 0.030329505 -0.028583784 -0.018362058 0.36796647
-0.545113 0.14171842 0.3408689 -0.2307329 -0.46490115 0.4379739 -0.31448463 0.31809783
-0.51579875 -0.24930054 -0.06439384 -0.5397652 -0.39530796 0.44045165 0.52551293 0.44052744
0.35578713 0.55373764 -0.005840877 -0.3639875 -0.01984687 0.17612119 -0.54594296 -0.44853327
0.36851212 -0.15344422 -0.07371276 -0.43821955 -0.3735296 -0.16760458 -0.14116189 -0.465541
-0.46776056 -0.41417563 -0.4717225 -0.29729635 0.3717656 -0.47569346 -0.0524027 0.15490292
0.5231881 0.31649268 0.40125796 0.41204154 0.6222931 -0.3207967 0.54773057 -0.41253126
-0.2596055 -0.36100298 -0.1285185 0.39461163 0.23304017 -0.5055658 -0.4069804 -0.19881034
-0.28219458 -0.53153044 0.20584907 0.02973565 -0.3270792 0.4003689 -0.18077269 0.18899655
-0.22264141 -0.01852289 0.50991344 0.20194943 0.08797521 0.45684582 0.18920411 0.0057920255
-0.31920582 -0.2009372 0.16809817 0.5520418 -0.23137769 0.0020770715 0.21571012 -0.38151246
0.46726665 0.116387166 -0.1716138 -0.5021381 0.28882036 0.3057213 -0.37741035 0.009158955
-0.1596679 -0.3890414 -0.551732 0.48040217 0.041896913 0.18104443 0.084277555 0.5929398
-0.2598162 0.09846078 0.5492371 0.2414484 0.29434046 0.10296177 0.33925858 -0.11281405
0.10306607 0.06740822 -0.45355228 0.14634351 0.5693896 0.45940322 0.012679697 0.5138874
0.11362958 0.08362646 -0.32141736 0.10258265 0.38863182 -0.19920802 0.32023692 0.10011764
-0.084603764 -0.075145416 -0.38328144 0.26158208 0.5393523 0.08379425 -0.14596543 -0.40397054
-0.29471704 -0.349019 -0.2810768 -0.49749684 -0.26072517 -0.12877558 0.56392854 0.5061435
-0.03269057 0.5786291 -0.48871732 -0.38869587 -0.4668478 0.3265086 -0.2589182 0.16495574
-0.22133741 0.113070294 0.25648987 0.59335876 0.02227754 0.03562921 -0.05112077 -0.021979703
-0.17195986 0.47733888 0.0721934 0.008193185 -0.52480155 -0.3309568 -0.15786034 0.015739575
0.34570706 -0.2863205 -0.16011694 -0.57537985 0.50022435 0.61711997 0.20876266 0.2708041
-0.43801984 0.3822321 0.13535407 0.39997506 -0.13235047 0.23317634 -0.17794837 0.23151347
-0.08454801 -0.11863949 0.107679516 -0.3510991 0.57014716 0.06355962 -0.12948412 -0.3344469
0.42024755 -0.33718377 -0.24598555 0.04275028 -0.57205856 -0.3944033 -0.39255685 0.2715735
0.04070117 0.0769521 -0.27315858 -0.29705513 -0.108080514 0.53430504 0.09514507 0.32729995
-0.14862224 -0.52365583 -0.27742746 -0.008757427 -0.47944632 -0.38240957 0.26725048 0.30175403

0.bias f4 [128]
00000000: 9a37 92be 6c3d 06bf 8240 153f dcef 133f
00000010: eb67 d7bd 8ab0 6d3e 751e 83ba 627b 27be
00000020: 51d5 c3bd f981 123e cd2f 013e 5272 a03e
00000030: a183 f9be 041c e2bd 8d51 d23e 30f5 f23e
00000040: 6117 c3be 0211 f93e 022f a1be a3ba c7be
00000050: b7fb fa3e 787d 0bbf 008f adbd 0494 ba3e
00000060: c970 aa3e 59f2 94be 1c62 c5be e656 3a3e
00000070: 09f3 2abe f5fe 883e eb0d cdbe a743 f7be
00000080: 55ae bb3d 47e2 f1be 787e f43e fbbf 813e
00000090: 2fe4 51be b1a0 cc3e 3c8b ad3e 77f6 a23e
000000a0: b577 5c3c 3567 c13e ce97 f8be 2878 7fbe
000000b0: 35ce 49bc e9d0 d8be a5ef d6be b70b 8abe
000000c0: 7e3b 103f c7ea e4be 93be a13d f3cb 173f
000000d0: d1bf 103f 7370 febe cf77 c6bc dd2b a9be
000000e0: eb54 40be a853 933e a5f1 d3be 798f 303e
000000f0: 782a d5be e0d5 fbbe 572c bd3e ca8a ad3e
00000100: a86e ba3d c6a2 28be 073b 25be 4ecc dc3e
00000110: f115 9dbe 4a6d 693e e216 f63d cd1b 823e
00000120: 6723 193d 55ee 17be d1ff e03e 4838 083e
00000130: 0d47 3dbe 83f5 913e 4171 02be 1d6e 95be
00000140: a4f8 af3e b1b2 943e 48d9 913e fbf0 a53e
00000150: 5e9c 0bbf f2c3 be3e e351 943e da5b f03e
00000160: ec87 c33e 3cc8 063e 0258 04be 5033 853e
00000170: 1b36 853d 7d4b 16bc 03c3 aa3e e84e c53c
00000180: 7129 f93d 3822 ddbe 9560 c7be 28b3 d5be
00000190: 50ff f43e b321 b7be 6560 06bf a847 db3d
000001a0: a753 35be 6d29 983e 91a4 813e 78cb 943e
000001b0: e8f0 01bf 2aef e5be f9f1 20be a641 c4be
000001c0: 72d1 86be 8277 93bd a98a 583e ee96 88be
000001d0: bb03 423e 9486 703e 6de3 293c 9d7e 0ebf
000001e0: 2ebd 223e a157 d23e 32ab 253e 480f b63e
000001f0: ce60 ca3e ebcb 6abe c2dd 73be 341b a7be
-0.28558046 -0.5243747 0.58301556 0.5778787 -0.10517868 0.23211876 -0.0010003584 -0.1635566
-0.09562171 0.14307393 0.12615891 0.3133722 -0.48733237 -0.110405 0.41077843 0.47452688
-0.38103774 0.48645788 -0.31481177 -0.3900958 0.49020168 -0.54488325 -0.08474541 0.36441052
0.33289173 -0.29091147 -0.38551414 0.18197212 -0.16694273 0.26757017 -0.4004968 -0.48293802
0.091641106 -0.47242948 0.47752738 0.25341782 -0.20497201 0.39966348 0.3389529 0.31828663
0.013456275 0.37774053 -0.48553318 -0.2494818 -0.01231723 -0.42346886 -0.4197971 -0.26962063
0.5634078 -0.4471037 0.07897677 0.59295577 0.5654269 -0.49695167 -0.024227051 -0.33041278
-0.18782394 0.28774762 -0.41395298 0.1724223 -0.41633964 -0.4918661 0.3694789 0.3389495
0.09103137 -0.16468343 -0.16135798 0.43124622 -0.30680802 0.22795597 0.12016083 0.25411835
0.037387278 -0.1483701 0.43945172 0.1330272 -0.18484135 0.28507623 -0.12738515 -0.29185572
0.34369385 0.2904258 0.28486085 0.32410416 -0.5453547 0.3725887 0.28968725 0.46945077
0.38189638 0.13162321 -0.12924197 0.2601571 0.065044604 -0.009173271 0.33351907 0.024085477
0.121661074 -0.4319017 -0.38940874 -0.41738248 0.47851038 -0.35767898 -0.52490836 0.10707027
-0.17707692 0.29719105 0.25320867 0.29061484 -0.5075822 -0.4490903 -0.15717305 -0.38331336
-0.2633167 -0.07200529 0.21146645 -0.2667765 0.18946736 0.23488837 0.010369164 -0.55661947
0.15892479 0.4108248 0.16178587 0.35558534 0.3952698 -0.22929351 -0.23815063 -0.32637942

2.weight f4 [128, 128]
00000000: fc37 6b3d c4b6 823d 149b 243d 3068 8b3d
00000010: 36ba 813c aa5c 913b f6f6 d53c cdc4 47bd
00000020: 166c bc3d ca05 613d f32d 363d 93f8 69bd
00000030: 4895 c23b a346 1ebd 9c3d a13c 828f 8c3d
00000040: f5ae 533d 0da7 ba3d a929 92bc 3ab4 45bc
00000050: be42 8a3d 0364 27bc f0ce 6ebd 1c34 82bd
00000060: ea34 fabc 89b6 2c3d 36f4 473d d820 273d
00000070: 21c1 3e3b fd5e 003d b4b6 353d 4b90 763d
00000080: 3b9a 843d 39dd 81bd de5e 913d 8d2c 2abd
00000090: 1bd2 95bd ba08 413d 1ca0 5e3d 1cc6 3f3c
000000a0: 6619 263c 721f 82bd ce6d d33d a312 203d
000000b0: 75fc b03c bd46 273b e0f0 bebb d35c 0fbc
000000c0: f49e 8abd db69 84bd a098 bf3c af5e 313d
000000d0: 8a36 82bd 49a8 a33d f442 ce3b bcaa 95bc
000000e0: 5445 223d 55a9 7b3d ee27 823b 1c30 9dbd
000000f0: fa07 6d3d 45d8 cb3d 7e1d 5e3d 3024 47bd
00000100: 8e7c 923d fbcd 59bd 9b0f 86bb d703 153c
00000110: 24cf 7abd b0f0 71bd 0cc2 8a3c 1f57 41bd
00000120: fe1f 573d 3c4d 0c3d 347a 0a3d 2979 90bd
00000130: 2739 383c 42fe 89bb 3025 1a3d e9a4 923c
00000140: d134 b8bc 73c5 ac3d 38a4 9d3c eef0 62bd
00000150: 38a4 c0bc 4f66 a8bd cc27 743d 6dd1 86bc
00000160: ada6 d5bc 0c48 6e3d 6447 51bd f8f9 0c3d
00000170: c085 a23d f6aa 213c 3384 69bd 7181 1d3b
00000180: e88a 753d ac11 4d3d 64b5 b8bc 76e0 a73c
00000190: c656 b33d 35d1 663d 5801 683d e16f 673d
000001a0: 5332 a33d 62c0 83bd 9218 ec3c b6d0 b3bc
000001b0: 244d b73d 1d1d 243d 4744 923d 036c c93c
000001c0: 2855 d7bc 0b44 0abd 5a3a 06bd f323 3b3d
000001d0: 58e2 54bd 730b 873d 1395 83bd 35af 11bd
000001e0: 8046 3bbd d2f7 cebc 78b2 e8bc 17bb b03d
000001f0: be9a 7f3d 2499 403d a066 f0bb 4a31 953d
00000200: 2ca5 d5bc 685c 653b 5de7 b03b 74ea 253d
00000210: 9762 91bd 5ae0 9cbc ef3f b4bd 38b7 3fbc
00000220: 2d17 493d deac 5f3d 86bd 9ebd 9dfa ea3c
00000230: 0b81 c93c abb6 923b 4179 e83c f972 b0bd
00000240: ed0d a33c 7767 c33c f75c efbc 1150 84bd
00000250: 1efa 373d 18ad cfbd 968e 71bd d2af b03b
00000260: 0817 423d 069c 7b3d eae3 0e3d 87eb 60bc
00000270: ed60 30bd a0a1 d23c 847a 8e3d 16e0 b4bd
00000280: 3f83 a6bc c108 853d b2a3 52bd 7a85 09bd
00000290: ba8f cdbc 1038 2ebc 9803 ac39 0ed5 20bd
000002a0: 93fe 32bd 2c60 063d b6bd 93bc 82e3 09bd
000002b0: 7985 c6bd aad0 adbd 5fc1 9c3d 5aa6 5e3d
000002c0: 8c0a a6bd 8c2f 263d 7fca 583c 3fec 17bd
000002d0: 569a 583b b585 2f3d bfe8 883d 4605 99bd
000002e0: db6a a03d d9e3 2d3d e242 803d 8608 8a3d
000002f0: e545 273d 812c 053d df9f 9cbc 3da0 e03c
00000300: 7dae 02bc 82f2 8abd 730d d83b de16 ee3a
00000310: 3bb6 86bd ad85 4c3b f64d 75bd c56b b4bd
00000320: 143a 6c3d c889 833d 492f 3c3d 1121 abbc
00000330: 3096 b4bd df56 7dbd d85b 1e3d 5206 a0bb
00000340: ecaf 593d ad3e 013d 6e27 70bd 2511 ec3c
00000350: a087 413d 9270 283b fe30 aabd e0b0 1cbd
00000360: 5192 a2bd 82fe a9bd f839 9f3d 6898 973b
00000370: 5044 6abb f30d d13c 8c18 6cbd 9421 86bc
00000380: 3b1a a0bc b53b 6ebd cd1f 893d 5d97 8ebd
00000390: b222 3d3b 00fe adbd 9d0c 123d 96ad 2c3d
000003a0: 5ac7 30bd cbde 6c3d d7e2 1dbd ee10 7e3d
000003b0: d280 1c3d 042e 983c ca13 24bb 038f 913d
000003c0: 9ff5 1dbc 0f40 0a3d 698f c6bb 0c44 703d
000003d0: fa73 c83c 14ff 7c3d 6a10 543d 9af3 21bd
000003e0: c2b8 9b3c f2de 9dbd 601e 1cbc 3ef2 c9bd
000003f0: 38b7 3b3d 2e55 8bbd 3ebc bc3c b601 703c
0.057426438 0.06382516 0.040186957 0.068069816 0.015835863 0.0044360952 0.026118737 -0.04877167
0.09200303 0.05493716 0.044477414 -0.057121824 0.005938206 -0.038641583 0.019682698 0.068633094
0.051680524 0.09113894 -0.01784213 -0.012066895 0.06751011 -0.010216716 -0.05830282 -0.06357595
-0.03054281 0.042166267 0.048816882 0.040802807 0.0029106813 0.031340588 0.044363692 0.060196202
0.064747296 -0.06341023 0.070981726 -0.041546393 -0.07315465 0.047127463 0.05435191 0.011704948
0.010137891 -0.06353654 0.10323678 0.039080273 0.021604756 0.002552434 -0.0058270544 -0.008750158
-0.06768599 -0.06465503 0.023388207 0.043303188 -0.06358059 0.07991082 0.0062946025 -0.018269889
0.039616898 0.061440784 0.003972045 -0.07675192 0.057868935 0.099533595 0.054227345 -0.048618495
0.07152663 -0.053174954 -0.004091216 0.009095154 -0.0612327 -0.059067428 0.016938232 -0.047202226
0.052520745 0.034253344 0.03380795 -0.070543595 0.011244095 -0.004211218 0.03763312 0.0179009
-0.022486122 0.08436098 0.019243345 -0.05540555 -0.023515806 -0.08222639 0.059608266 -0.016457284
-0.026080454 0.058174178 -0.051093474 0.034418076 0.07935667 0.00986742 -0.05701084 0.0024033452
0.059946924 0.05006568 -0.022547431 0.020492774 0.08756785 0.05635186 0.056641906 0.05650318
0.07968583 -0.064331785 0.02882031 -0.021950107 0.0895026 0.040066827 0.07141929 0.024587637
-0.026285723 -0.033756297 -0.032770492 0.04568858 -0.05197367 0.06593981 -0.06424918 -0.03556748
-0.04572153 -0.025264654 -0.028405413 0.086294346 0.062403433 0.047021046 -0.0073364526 0.07284792
-0.026079737 0.0034997705 0.0053986744 0.040506795 -0.07098883 -0.019149948 -0.08801257 -0.011701398
0.049094368 0.05460822 -0.077509925 0.028683955 0.024597665 0.004477342 0.02837813 -0.08615679
0.019904101 0.023853047 -0.029219134 -0.06460584 0.044916265 -0.10140437 -0.05897387 0.005392053
0.047385246 0.061428092 0.034885325 -0.013728029 -0.043061186 0.025711834 0.06956962 -0.088318035
-0.020326255 0.0649581 -0.051425643 -0.03357456 -0.025092948 -0.0106334835 0.00032809074 -0.039265685
-0.043699812 0.03280656 -0.018034797 -0.033664234 -0.09693427 -0.08487065 0.0765407 0.054357864
-0.081074804 0.040572688 0.013231873 -0.037090536 0.0033050976 0.042852122 0.06685018 -0.07471709
0.07832881 0.04245362 0.06262757 0.06739907 0.04083814 0.032513145 -0.019119201 0.027420158
-0.007976172 -0.06784536 0.0065934 0.0018164774 -0.065777265 0.0031207607 -0.059888802 -0.08809618
0.057672575 0.06422764 0.045943532 -0.02088979 -0.088177085 -0.061850425 0.038661808 -0.004883566
0.053146288 0.031553913 -0.058631353 0.028816769 0.047248483 0.0025701863 -0.08310126 -0.03825462
-0.07938064 -0.08300497 0.077747285 0.0046263225 -0.0035746284 0.025519347 -0.057640597 -0.016373433
-0.019543758 -0.05816241 0.06695519 -0.06962464 0.0028859791 -0.08495712 0.03565656 0.042157732
-0.043158866 0.05782966 -0.03854641 0.062027864 0.03820879 0.01857663 -0.002503621 0.071073554
-0.00964108 0.033752497 -0.0060595763 0.058658645 0.024469364 0.0617667 0.051773466 -0.039538957
0.019008998 -0.07708539 -0.009528726 -0.09860657 0.045829028 -0.06803356 0.02303898 0.014648845

2.bias f4 [128]
00000000: 3b04 bc3c 7beb 853c 79d6 523d abca 8bbd
00000010: 9b7b a8bd 9fed 7dbc e5ee acbd 14d5 ce3b
00000020: 33ef 8d3d 80a7 e3bc 8aec 1c3d 2320 443c
00000030: 57b7 23bd 0135 a33d b7ce e83c 837f 003d
00000040: 0dee 67bd 2c76 c23c 24ee 353b 4651 96bd
00000050: a047 8c3d f292 01bd 1660 663d 884e 29bd
00000060: 9066 6ebb 33f9 83bd bfdc 85bd cb9b 463d
00000070: 2365 c1bd 4ff1 933d 471f 773d dfce 87bd
00000080: fafd f13b b019 b7bc 4cce 683c 409a 823d
00000090: 6c62 123d 611d de3d f174 97bb 065d ba3c
000000a0: 55a9 86bc a624 a83d e904 9bbd 112a 423d
000000b0: d0a2 9f3b 2ea8 a33d a0a2 88bd 9777 39bd
000000c0: 41b3 023d ce73 b2bd 65b0 c93c c3cb 50bc
000000d0: a7ac 57bd cb9f 81bc 722e 1fbd 46b2 9f3d
000000e0: ad41 973c 2bb5 68bd fb70 1cbd 0a6e 26bd
000000f0: f5e9 cfbc 32b2 d5bb 3f0e 8abd e8a9 bb3d
00000100: 2f35 c73d 78a3 0abd 4365 84bd 876f 8c3d
00000110: 7ca9 24bd 53e6 ba3d 5978 ff3c 4dc9 0d3d
00000120: 1b1b 8b3d 1615 12bd 5c12 83bc c680 453d
00000130: 05fe c9bc 1ef1 0bbd fe76 9f3c 3a6b aa3d
00000140: 7bab e53c 970d 523d 3c27 f63a fed7 33bd
00000150: 1c98 88bc 9b5a 81bd b5c0 5fbd d5d9 5c3d
00000160: 0daa 2e3d 8379 ffbc 8e83 e83d a172 a1bd
00000170: 99dd bf3d 590b 5abd f5ab 5d3d 4534 09bd
00000180: 25a0 ca3d 4617 c93c b197 013d 1e8f 0fbd
00000190: bc1a c53d ac53 543d 8105 60bd 65c2 4a3d
000001a0: 91c3 f93d c3aa 1bbd 301c b2bc b2f3 08bc
000001b0: dd8f 67bd 9204 b2bc eb60 153d b8f6 08bd
000001c0: 994f a6bc d668 513d a958 883d ab75 82bc
000001d0: 5d44 07bd 9095 333c ccab ac3d 91a9 423d
000001e0: 93a7 bb3d 956f 353d 55de 9dbd 379c 38bd
000001f0: b2fe 8c3d eb07 833d ff1d 91bd 57c7 273d
0.022951236 0.016347637 0.05147407 -0.06825765 -0.08226701 -0.015498548 -0.08444003 0.006312022
0.06930389 -0.027789831 0.03831152 0.011970553 -0.03996977 0.07969094 0.028418882 0.031371605
-0.056623507 0.02373799 0.002776035 -0.073397204 0.06849599 -0.03163428 0.05624398 -0.04133466
-0.003637705 -0.06444015 -0.065362446 0.04848842 -0.094431184 0.0722376 0.060332563 -0.066312544
0.0073850127 -0.022351116 0.014209341 0.06377077 0.035738394 0.10845447 -0.004622095 0.022749435
-0.016438166 0.08210115 -0.07569296 0.0474034 0.0048717037 0.07991062 -0.06671643 -0.045280065
0.03190923 -0.08713494 0.024620244 -0.012743893 -0.05265489 -0.015823266 -0.038862653 0.07797675
0.018463934 -0.0568134 -0.038193684 -0.040632285 -0.025380114 -0.0065214867 -0.067409985 0.091632664
0.09726941 -0.033847302 -0.06464627 0.0685721 -0.040200695 0.09125962 0.031185316 0.034615804
0.06792279 -0.03566464 -0.015999965 0.04821851 -0.024657259 -0.034165494 0.01946592 0.08321233
0.02803587 0.05128249 0.0018780003 -0.043907158 -0.016674094 -0.0631611 -0.05462714 0.05391868
0.04264264 -0.031185871 0.11353217 -0.07883192 0.09368438 -0.05323348 0.05411907 -0.033497114
0.098938264 0.02454723 0.031638805 -0.035048597 0.0962424 0.05183761 -0.05469275 0.049501795
0.121955045 -0.038004648 -0.021741956 -0.008358883 -0.056533683 -0.021730695 0.03646938 -0.033438414
-0.020301627 0.05112537 0.066575356 -0.01592525 -0.03302418 0.010960951 0.08431205 0.047524992
0.091628216 0.044295866 -0.07708422 -0.045070853 0.06884517 0.063979946 -0.070857994 0.04096159

4.weight f4 [1, 128]
00000000: 7a1b 35bd 94b2 813c fcfb c0bd 2c70 2fbd
00000010: d33e 3f3d 813f 923d 39a0 31bd 646f 92bd
00000020: 377b 053d dcb1 253d 2cbf e5bd 107d 853d
00000030: 99be 883c e17f c9bb 4129 e43b d426 0ebd
00000040: 590a 6d3d 9f8a 3abd 6213 74bd 0488 aa3d
00000050: 322d f03c d7bf d7bd dfc1 653d f255 a73d
00000060: 83b3 abbd 9648 2e3d edea 373c 3f4b a7bd
00000070: 39c3 8e3c 8b4a 9d3d b251 19be 8b78 5ebd
00000080: b5d0 113d 63df 68bd 55d1 b3bd d0ff 5bbd
00000090: 345b 1fbe 0698 72bd 3b03 a1bd e20e c0bd
000000a0: 4083 6b3d eb33 e8bd 5d7b 90bd ae9d 0ebe
000000b0: e1ab 0cbe bc56 b3bd d2cd 223d b6b6 ac3d
000000c0: bb38 6a3d 64dc f9bc a07f 64bd b520 8cbd
000000d0: 4344 bfbd 12b1 963d 82df 9fbd a0e1 433d
000000e0: 9f05 3e3d f936 e8bc ff2f c2bd 1a82 943c
000000f0: 35e9 debd 4c5e 07be 3999 7cbd 60c9 33bd
00000100: ef6d b7bd 1363 513d 40d9 00bd 76c7 07be
00000110: a86c 9f3c f1e9 14be 78c4 86bd 5b82 2f3d
00000120: dde1 883b 31ae 8f3b 3e63 173d 4ce3 f33c
00000130: 3e23 16be 98d6 adb9 f205 93bd d077 17b9
00000140: 501b fa3c 233b 3a3d 0cfa 6cbb 2156 58bd
00000150: ee4c d63c 5233 72bd 405d 203d e6c7 ffbd
00000160: 0025 2e3d bc39 b0bd 63a4 0fbe 5da7 65bd
00000170: 6d98 cabd 92a2 3e3d d2a7 a33d 4c0e 37bd
00000180: fea2 d0bd 0ceb 6e3d 1e72 92bc 5fe8 0abe
00000190: 16cb 93bd 94a4 423b 2d2a b9bd d6bf 123d
000001a0: 2ab5 1ebe 12ee 6d3d 05cd 02be 2f7e 01be
000001b0: a351 333d 343e 433d e42f 5b3d e433 513d
000001c0: cedc e5bd 575b d3bd 50d8 5c3d 319f 86bd
000001d0: 642c d3bd 4e56 9ebd c7ce b1bd 593e 0fbe
000001e0: e69d 0ebe 81bb a3bd 8119 54bd d1b8 c2bd
000001f0: 81cf 003d d3f5 b1bd a754 7d3d c7c7 153d
-0.044215657 0.015832223 -0.09423062 -0.042831585 0.046690773 0.07141019 -0.04336569 -0.07150152
0.03258821 0.040452823 -0.11218104 0.065179944 0.016692447 -0.0061492776 0.0069629257 -0.034704998
0.057871196 -0.045542356 -0.059588797 0.08326724 0.029318426 -0.105346374 0.056093093 0.0817069
-0.083838485 0.042549692 0.011225444 -0.08168649 0.017427074 0.076802336 -0.1497257 -0.054314177
0.03559943 -0.056853663 -0.08780161 -0.05371076 -0.15562135 -0.059227012 -0.07861944 -0.09377839
0.057498217 -0.113380276 -0.0705478 -0.13927338 -0.13737442 -0.08756778 0.039747067 0.08433287
0.05718301 -0.030500598 -0.055785775 -0.06842176 -0.09339192 0.07357992 -0.078063026 0.047822595
0.04639208 -0.028346526 -0.09481811 0.018128444 -0.108843245 -0.13219565 -0.061669562 -0.043893218
-0.08956515 0.051119875 -0.031457186 -0.13259682 0.019460991 -0.14542367 -0.06580442 0.042848926
0.0041773156 0.004384779 0.03695988 0.02977147 -0.14661881 -0.00033157016 -0.07178868 -0.00014445116
0.030530602 0.045466553 -0.0036159782 -0.052816514 0.02615973 -0.059130974 0.03915143 -0.124892995
0.042515755 -0.08604762 -0.14027552 -0.056067813 -0.09892354 0.046541758 0.079909936 -0.04469137
-0.10187338 0.058329627 -0.017876681 -0.13565205 -0.0721647 0.0029700147 -0.090412475 0.03582748
-0.15498796 0.05808837 -0.12773521 -0.12645791 0.043779027 0.047666743 0.05351247 0.051074877
-0.11223756 -0.10320156 0.05391723 -0.06573332 -0.10311201 -0.07731305 -0.08682018 -0.13988627
-0.13927421 -0.07994748 -0.051782135 -0.09507907 0.03144789 -0.086894654 0.06184831 0.036567476
