model_multinomial_2/dqn_retail_model_4_lr_0.002_ed_0.997_g_0.98.pth (torch, 71664 bytes, 5 tensors)

0.weight f4 [128, 3]
00000000: 78b3 f13e 4930 b53e 91f8 743d 4103 92be
00000010: b1dd 8a3d 02a3 76be 716e a23d 8ca3 c2bd
00000020: cfdd eb3e c6b4 b43d 55fb dc3e 30d9 00be
00000030: 8cb6 523e 7a9e 093f 7a38 87be a298 c23e
00000040: 4a45 60bd ffeb 0dbf 3748 f2be 5f44 5f3b
00000050: f683 853e b71a 973e 235f 6d3e bf8a 8fbe
00000060: 5a01 01bf 6195 043f f895 173e d7c3 6f3c
00000070: 1579 1b3d f42b 0fbf 10e0 f43e 7949 393d
00000080: b841 8a3e 97ec b73e ac5d 153f 541c f83c
00000090: bbe6 f8be 3370 133e 7c04 81be 8565 09be
000000a0: 04a6 2f3e 0565 033f 8096 27be 8b09 983e
000000b0: ee0a c3be 27f6 0f3f b1bc 6c3e c2c1 64bd
000000c0: b5ff c4be 98f5 38be bf67 81bd 73c0 1a3f
000000d0: 791b f9be 6d33 473e eba7 8abe e1ac 3ebe
000000e0: 87a1 673e b213 183f 5910 a23e cc38 483e
000000f0: f24e 5abe 9bce ae3e 2421 aa3e bbad ccbe
00000100: 3b5f 85bd 8809 6abe 63c0 9ebe 10ce be3e
00000110: 7f03 f23e 2acb 133e 47b2 b9be 88ea eb3e
00000120: e72b fb3e e1c4 043e 6d76 2a3e 1ed8 0dbf
00000130: ace9 a43e 2501 223e b661 e63e 346c 8dbe
00000140: 3973 f43e e398 9a3e fc7e 5cbc 9136 073e
00000150: 0f15 b6bd 6fa0 9abd 2549 35be 8cdf aabe
00000160: b813 d5be ab65 fdbe 542b 6fbe a603 683e
00000170: 6c9a 2b3e ca1b cd3e a231 b5bb 7b1f 183f
00000180: 386c 9b3e dd0c f53e dfe0 c0be 4893 543d
00000190: cef6 c4bd 15b3 85be 6201 053f 78ca b73c
000001a0: c4c4 b93e c67a 0ebf f2e6 883e 672a b33d
000001b0: f570 b23e 1028 333d d558 fc3e a3d4 403e
000001c0: fe52 093f 2a19 373e 6266 28be 7047 cb3e
000001d0: 2c21 0fbf c2d1 1e3f 7058 bd3e 1f45 123f
000001e0: c7c1 07bf 3fbf 103f 9616 95be a7a9 ff3e
000001f0: e301 d4be 440c 53be cbd7 3cbe cab1 29be
00000200: 9385 713e 4e71 e4be 533c d73e 8100 c6be
00000210: c533 c73d c44b 343e 9fea 0a3f 0bdc 28bd
00000220: fe3c cb3e 7dfc 7c3e b954 44bd c382 b0be
00000230: b4d2 babe 8d6a b83e f63e dbbe de71 abbe
00000240: 60f7 01bf e1cf 14bd ec0a 86be 3cc2 5bbe
00000250: c6de 0cbf 6b11 e0be 17f4 163d 38ed cd3e
00000260: 4341 183f 48d2 09bf 8b03 bd3e 9b2f f1bd
00000270: 4a97 6a3e 3269 083f 2c2b db3e c7ac 093f
00000280: 1379 0abf 15ff 8cbd 90df ebbe 9751 05be
00000290: 9c9f b93e 5bbe 333e bb1c 5cbe 6192 9e3e
000002a0: bd32 f6be 7a69 d73e 08b5 edbe 69f7 e93e
000002b0: 449f d03e 1ca3 cc3c 1205 a4be bd82 84bd
000002c0: 5d39 a63e 6f01 c2be 72bd 2c3e acf3 083f
000002d0: 653c fc3e 583b 103f 38b6 8c3e e9d6 033e
000002e0: 03bb 98be fadb e0be 8bf4 e43e b588 e13e
000002f0: 62fd 0a3f 60dd b8be f53c 013f cee4 b6be
00000300: d1fc 97be 3ec2 6bbd aca8 af3e cdbb cbbc
00000310: e47d e43e 5932 c1be 111a 123f 55bf aabe
00000320: 0fbd c0be e3b5 043f bf66 e9be c0db dc3e
00000330: eaa1 e93e d97e e8be 4cc6 bd3d 4b42 06be
00000340: b811 003f 6aac e93b 2cc5 44be 3991 803e
00000350: 916e a83e 8014 273e c8c9 cdbe 304c d93e
00000360: 785a debe 1e12 b73c ab8f 173d 90ec bf3e
00000370: c0fe dcbc 5510 a03e 5e1f df3e e371 cf3e
00000380: e891 d63e b947 dcbe 4260 aa3e 07d3 55be
00000390: 1949 be3e d015 b8be 1ec2 bf3e 038f c3be
000003a0: 431e e13e 52f5 0f3e 3e10 69bd db37 c5be
000003b0: 998f c0be ba97 81be c8b9 d73e eb51 0abe
000003c0: a07e 8b3d bd63 063e 05aa 343d 5c38 b7be
000003d0: 2cdc 023d 47d1 063d db3a bb3e 5c53 5dbc
000003e0: d949 dc3e 5ab5 fd3e 184d edbe 432c 04bf
000003f0: 3402 783e dd46 113e 65ec dc3c 714f f8bd
0.47207236 0.353884 0.059807364 -0.28518108 0.067805655 -0.2408562 0.07931221 -0.0950385
0.46067664 0.08823542 0.431605 -0.1258285 0.20577449 0.5375744 -0.26410276 0.38007075
-0.05475358 -0.55438226 -0.4732072 0.0034067852 0.2607724 0.2951257 0.23180823 -0.28035542
-0.5039269 0.51790434 0.14803302 0.014634094 0.03795727 -0.5592644 0.47827196 0.045236085
0.27003264 0.3592269 0.58346057 0.030286945 -0.48613533 0.1439827 -0.25198734 -0.13417633
0.17153174 0.5132602 -0.16366005 0.2969478 -0.38094276 0.56234974 0.23118855 -0.055848844
-0.3847634 -0.18062437 -0.06318616 0.60449904 -0.48653772 0.19453211 -0.27081236 -0.18620636
0.22620212 0.5940505 0.31653097 0.19552916 -0.21319178 0.34142002 0.3322841 -0.39976296
-0.065123044 -0.22855198 -0.31006154 0.37266588 0.47268292 0.1443297 -0.36268827 0.4607737
0.49056932 0.12965728 0.16646738 -0.55407894 0.32209527 0.15820749 0.44996423 -0.27621615
0.47744158 0.30194768 -0.01345801 0.13204409 -0.08890735 -0.075501315 -0.17703684 -0.33373678
-0.41616607 -0.4949163 -0.23356372 0.22657642 0.16758126 0.40060264 -0.0055295983 0.59423035
0.30356002 0.47861376 -0.37671563 0.05189827 -0.09617387 -0.2611319 0.51955235 0.022435412
0.36282933 -0.5565609 0.26738697 0.08748322 0.34851804 0.04373938 0.49286523 0.18831114
0.5364226 0.17880693 -0.16445306 0.3970294 -0.5590999 0.62038815 0.36981535 0.5713672
-0.53030056 0.5654182 -0.29118794 0.49934122 -0.4140769 -0.20610148 -0.18441693 -0.16571727
0.23586111 -0.44617695 0.4203821 -0.3867226 0.09726671 0.17607027 0.54264253 -0.041225474
0.3969497 0.24705692 -0.04793236 -0.34474763 -0.3648888 0.36018792 -0.42821473 -0.3348531
-0.5076809 -0.03633106 -0.26180208 -0.21460813 -0.55027425 -0.4376329 0.036853876 0.40220046
0.5947458 -0.5383649 0.36916766 -0.11776658 0.22909275 0.53285515 0.42806375 0.5377926
-0.54090995 -0.068845905 -0.46069002 -0.13019405 0.36254585 0.17553084 -0.21495335 0.30971053
-0.48085585 0.4207266 -0.46427178 0.4569657 0.4074651 0.02498012 -0.32035118 -0.06470249
0.3246564 -0.3789172 0.16869143 0.53496814 0.49264827 0.5634055 0.27482772 0.1287495
-0.2983018 -0.4391783 0.4471782 0.44049612 0.5429288 -0.36106396 0.5048364 -0.3572144
-0.2968507 -0.05755829 0.34308374 -0.024869824 0.44627297 -0.37733725 0.57071024 -0.333491
-0.3764424 0.5184004 -0.45586202 0.43136406 0.45631343 -0.45409277 0.09266338 -0.13111226
0.50027037 0.007131149 -0.1921584 0.25110796 0.32896855 0.16316414 -0.4019301 0.4244094
-0.43428397 0.022347506 0.037002247 0.3748517 -0.026976943 0.3126246 0.4357862 0.40516576
0.41908193 -0.4302347 0.33276564 -0.20881282 0.37165144 -0.35954142 0.37452787 -0.38195047
0.439684 0.14058426 -0.056900255 -0.38519177 -0.37609556 -0.2531107 0.42133927 -0.13507812
0.06811261 0.13123985 0.044107456 -0.35785186 0.031948254 0.032914426 0.3656834 -0.013508644
0.4302509 0.49552423 -0.4634788 -0.5163004 0.2421959 0.14187188 0.02696819 -0.12124527

0.bias f4 [128]
00000000: 2542 babd 3e10 9cbe 8c82 d13e 982a 6abe
00000010: 5b9e 30be cd73 163e 0654 083f ac54 a7be
00000020: 8384 fa3c c69c c43e a801 3abe 05b6 063f
00000030: fad8 023e ded5 eebd 82c7 773e 5d0f e4be
00000040: b96c b13c 9cf4 09be 9473 87be 2a07 98bc
00000050: 4605 0b3e ae4f 533e 2b79 093f a790 f53e
00000060: 8328 473e c777 2c3e 1a88 59be 98ec c7be
00000070: 0f00 053f b54f 0fbf 5ab5 9b3e c58c 0d3d
00000080: fd76 06bf 5279 f93e efe1 443e 6240 26bd
00000090: 6c75 813e d996 c9be 7a32 eb3e 77f0 023f
000000a0: 50bc dd3e 7d29 053e 9faf b8be 37ca 15be
000000b0: 1f7a 683e 6f6d 6abd 10ed 38bd d242 bfbe
000000c0: a530 02bf b694 103f ef7d b93e 76ed e2be
000000d0: a8a6 89be 246c efbe b81c 063f 8678 f13e
000000e0: 8791 bdbe fba2 d33c 69b0 9f3d 4cc8 62ba
000000f0: 9ede 7bbe af18 55bd 0885 233d 142c 983e
00000100: d1bc b43d 6905 dfbd e7e1 283d 7845 35be
00000110: 61ac 093f fc6a dabe 0d22 02bf b489 1bbe
00000120: daf8 433d b28b f23e 620c 0e3e 1d2b a93d
00000130: a195 b03e 6447 71be d7b8 9fbe 182a 34be
00000140: 75cc 573e aa86 79be 46c0 063f 8b92 e63d
00000150: 760c b53e 90be 0b3f a058 023e 909a 083f
00000160: 82f4 dabe 7fcc b7be 4f68 053f 9041 303e
00000170: 9c29 323e 0f38 f23e 4b7c 48be 13dc c7be
00000180: 44f9 fe3e c8de 94bc 11d0 9d3e 0501 c73e
00000190: 1b93 0c3f 43b2 f53e 0bd7 a8be c55d 8abe
000001a0: ce3c cc3e a29a c9be a891 543e 5964 1e3e
000001b0: aeb0 963c 3192 f7bc 0dc9 933e a3e7 0cbe
000001c0: 98a2 853e 82d7 5bbe 9b7d f5be 9234 823e
000001d0: fb74 743e c7d8 dcbc ae4d 0cbd 2104 e9be
000001e0: 95ff 463d 1868 3a3e be36 6abe 446c 2abe
000001f0: 62f3 8dbe 7a15 de3e 2b87 ba3e 0c27 8e3e
-0.09094647 -0.30481142 0.40919912 -0.2286781 -0.17247908 0.14692612 0.5325321 -0.32681787
0.030580765 0.3840086 -0.18164694 0.5262149 0.12778082 -0.11661886 0.241972 -0.4454297
0.021658288 -0.13472217 -0.26455367 -0.018558104 0.1357623 0.20635864 0.5370051 0.47961923
0.19449048 0.16842566 -0.21243325 -0.39047694 0.51953214 -0.55981 0.30411798 0.034558076
-0.5252531 0.48725373 0.19226812 -0.040588744 0.25284898 -0.393729 0.45936948 0.5114817
0.43307734 0.13004108 -0.36071488 -0.1462792 0.22702836 -0.05723327 -0.045147955 -0.37355667
-0.50855476 0.56476915 0.36228892 -0.44321793 -0.2688496 -0.46762192 0.5238757 0.47162265
-0.3702509 0.025834551 0.077973194 -0.00086510624 -0.2459664 -0.052025493 0.03992179 0.2972113
0.08825076 -0.10889704 0.041231062 -0.17702281 0.53778654 -0.42659748 -0.5083321 -0.15189248
0.047844745 0.47372204 0.13871911 0.08260176 0.34489158 -0.2356239 -0.3119571 -0.17594182
0.21074088 -0.24367777 0.52637136 0.112584196 0.3536107 0.5458765 0.1272912 0.53360844
-0.4276467 -0.35898206 0.5211229 0.1721251 0.17398685 0.47308394 -0.19578664 -0.3903509
0.4979955 -0.018172637 0.30822805 0.38867965 0.54911965 0.47987565 -0.32976565 -0.27024665
0.3989014 -0.39375788 0.20758688 0.15467967 0.018394794 -0.030221077 0.28864327 -0.13760237
0.26100612 -0.21468928 -0.47947392 0.25430733 0.2387275 -0.026958836 -0.03425377 -0.45510963
0.048583586 0.18203771 -0.22872445 -0.16642863 -0.2772475 0.4337576 0.3643125 0.27764165

2.weight f4 [128, 128]
00000000: 2ba8 613d f261 91bc 8380 56bc 5ddd 2fbd
00000010: ca09 69bd e0cc 923d 5d8d 44bd f14e 7d3d
00000020: c4be 19bd 614c a23d 4bcc b3bd 251f b2bc
00000030: 0961 493c a731 a8bc abb8 8abd af02 74bd
00000040: 055f 30bd 73e0 a43d db0e 62bd d060 3ab9
00000050: 014c 00bc f62b 9a3b b1a8 173d 785d 5d3d
00000060: b3ec 09bd 6e16 373d 4bef 9cbd 85d6 613d
00000070: 2eab 1fbd 0ee3 98bd afea 373d 4789 49bc
00000080: 8653 63bc 5a52 9e3d 0563 923d 0db6 0c3c
00000090: 9567 bcbd 509b 5dbd 5f6a 923d 9eeb 82bd
000000a0: 21a0 9dbd cd7c 8b3c 4660 7d3c af86 54bd
000000b0: d03b ad3b 5df8 94bd 1958 68bd f5dc a53d
000000c0: ce8d 953d 7d63 863d f729 17bc 6980 aebd
000000d0: 9306 a0bd afcf 693c 9286 24bd 4089 713d
000000e0: 58b5 5e3d 01fb 97bc 6832 bd3c 7dee 883c
000000f0: b401 0f3c dd98 873d 1984 d83b 5b83 a6bc
00000100: 0fac 313d e6fa 5b3d d929 b2bd 819b b7bd
00000110: 868e 253d 6dda e4bc 49db 0ebd 3e84 0e3c
00000120: 2937 1d3d 9eb8 743d e8e2 09bd dda4 293d
00000130: a035 a3bd dbb9 b13d f8a0 91bd 338d 423d
00000140: 4c50 8bbd 3844 b33d bccb b7bc 4e52 07bd
00000150: ae67 973c dfb6 903c e6be 263d b134 373d
00000160: 3c21 b538 8299 853d 8f61 ceba 558b 123b
00000170: 6f40 babd b5db 5b3d d2f5 0cbc 10e9 0ebd
00000180: b4cc 7b3d 9dde 763d 175e a93d 0b43 ed3c
00000190: 69c7 e8bc ce27 4c3d d9b5 3ebd 6269 45bc
000001a0: e0e8 dc3c 87b9 6a3d 6530 25bd 6cd0 4f3d
000001b0: 7109 a9bd 94f9 9bbd f430 923d 0b44 973d
000001c0: f6c0 803d c714 efbc 7406 dfbc 76c5 393d
000001d0: 270c 873c d451 fcbc e4c5 9fbd f3a6 2f3d
000001e0: 53e5 483d 945a 823c c624 963d 2b3d ebbc
000001f0: ca30 68bd 17d3 16bd 402e a5bb b607 9f3c
00000200: dcb5 2e3d ff7d 9a3d 5c8d 1d3c 357d 0c3d
00000210: bbbf dbbc beec b13b 3a36 9a3c 4805 ce3c
00000220: dc68 113c 7040 a8bd 8622 0c3d 46fa c83d
00000230: c2bb 593d f36f e1bc 3664 973d 60ef f13d
00000240: a954 9f3b 864a bb3d f5e0 6dbc aabf 033e
00000250: 069b cf3d 1c49 aabc 99a9 74bd a70f dc3d
00000260: d3f1 a2bc 3ad9 973d 01a0 eb3c 6ca1 823d
00000270: d455 893d 0667 2b3c 21a0 54bd 8dd9 be3d
00000280: 3861 5a3d bc53 c63c 4355 5abc 0b4d 65bc
00000290: fc77 163d 6011 bb3d 3709 2a3d 1377 563b
000002a0: fb43 af3d 79ad d93b 31a5 8e3d 2eb5 81bd
000002b0: 63f4 033c 97c3 e7ba 2779 b03d 08a5 803d
000002c0: 0a62 60bc b4ae b4bc 57e5 8dbc 4d67 9c3b
000002d0: 15db d73d ff0e b13d 0661 efbb 3d96 f73d
000002e0: 0d6c 773d 3501 df3d fa6e 8ebc 0851 1f3d
000002f0: c069 b43d c37c 913c 05b9 0ebd c27f 0ebd
00000300: 8d7f 3b3d 31e6 8bbd 9e4d db3d 2a4e 923d
00000310: 9ba6 35bd d98e dd3c 360a e3bc 6fc6 b13d
00000320: 7ac6 393d ce34 c93d 6781 1f3d deed 9abd
00000330: af7c fc3d 3ddd 7a3d bdd9 a53d de0a 93bd
00000340: b526 d13d 90b2 803d 5437 f33d b51d 8d3d
00000350: 5bfa 803d 0881 723d 6e99 9abc ac96 adbc
00000360: 7b59 fc3c f8f0 1c3d eb35 e03c 7a65 003e
00000370: 7055 90bd b458 833d bc8a 003e 9c56 a83d
00000380: 3c55 e53a 9af6 aa3d 5a7c 113d bb54 5c3c
00000390: d743 f63d ce71 8b3d 3184 153d c43b 003e
000003a0: 4fe6 32bc b2c8 3ebc 6874 82bc bc54 e4bc
000003b0: 13a8 2f3a 3b51 f8bc fb49 ec3b 3480 79bd
000003c0: 9247 0b3d a673 8bbd 9e2f f0bc 0b90 7c3d
000003d0: 9fb6 af3d 6f35 603c 4e01 933d 4396 89b9
000003e0: c091 aebc bec2 e73d 8b2d 47bd eaec 0dbb
000003f0: cc65 53bd d9b1 513d 0b70 ee3d a9cd 6c3d
0.055092018 -0.0177469 -0.013092163 -0.042935718 -0.0568941 0.07167983 -0.047986377 0.061842863
-0.037535444 0.07924724 -0.087792 -0.021743366 0.012291201 -0.020531489 -0.06773504 -0.05957287
-0.043059368 0.08050623 -0.05518995 -0.00017774408 -0.007830621 0.0047049476 0.03702611 0.054044217
-0.033673 0.044699125 -0.07662829 0.055136222 -0.03898161 -0.07465182 0.044901546 -0.012300796
-0.013874894 0.07730551 0.07147793 0.008588326 -0.09199444 -0.054103196 0.07149195 -0.06392597
-0.07696558 0.017027283 0.015464848 -0.051886257 0.005286671 -0.07273934 -0.05672464 0.08098785
0.07302438 0.06561945 -0.009226314 -0.08520586 -0.07813754 0.014270707 -0.0401674 0.058968782
0.05437216 -0.018552305 0.023095325 0.016715283 0.008728433 0.06620953 0.006607544 -0.020326307
0.04337698 0.053706072 -0.08699388 -0.08965207 0.040419124 -0.027936185 -0.034877095 0.008698521
0.038382683 0.059746377 -0.03366366 0.04141699 -0.079692125 0.08678027 -0.071107805 0.04749794
-0.06802425 0.08753246 -0.022436015 -0.033037476 0.018482056 0.017665325 0.0407094 0.044727985
8.636943e-05 0.0652342 -0.0015745627 0.002236088 -0.09094321 0.053676326 -0.00860353 -0.034890234
0.061474517 0.060270894 0.08269899 0.028962633 -0.028415399 0.04984265 -0.046560142 -0.012049051
0.026966512 0.05730584 -0.040329356 0.050735876 -0.08253754 -0.076159626 0.07138243 0.07386025
0.062868044 -0.029184712 -0.027224757 0.04535433 0.016485287 -0.030800737 -0.078014165 0.042883825
0.049046826 0.015912332 0.07331233 -0.02871569 -0.056687154 -0.036822405 -0.005040914 0.019412857
0.042653903 0.07543563 0.009616222 0.034299094 -0.026824823 0.005429833 0.018824685 0.025149003
0.008875098 -0.082154155 0.03421261 0.09813361 0.053157575 -0.027519202 0.073921606 0.11813235
0.004862387 0.091450736 -0.014518966 0.12866083 0.1013699 -0.020786814 -0.059732053 0.10745173
-0.019890701 0.074144796 0.02876282 0.06378445 0.067058235 0.010461574 -0.051910523 0.09318838
0.05331537 0.02420985 -0.013325992 -0.013995419 0.03673552 0.091341734 0.041512694 0.0032724782
0.08557888 0.006642994 0.069651015 -0.063333854 0.008053872 -0.0017682192 0.08616858 0.06281477
-0.013695249 -0.022055961 -0.017321272 0.0047730566 0.105398335 0.086454384 -0.0073052673 0.120892026
0.06040578 0.10888902 -0.017386902 0.038895637 0.08809233 0.017759686 -0.034844417 -0.034789808
0.04577594 -0.06831015 0.10708164 0.07143815 -0.04434834 0.027045654 -0.02771483 0.08680426
0.045355298 0.09824525 0.038941767 -0.07564901 0.12328469 0.061246146 0.08098171 -0.07179807
0.10212461 0.06284058 0.118757874 0.06890432 0.062977515 0.059205085 -0.01887199 -0.02119001
0.030804386 0.038315743 0.02736946 0.1253871 -0.07047546 0.06413403 0.12552923 0.082196444
0.0017496715 0.08347817 0.03551898 0.013447936 0.12024658 0.06808816 0.03650302 0.12522799
-0.010919168 -0.011644529 -0.015924647 -0.027872436 0.0006700765 -0.030312171 0.0072109676 -0.06091328
0.0340038 -0.068091676 -0.02931958 0.061660808 0.08579754 0.013684615 0.07177983 -0.0002624263
-0.021309733 0.11316441 -0.048627418 -0.0021656104 -0.051610753 0.051195 0.11642464 0.05781332

2.bias f4 [128]
00000000: ac11 81bd ab93 bf3d dc1a c83d 5e3a 4a3c
00000010: f593 853c b754 59bd fc1b 2d3d 8edb b1bc
00000020: 5f18 94bb eda0 a2bd f327 88bd 28a9 c9bc
00000030: bf33 a43d 2028 b6bd 5285 e53c 543e 7cbd
00000040: 5807 6cbd 0039 a73d 0eb4 3a3d 7a04 153d
00000050: 03c3 b23c 8100 ae3d f2d4 a63b 20ae b1bb
00000060: 1eea 933d 0770 64bc f513 65bd 5f0a 0e3d
00000070: 61d1 20bd e7d7 ab3d 84c0 b4bd 8769 4abb
00000080: fc34 833d 4ea3 f3bc a4fd 013d 7ba2 4f3d
00000090: e0cd 5f3c aeff a03d 8c6e f0bc 2d4b 20bd
000000a0: 202a 9dbd a611 8bbd 369c 8dbc af39 2f3d
000000b0: dfb4 3f3d 55c0 57bd 7d9d c13a 9a8f ab3d
000000c0: 6bb4 b73c c93f 58bd 303f 3f3c 1503 b73c
000000d0: 2d57 95bd b38c 16bd 8ad0 ddbb 4b03 a03c
000000e0: 14dd a4bd 79ed a03d 1d5d 743d 0919 39bd
000000f0: c02e 5a3d e29d a9bc 316b 153d b73b 973c
00000100: 3905 823d 532c a53d 90b5 a43d 88b0 7d3d
00000110: 513e 04bd c5f7 a13d e37d afbb bd1d 2d3c
00000120: 52bc 933d 81fb 963d b991 3c3d 6193 323d
00000130: a755 d6bc f0a0 a23c 1931 8cbd db97 8ebc
00000140: a24b a93d 0c2f a83d 8a1c 203d c2bd cb3c
00000150: 87d9 2a3d e45c 97bd 208e c2bd ab79 7c3c
00000160: b3b9 793d b6fd 2cbd 56e0 b43d 90ee 103d
00000170: 0e5d 2ebb b98b 1f3b d350 d5bc d454 0b3d
00000180: 16c4 a13d 69c3 273d e75a 63bb 5f6d 17bd
00000190: cc57 573d e777 9a3d b58e fc3c 3ed3 71bc
000001a0: 5457 7c3c 626d 16bd a32c b93d df52 d13c
000001b0: 38e7 cfba 3754 afbc 78f7 ab3c 9c16 193d
000001c0: f848 9b3c 0a65 5e3d 6161 273d cc59 21bd
000001d0: 0f55 fc3c f810 c2bc 850d 9ebd 3ce8 913d
000001e0: 2b98 f8bc f158 833d 45a0 6e3d a143 8bbd
000001f0: 1706 7a3d 0900 15bd 37b4 9e3d faf6 94bc
-0.06302199 0.09354337 0.09770748 0.012343017 0.016305903 -0.053059306 0.042263016 -0.021711137
-0.004519507 -0.079408504 -0.06648245 -0.024616793 0.08017682 -0.08894372 0.028017674 -0.06158288
-0.05762419 0.08165169 0.04558187 0.036381222 0.021821504 0.0849619 0.005091303 -0.0054223686
0.07222389 -0.013942725 -0.055927236 0.03467786 -0.03926218 0.083907895 -0.08825782 -0.0030885653
0.0640659 -0.029740956 0.03173603 0.050692063 0.013659924 0.07861267 -0.029349588 -0.039134193
-0.0767405 -0.067904755 -0.017286401 0.04277962 0.04680335 -0.052673656 0.0014771667 0.08376999
0.022424897 -0.052795205 0.01167278 0.022340337 -0.07292018 -0.036755275 -0.0067692446 0.01953282
-0.0804998 0.07857794 0.059659112 -0.04518989 0.05326724 -0.020705167 0.03647918 0.018461091
0.063486524 0.08065095 0.08042443 0.06193593 -0.032285992 0.079085864 -0.005355583 0.010566172
0.072136536 0.07372189 0.04603741 0.043597583 -0.02616389 0.019852132 -0.06845302 -0.017406395
0.08266379 0.082120985 0.039089717 0.024870757 0.041711356 -0.07390764 -0.094997644 0.015409867
0.060968112 -0.042234145 0.08831851 0.03538376 -0.0026605758 0.0024344756 -0.026039517 0.034016445
0.078987285 0.040957842 -0.0034691633 -0.03696954 0.052573964 0.07542401 0.030829767 -0.014759837
0.01540168 -0.03672541 0.09041717 0.025552211 -0.0015861755 -0.021402461 0.020992026 0.037375078
0.018955693 0.054295577 0.040864352 -0.039392278 0.030802278 -0.023689732 -0.077174224 0.07124373
-0.030345997 0.064134486 0.058258314 -0.068000086 0.061040964 -0.036376987 0.07749217 -0.018184174

4.weight f4 [1, 128]
00000000: de79 ff3b 4dd0 16be 20bc 2bbe c757 843d
00000010: 5396 1fbb 700a f9bd fa55 29bd c987 90bd
00000020: f13d 1dbe 4cf9 16bd a41e 843c 62a8 69bd
00000030: 9e89 abbd 4c32 3a3d bef6 813d 5d5d 34bd
00000040: 52a7 2abd 7e19 1e3d f365 21bd c6a2 ab3c
00000050: 9c5b 043a 87ab cc3c fc6e fbbd 7814 b3bd
00000060: b5ad 0cbe 3e9f bfbd 51cd aa3d 4aec 803d
00000070: 3750 283c 6d44 95bd 31f7 96bd 873f a3bd
00000080: 943f 0cbd 15d1 97ba fed5 5fbd e3bf 823d
00000090: f9e4 eebd 6cb9 34bc 95f9 9cbd 895f 23be
000000a0: b778 a83d 043d b8bc 660a 963d daf5 2b3d
000000b0: 994d 1dbd ee65 c93c 49e2 f83c e961 8c3d
000000c0: ff9a 903d 668a 833d 29f0 a23c 7c0e 5dbd
000000d0: 37f3 7c3c 501c e23c e8ef e8bd 21f0 5b3d
000000e0: 484c 3a3d b0c1 143d 7c27 08be b3bd e8bb
000000f0: ed02 2d3d 9d25 0bbe efb3 bbbd 755b 17be
00000100: 2d09 09be 244e 3b3c 1c9b 873c ba90 ad3d
00000110: d023 683a 06f0 f7bb 4be8 873c 9ae5 a43d
00000120: badc 23be 3b4f 25be f0cf 8039 2a83 ccbd
00000130: 3c82 733d b1b0 983d 22ca e53c fb62 d53c
00000140: cd85 7c3d de89 2e3c 5e68 92bd fd56 5f3d
00000150: 6662 c33c f464 dc3b 7c5e 033d 2b01 31bd
00000160: b44d 9b3d be9e da3c ec56 5abd 29b7 303d
00000170: 76a9 953d 4c95 a9bd 8ac6 99bd b024 843d
00000180: 3294 b6bd 447f 27be 913e 27be 062b 933c
00000190: a58b cabd e87e c1bd 3e29 953d 7198 583c
000001a0: b81b 9f3d 2a2d 413c cc58 05be df13 383d
000001b0: 59c2 adbd 9770 ddbd 2986 c53c 016b 3c3d
000001c0: 16e0 0bbd 1948 c4bd 6c1d 863d bba3 783d
000001d0: a3f5 15be 216b 28be d2d6 d13c 9d7e 303d
000001e0: 4696 953d 6f6b b23d 5e81 3b3d c0a5 783c
000001f0: a9c7 83bd 5727 163d baea d8bd 3f8b 133d
0.00779651 -0.14727898 -0.16770983 0.06462055 -0.0024351075 -0.12160194 -0.04134176 -0.07057149
-0.1535566 -0.03685884 0.016127892 -0.057045348 -0.08375858 0.045458123 0.063458905 -0.04403435
-0.041663475 0.03859853 -0.039403867 0.02095164 0.0005049051 0.024984134 -0.12277028 -0.087441385
-0.13738139 -0.09356545 0.08339942 0.062950686 0.010273031 -0.07288442 -0.07371367 -0.07971101
-0.03424032 -0.0011582697 -0.05464744 0.06384256 -0.11664767 -0.011030536 -0.076647915 -0.15954413
0.082261495 -0.022490032 0.07326202 0.04198251 -0.03840408 0.024584737 0.030381339 0.068546124
0.07060813 0.06422882 0.019889908 -0.05396889 0.015438846 0.027601391 -0.113738835 0.0536958
0.045482904 0.036317527 -0.13296312 -0.007102692 0.04223912 -0.13588567 -0.09165179 -0.14780982
-0.13382407 0.011432204 0.016553454 0.0847487 0.0008855434 -0.007566455 0.016590258 0.080516055
-0.16002169 -0.16143505 0.00024568988 -0.09985955 0.059450373 0.07455576 0.028050486 0.026048174
0.06165104 0.010652987 -0.07148813 0.054526318 0.023850631 0.0067259017 0.03207253 -0.043214004
0.0758318 0.026687022 -0.05330555 0.043143425 0.07307713 -0.08280429 -0.075085714 0.0645231
-0.08914985 -0.16357142 -0.16332461 0.017964851 -0.09889916 -0.094480336 0.07283257 0.013219939
0.07768959 0.011790553 -0.13022155 0.044940826 -0.084843345 -0.108124904 0.024111824 0.046000484
-0.034149252 -0.09584064 0.065485805 0.06070302 -0.14644484 -0.16447116 0.02561513 0.043089498
0.07304053 0.087118976 0.04577767 0.015176237 -0.064345665 0.03665861 -0.105916455 0.036021467
