model_multinomial_1/dqn_retail_model_2_lr_0.005_ed_0.998_g_0.95.pth (torch, 71664 bytes, 5 tensors)

0.weight f4 [128, 3]
0	0xbc54cb89	-0.01298798
1	0xbe73c150	-0.23804212
2	0x3dab75e4	0.08372095
3	0xbef98c9b	-0.48740086
4	0xbed3c957	-0.41364548
5	0x3ee06953	0.43830356
6	0x3e9c2ca1	0.305028
7	0x3eb2a1f6	0.3488919
8	0x3f12cd8d	0.57344896
9	0xbeb2ba04	-0.34907544
10	0x3ef6f277	0.4823186
11	0xbed199a5	-0.40937534
12	0xbf0ea439	-0.55719334
13	0x3e260c95	0.16215737
14	0x3f018cbf	0.50605386
15	0x3eb44632	0.35209805
16	0xbd1a0470	-0.03760189
17	0x3ec432d1	0.3832002
18	0x3dda7fed	0.10668931
19	0x3de7a996	0.11311643
20	0x3dc9966b	0.09843143
21	0x3e02174c	0.127042
22	0x3cdb34e4	0.026758619
23	0xbe92c361	-0.28664687
24	0x3e1b8a25	0.15189417
25	0xbe8de474	-0.27713358
26	0x3c1de6d1	0.00963755
27	0x3e9f4295	0.31105486
28	0xbefeb3ca	-0.49746543
29	0x3ecfb639	0.40568712
30	0xbd02e3c0	-0.03195548
31	0x3ed72d06	0.42026538
32	0xbe6fa3e3	-0.23402362
33	0xbedd3041	-0.43200877
34	0xbf0cd8f6	-0.55018556
35	0x3e96a071	0.29419282
36	0x3eab295e	0.33429998
37	0x3de4c072	0.111695185
38	0xbec29fea	-0.3801263
39	0x3e4376a4	0.19088227
40	0xbe8e2c0a	-0.27767974
41	0x3e7b2830	0.24527049
42	0xbd836bb7	-0.06417029
43	0xbd671ea3	-0.0564257
44	0xbe4006d5	-0.18752606
45	0x3dfe71b6	0.124240324
46	0xbed6aacc	-0.41927183
47	0xbf02ddaf	-0.5111951
48	0xbcf19300	-0.02948904
49	0xbf105bc5	-0.5639003
50	0x3e430910	0.19046426
51	0x3cdd25de	0.026995596
52	0x3d2b77de	0.04186236
53	0xbeae2c5f	-0.34018227
54	0xbe397bf5	-0.18113692
55	0xbcdbe6d3	-0.026843464
56	0xbd91c63a	-0.07117887
57	0x3edfaa72	0.43684727
58	0x3ec51364	0.38491356
59	0x3ef7464e	0.48295826
60	0x3ef92623	0.48661909
61	0xbdfe87bd	-0.12428234
62	0xbd0396fd	-0.032126416
63	0x3de2373d	0.11045692
64	0xbca72d43	-0.020407325
65	0x3d4248a3	0.047432553
66	0xbe6e85bc	-0.23293203
67	0x3ee9aba4	0.45638764
68	0xbea15e9c	-0.31517494
69	0x3e63c18f	0.22241805
70	0x3e3c472a	0.18386522
71	0x3e90a94e	0.2825417
72	0x3d9b2d94	0.07577053
73	0xbe7ee58f	-0.24892257
74	0xbec3e1ef	-0.3825831
75	0x3e5086fa	0.2036399
76	0xbea21c21	-0.31662086
77	0xbe824783	-0.25445184
78	0xbed8bae4	-0.42330086
79	0x3ec5a325	0.38601032
80	0x3f000775	0.5001138
81	0x3ea85191	0.3287473
82	0x3ed24ca9	0.41074112
83	0xbe460232	-0.19336775
84	0x3e87851a	0.26468736
85	0xbe5512c2	-0.20807937
86	0x3ee9c6cb	0.4565948
87	0xbedba0a7	-0.42896006
88	0x3c6f1d11	0.014594332
89	0x3e8a1bfd	0.26974478
90	0x3f0fdc68	0.5619569
91	0xbf04d0e5	-0.5188125
92	0x3ef8923c	0.48549068
93	0x3eb7bc29	0.35885742
94	0xbd91af64	-0.07113531
95	0x3dc87339	0.09787602
96	0xbe04cb29	-0.12968124
97	0xbe29e5cc	-0.16591567
98	0xbf0858b0	-0.53260326
99	0x3df395ea	0.11893828
100	0x3e4fda99	0.20298232
101	0x3eefcfb9	0.46838167
102	0x3f19be96	0.60056436
103	0x3e11a39d	0.1422257
104	0x3dc1a208	0.09454733
105	0xbee23908	-0.44184136
106	0xbdd04d68	-0.10171014
107	0xbdd37077	-0.10324185
108	0xbde34b74	-0.11098376
109	0xbf12f194	-0.5739987
110	0xbf074b87	-0.5284962
111	0x3ed8f3d9	0.4237354
112	0x3f0ed234	0.55789495
113	0xbdf06dcb	-0.11739691
114	0x3eef49a8	0.46735883
115	0x3e041cdb	0.12901632
116	0xbd0acaa6	-0.033884667
117	0x3dddae4e	0.108242616
118	0xbf0c73a7	-0.5486397
119	0x3f0bce2d	0.54611474
120	0x3ed37475	0.41299787
121	0x3e5ffa41	0.21872808
122	0xbefef2e0	-0.49794674
123	0xbf0ee924	-0.55824494
124	0x3ecbbced	0.39792576
125	0x3e944324	0.28957474
126	0xbe331518	-0.17488515
127	0x3e6c5c87	0.23082171
128	0xbd8dbf79	-0.06921286
129	0xbd439dea	-0.04775802
130	0x3dcb3d1f	0.09923767
131	0x3ed33c79	0.41257074
132	0x3eef8f45	0.46788993
133	0xbe1143ac	-0.14185971
134	0x3f0a776b	0.5408847
135	0x3e5a36af	0.21309923
136	0xbe8b7245	-0.27235618
137	0xbefed702	-0.49773413
138	0xbf0250df	-0.5090465
139	0xbe0c2d35	-0.1368912
140	0x3e05c03f	0.13061617
141	0x3e61cde4	0.22051197
142	0xbd7f9be7	-0.06240454
143	0x3dd8301c	0.10556051
144	0xbe716890	-0.23575044
145	0x3efcdc24	0.49386704
146	0xbe081b73	-0.13291721
147	0xbde9c8ca	-0.114152506
148	0x3f08410b	0.5322425
149	0x3edfd3ae	0.43716186
150	0xbeb2b88d	-0.34906426
151	0xbe98e760	-0.29864025
152	0x3e7b88e2	0.24563935
153	0xbde0060b	-0.109386526
154	0x3f02cd49	0.5109449
155	0xbee76e4b	-0.45201334
156	0xbef6fd86	-0.48240298
157	0x3e068060	0.13134909
158	0xbee7cf71	-0.45275453
159	0xbe5c4834	-0.21511918
160	0x3eca5035	0.39514318
161	0x3ede957e	0.43473428
162	0x3d5027d8	0.050819248
163	0xbd5af3f4	-0.053455308
164	0x3e3ca4f8	0.18422306
165	0xbdba47b9	-0.09095711
166	0x3d95b208	0.073093474
167	0x3f05470e	0.52061546
168	0x3f082ed2	0.5319644
169	0x3f04fae3	0.5194532
170	0xbee3efb3	-0.44518813
171	0x3ea664c5	0.32498756
172	0xbcb2d2c9	-0.021829026
173	0xbea44042	-0.32080275
174	0xbe6ce0ba	-0.23132601
175	0xbd7632cc	-0.060107037
176	0x3f13034f	0.57426924
177	0x3cab16f2	0.020884965
178	0xbf0c1f60	-0.54735374
179	0xbf0be3b4	-0.5464432
180	0x3efa7acb	0.4892181
181	0x3eff94cd	0.49918213
182	0x3eb73767	0.35784456
183	0xbed2d02f	-0.41174456
184	0x3def9bc0	0.11699629
185	0x3df45be7	0.119315915
186	0x3f030ee8	0.5119462
187	0xbf0bffb5	-0.5468705
188	0x3e406c9c	0.18791431
189	0xbeb38c9b	-0.3506821
190	0x3ed65f2a	0.4186948
191	0xbf01895b	-0.5060021
192	0x3f1844e4	0.5948012
193	0xbedca30a	-0.4309314
194	0x3dba2287	0.09088617
195	0x3bfac2ff	0.00765264
196	0x39239b4c	0.00015602744
197	0xbe6d2abb	-0.23160832
198	0x3f0ffc93	0.5624477
199	0xbf0baab6	-0.5455736
200	0xbf0ad639	-0.5423313
201	0x3dac5811	0.08415235
202	0xbeb3172a	-0.3497861
203	0xbedcea34	-0.43147433
204	0xbced50f6	-0.02896927
205	0xbe85a1f5	-0.26100126
206	0x3ea3214f	0.3186135
207	0xbe3fb5c9	-0.1872169
208	0xbd06465a	-0.032781936
209	0xbe9e2548	-0.30887818
210	0xbf05b382	-0.5222703
211	0x3eb8e2d3	0.36110553
212	0x3deb8caa	0.11501439
213	0xbf0f9ebb	-0.5610158
214	0x3e2afdee	0.16698429
215	0x3ee95154	0.4556986
216	0x3dd7afae	0.10531555
217	0xbe29aaa2	-0.16568998
218	0xbe896481	-0.2683449
219	0x3e0121c4	0.12610537
220	0xbea15388	-0.31509042
221	0xbf038594	-0.513757
222	0x3eaf090e	0.34186596
223	0x3e6cf86f	0.23141645
224	0x3e594ffd	0.2122192
225	0x3f1357c2	0.5755578
226	0x3e77c616	0.24196658
227	0x3e84af03	0.25914773
228	0xbe43f187	-0.19135104
229	0xbf0a3e4a	-0.54001296
230	0xbed62f22	-0.41832834
231	0xbd442b11	-0.047892634
232	0xbdc93d10	-0.098261
233	0x3e446a65	0.19181211
234	0xbf06989e	-0.52576625
235	0x3e2a7329	0.16645493
236	0xbed5dd37	-0.41770336
237	0xbe45b6df	-0.19308041
238	0xbe3a8589	-0.18215002
239	0xbeb9449c	-0.36185157
240	0x3dae60e8	0.08514577
241	0xbf0befd8	-0.5466285
242	0x3b410a41	0.0029455575
243	0x3f0388c0	0.5138054
244	0xbeb4a852	-0.35284668
245	0x3f17d2eb	0.5930621
246	0xbe8aa75d	-0.27080813
247	0xbeb5afbc	-0.35485637
248	0x3e0d0a72	0.13773516
249	0xbec2f4b8	-0.3807733
250	0xbea5803c	-0.32324398
251	0x3ed7bcaf	0.42136142
252	0xbf0bef20	-0.5466175
253	0x3eadf528	0.33976102
254	0xbde9378a	-0.11387546
255	0x3eac5313	0.3365713

0.bias f4 [128]
0	0x3ed89256	0.42299145
1	0xbdda5539	-0.10660786
2	0x3dc504d2	0.0962006
3	0xbec5a448	-0.386019
4	0xbe7e095f	-0.24808262
5	0xbe91c1be	-0.28468126
6	0xbe462e0c	-0.19353503
7	0x3e49cdd0	0.19707417
8	0x3ee69a80	0.4503975
9	0x3f0d89ee	0.5528859
10	0xbdd54128	-0.10412818
11	0xbe90f1e8	-0.2830956
12	0xbd956b54	-0.07295862
13	0x3eb36a2f	0.3504195
14	0xbf0bf76d	-0.54674417
15	0x3ef54d48	0.47910523
16	0x3e3271c0	0.17426205
17	0xbebd61d7	-0.36988708
18	0xbea5e420	-0.32400608
19	0x3ee28d8d	0.4424862
20	0x3e93d6a9	0.2887471
21	0x3d399dd9	0.04531655
22	0x3d33dd6a	0.04391233
23	0xbefcca00	-0.49372864
24	0xbe6bb138	-0.23016822
25	0xbeee57dd	-0.4655141
26	0x3e671605	0.22566994
27	0x3e96645c	0.29373443
28	0x3d1df67f	0.038565155
29	0x3c159f06	0.009132152
30	0xbe8ada2c	-0.27119577
31	0x3d9d1c1a	0.076713756
32	0xbe541404	-0.2071076
33	0x3e4f1aa6	0.2022501
34	0x3df9e01f	0.12200951
35	0x3f0d4e24	0.5519736
36	0xbd0df068	-0.034653097
37	0x3f0dbda0	0.5536747
38	0x3e055400	0.13020325
39	0xbeecaad0	-0.4622407
40	0xbeff4737	-0.4985902
41	0xbe990bc3	-0.29891786
42	0xbd196533	-0.037450027
43	0x3e91567a	0.2838629
44	0xbec2e3b5	-0.38064352
45	0xbe888304	-0.26662457
46	0x3eac9e68	0.33714604
47	0xbe4a6735	-0.19765933
48	0x3b42f228	0.0029746387
49	0xbd6b8a1f	-0.05750477
50	0xbf0a560e	-0.5403756
51	0x3e2fd49c	0.17170948
52	0xbd4b1a12	-0.04958541
53	0x3d0a2aec	0.03373234
54	0xbed62f51	-0.41832975
55	0xbf0c97a4	-0.54918885
56	0x3eaf2191	0.34205297
57	0x3e0a2bd9	0.13493289
58	0xbed986da	-0.42485696
59	0xbe96e8e8	-0.29474568
60	0x3d5e8b6a	0.054332174
61	0xbee766e6	-0.45195693
62	0x3e221879	0.15829648
63	0x3d05e3d7	0.032687988
64	0x3e995dac	0.29954278
65	0xbf10393d	-0.5633734
66	0xbc8bf5ab	-0.017084917
67	0x3eeca9e4	0.46223366
68	0x3e9afc87	0.30270788
69	0xbe0167ed	-0.12637301
70	0x3ea0c6e0	0.3140173
71	0xbea0c7f3	-0.3140255
72	0x3e707bdc	0.23484749
73	0xbeadddef	-0.33958384
74	0xbc8344d1	-0.016024025
75	0xbc77320c	-0.015087616
76	0xbd9fb248	-0.07797676
77	0x3e6f5a46	0.2337428
78	0xbe9ad2dc	-0.30238998
79	0xbe89d313	-0.2691885
80	0xbe42582b	-0.18978946
81	0x3e18e26a	0.1493012
82	0xbe1e4575	-0.15456183
83	0x3dfe65cf	0.12421762
84	0xbef35698	-0.47527003
85	0x3d9e22e7	0.07721501
86	0xbdb0a978	-0.086260736
87	0xbd5e362d	-0.054250885
88	0xbe89d3fe	-0.2691955
89	0xbe672ed7	-0.22576462
90	0xbeda1d83	-0.4260064
91	0xbef45014	-0.47717345
92	0x3e616400	0.22010803
93	0x3e2f2dff	0.1710739
94	0xbe496b83	-0.19669919
95	0x3da05f3c	0.078306645
96	0x3e6818ae	0.22665665
97	0x3d078c12	0.033092566
98	0xbec4f4bc	-0.38467968
99	0xbd44cbb0	-0.048045814
100	0xbd39b4a6	-0.045338295
101	0x3eb70e6e	0.35753196
102	0x3ed9945f	0.4249601
103	0x3e95d1d4	0.2926165
104	0x3f0602c5	0.52347976
105	0xbeb33695	-0.3500258
106	0xbe4c40c0	-0.19946575
107	0x3e4a9acd	0.19785614
108	0xbe863b03	-0.26216897
109	0x3ed96b99	0.42464903
110	0x3b05376e	0.0020327228
111	0xbd1138d9	-0.035454605
112	0x3e1c9e20	0.15294695
113	0xbd8af924	-0.06785801
114	0x3eabcf52	0.3355661
115	0x3e65f845	0.22457989
116	0xbefe2257	-0.49635574
117	0x3e85210d	0.26001778
118	0xbea2c8dd	-0.31793872
119	0xbefead7e	-0.4974174
120	0x3dfa7cbf	0.12230825
121	0xbd6518f9	-0.05593202
122	0x3e0aaa06	0.13541421
123	0x3e991149	0.29896
124	0xbe2f0fc4	-0.17095858
125	0xbcb42220	-0.021988928
126	0x3ea64959	0.32477835
127	0x3ed40d72	0.41416508

2.weight f4 [128, 128]
0	0x3d8dac14	0.06917587
1	0xbd68611e	-0.056733243
2	0xbd17a900	-0.037026405
3	0x3cfdd18b	0.030983707
4	0x3c4e7cd8	0.012603007
5	0x3dd9f868	0.10643083
6	0xbd61eccc	-0.055157468
7	0x3d4d7c50	0.05016738
8	0xbbbfbeae	-0.005851588
9	0x3d952d77	0.07284062
10	0x3c6688fd	0.0140707465
11	0x3da8bef8	0.082395494
12	0x3d41170b	0.047141116
13	0x3c9e552c	0.019327722
14	0x3d8213a4	0.063514024
15	0xbd4ce389	-0.050021682
16	0x3d3d5b99	0.046229932
17	0x3b46d2f6	0.0030338145
18	0xbd869c95	-0.065728344
19	0x3d94fa31	0.07274283
20	0x3dd836c8	0.10557324
21	0xbceaa8fd	-0.028645033
22	0x3d5bed1d	0.053692926
23	0x3c8d995e	0.017285045
24	0xbd8a4f95	-0.0675346
25	0xbb583a6c	-0.0032993807
26	0x3dac4d29	0.08413155
27	0x3d40fd43	0.04711653
28	0xbc95eab8	-0.0183004
29	0x3dada0c9	0.08477933
30	0x3d02065f	0.031744357
31	0x3d2eac56	0.04264482
32	0x3d9540d4	0.072877556
33	0x3dd6e2ef	0.10492503
34	0x3cd099f6	0.02546404
35	0xbc713c52	-0.014723854
36	0x3d030e7e	0.031996243
37	0x3d3f3dfd	0.046689976
38	0xbae67ca9	-0.0017584759
39	0x3c50d84c	0.012746882
40	0xbd4db85a	-0.05022464
41	0x3d760561	0.060063723
42	0x3d17cd57	0.03706106
43	0x3c963cf6	0.018339615
44	0xbbd9190b	-0.0066253
45	0xbd0b4472	-0.03400082
46	0x3d5b89f9	0.053598378
47	0x39f514e4	0.00046745606
48	0xbcbdb544	-0.023157723
49	0x3c112867	0.00885973
50	0x3c8baff9	0.017051684
51	0x3b61104c	0.003434199
52	0xbc6ed107	-0.014576203
53	0xbd5d9266	-0.054094695
54	0x3d2e2237	0.0425131
55	0x3c2c541d	0.010518101
56	0xbd80b1f2	-0.062839404
57	0x3daea404	0.08527377
58	0x3d8b594d	0.06804142
59	0xbd78bc94	-0.060726717
60	0x3dbad903	0.09123423
61	0x3da6c05a	0.08142157
62	0x3c32a635	0.010903885
63	0xbc949872	-0.018139098
64	0x3d5b66ab	0.05356471
65	0xbd100171	-0.035157625
66	0xbcfe61ea	-0.031052548
67	0x3bf10694	0.0073555205
68	0xbc3ec8e1	-0.011644573
69	0x3c69319f	0.014233022
70	0x3c87ee45	0.016593108
71	0xbd1e238f	-0.03860813
72	0xbc31ff76	-0.010864129
73	0x3d908d73	0.07058229
74	0x3de318d7	0.11088722
75	0x3cff498b	0.031162998
76	0x3d2a9af2	0.041651674
77	0xbb959bdc	-0.004565699
78	0xbb92c544	-0.0044790823
79	0x3d98d264	0.07462004
80	0x3a3059fc	0.0006727276
81	0x3d8ffb0a	0.07030304
82	0x3daf6af7	0.08565324
83	0x3dadb618	0.08481997
84	0x3c54e38c	0.0129937045
85	0xbd459373	-0.04823632
86	0xbd4a5cb8	-0.04940483
87	0xbd827036	-0.06369059
88	0xbd3dffad	-0.04638641
89	0x3d526ac1	0.05137134
90	0x3c2e37b3	0.010633397
91	0x3d993dbb	0.07482477
92	0x3c1e853f	0.009675323
93	0xbc3db5d9	-0.011579
94	0x3d33e7c4	0.0439222
95	0x3c83fee3	0.01611275
96	0xbcb8b612	-0.022547755
97	0xb978c3f0	-0.00023724115
98	0x3d2237d6	0.03960403
99	0xbca5d8eb	-0.020245036
100	0x3dd6b7fa	0.104843095
101	0xbd1adf07	-0.03781035
102	0x3deb8fb7	0.11502021
103	0xbd28efd5	-0.041244347
104	0x3bf272ca	0.007398938
105	0xbc7c17a6	-0.015386498
106	0x3dab875e	0.083754286
107	0x3d368c28	0.044567257
108	0xbd813d3f	-0.0631051
109	0x3d1d319a	0.03837738
110	0x3dc61552	0.09672035
111	0xbba81bf7	-0.005130287
112	0xbcc6dfc1	-0.024276616
113	0xbca6f215	-0.020379106
114	0x3da478bc	0.08030841
115	0xbd72e6bc	-0.059302077
116	0x3cb92d76	0.022604685
117	0xbb927d7f	-0.0044705267
118	0xbb93b4b1	-0.004507624
119	0xbd940aa6	-0.072285935
120	0x3ddafd2e	0.106928214
121	0x3dac7ef6	0.084226534
122	0x3bda4f73	0.006662303
123	0x3d8d66f9	0.06904406
124	0xbcb6d601	-0.022318842
125	0x3ccaaff5	0.024742106
126	0xbd63d1ae	-0.055619888
127	0x3da6e9f2	0.0815009
128	0xbcd22ff9	-0.02565764
129	0xbd5dc893	-0.05414636
130	0xbc944c30	-0.018102735
131	0x3d364553	0.044499706
132	0x3d148c31	0.03626651
133	0x3d999d24	0.07500675
134	0x3db2e58a	0.08735187
135	0x3d72b61a	0.059255697
136	0x3bbdcde7	0.0057923677
137	0xbd9f86da	-0.07789393
138	0x3d9627d2	0.07331814
139	0xbce69b76	-0.028150301
140	0xbd26e8d1	-0.040749375
141	0x3db2432c	0.08704218
142	0x3c15c0ad	0.009140176
143	0xbd6121eb	-0.054963987
144	0x3db38e28	0.087673485
145	0xbc0cfd07	-0.008605248
146	0xbd8a0c83	-0.06740668
147	0xbbd48296	-0.0064852936
148	0xbd54ca01	-0.05195046
149	0x3d9ec6cc	0.07752761
150	0x3d1cfda1	0.038327817
151	0xbd3cb331	-0.046069328
152	0x3c31dd86	0.010856038
153	0x3d4fb948	0.050713807
154	0x3d9f13c9	0.077674456
155	0x3d5264da	0.05136571
156	0xbcc4db0f	-0.024030237
157	0x3d044ba1	0.032298688
158	0x3bf78e5b	0.007554812
159	0xbc996b2f	-0.018727867
160	0xbd8ba541	-0.06818629
161	0x3d8cc23d	0.068729855
162	0xbda3b449	-0.07993371
163	0x3d63f388	0.05565217
164	0xbce4f310	-0.027947932
165	0x3d551de8	0.052030474
166	0xbd085b22	-0.033290036
167	0x3d96173e	0.07328652
168	0xbda57e09	-0.0808068
169	0x3cf8baa2	0.030362431
170	0xbcf2d65a	-0.029643226
171	0x3d83f84c	0.06443843
172	0xbdb35a3b	-0.087574445
173	0xbb79af72	-0.0038098958
174	0xbce72e68	-0.02822037
175	0x3c6bca7b	0.014391537
176	0xbd0d2d30	-0.034466922
177	0x3c9fad6c	0.019491874
178	0xbc70954f	-0.014684035
179	0x3d797864	0.06090583
180	0x3ac86c05	0.0015290981
181	0xbd91526b	-0.07095798
182	0x3c2f95b7	0.010716847
183	0xbcf3604e	-0.029709008
184	0xbda9a86d	-0.08284078
185	0xbdb2594b	-0.087084375
186	0xbd41030d	-0.04712205
187	0xbd80f913	-0.06297507
188	0xbd969413	-0.07352462
189	0x3d9bf764	0.076155454
190	0x3ca9e22f	0.020737736
191	0xbd008e3b	-0.03138564
192	0xbd4143da	-0.04718385
193	0x3c634700	0.013871908
194	0x3d9d91bb	0.076938115
195	0x3b37719d	0.0027991303
196	0xbc929f97	-0.017898364
197	0x3d2eac13	0.04264457
198	0xbd673a79	-0.05645225
199	0xbd3a78ec	-0.045525476
200	0xba97fdf7	-0.0011596073
201	0x3d5680da	0.052368976
202	0x3cdaa93f	0.026692031
203	0xbc041eaf	-0.008063956
204	0xbd67163e	-0.056417696
205	0x3c3cdd9e	0.011527447
206	0xbd6503b4	-0.055911735
207	0x3d7edec1	0.062224153
208	0xbd839abe	-0.06425999
209	0xbd2a1145	-0.041520376
210	0x3c7a2b25	0.0152690755
211	0x3d01c6b7	0.03168365
212	0x3d837276	0.06418316
213	0xbcd37807	-0.02581407
214	0xbd78c398	-0.060733408
215	0xbd7966d0	-0.060889065
216	0x3dab7ebb	0.08373781
217	0x3cb2a5ec	0.021807633
218	0x3da57950	0.08079779
219	0xbb869693	-0.0041073053
220	0x3d5c90e5	0.05384912
221	0xbd199868	-0.03749886
222	0x3cc3cb65	0.023900697
223	0xbd60f1e1	-0.054918174
224	0xbda4f24d	-0.08054028
225	0x3d75f53d	0.06004833
226	0xbcc44472	-0.023958419
227	0x3b241b56	0.0025040708
228	0x3cc057ef	0.02347943
229	0xbd89e68e	-0.06733428
230	0x3ca56084	0.020187624
231	0xbd3b2ff4	-0.04570003
232	0x3d4a876c	0.049445555
233	0x3bf68b06	0.007523897
234	0x3ce1a1ac	0.027542911
235	0x3dafe473	0.08588495
236	0x3d504f13	0.05085666
237	0xbd53af9d	-0.05168115
238	0x3d967332	0.073461905
239	0x3ccb84b0	0.024843544
240	0x3d31a1c3	0.04336716
241	0xbcf2642d	-0.029588783
242	0x3d0e7eb0	0.034788787
243	0xbd0a64d3	-0.03378756
244	0x3bbf53c9	0.0058388454
245	0xbcf8926b	-0.030343255
246	0xbcdd2747	-0.026996268
247	0xbda74d1a	-0.08169003
248	0x3d0ac72a	0.033881344
249	0x3d7879b1	0.06066293
250	0x3dad04fb	0.084482156
251	0xbc985003	-0.01859284
252	0x3db00b73	0.08595934
253	0xbd8b8ff9	-0.0681457
254	0xbd5e4f1a	-0.054274656
255	0xba5ddad1	-0.0008463087

2.bias f4 [128]
0	0x3d56fe6e	0.052488737
1	0xbd9544df	-0.07288527
2	0x3ca0e109	0.019638555
3	0x3d925cd5	0.071466126
4	0x3da69c6a	0.08135302
5	0xbb1cbaf1	-0.0023915137
6	0x3d322f56	0.043502174
7	0xbb7ec2ef	-0.0038873514
8	0xbd61c477	-0.055119004
9	0xbd406061	-0.046966914
10	0xbdbeb822	-0.09312464
11	0x3da22baf	0.07918488
12	0x3df86c2e	0.12130009
13	0x3dc45e02	0.09588243
14	0xbd230a3a	-0.039804675
15	0xbd3c503f	-0.045974966
16	0x3d591add	0.053004134
17	0xbb624c7c	-0.0034530452
18	0xbc6db3bf	-0.014508187
19	0xbd02a28f	-0.03189331
20	0xbd810b58	-0.06300992
21	0x3cf0c7f5	0.029392222
22	0xbd90fe0b	-0.07079705
23	0xbc67b26d	-0.014141661
24	0xbd985e12	-0.074398175
25	0xbb73a490	-0.0037176944
26	0xbd927034	-0.07150307
27	0x3d9cb86f	0.076523654
28	0xbd9d4011	-0.07678235
29	0xbd263107	-0.0405741
30	0xbcd4afae	-0.025962677
31	0xbcec5df9	-0.028853403
32	0xbcbdfc0a	-0.02319147
33	0x3cc8c62e	0.024508562
34	0x3d13bbd4	0.0360678
35	0x3d58477b	0.052802544
36	0xbdad93e3	-0.08475473
37	0x3d5106bf	0.051031824
38	0x3d30241f	0.043003198
39	0xbcabd2a1	-0.02097446
40	0x3d7265b8	0.059179038
41	0x3cac0de2	0.021002714
42	0x3d5c9802	0.053855903
43	0xbd893007	-0.066986136
44	0x3db2e12f	0.087343566
45	0x3df62902	0.1201954
46	0x3be77503	0.0070635094
47	0xbd87b9e1	-0.066272505
48	0x3bb3d3dd	0.0054879026
49	0x3db44018	0.088012874
50	0xbd86bc34	-0.06578866
51	0xbd66ef57	-0.056380596
52	0x3d19c781	0.037543777
53	0xbd29d39f	-0.041461583
54	0x3d82a13b	0.063784085
55	0x3da6a2fb	0.08136555
56	0x3d304d66	0.043042563
57	0x3d129e9e	0.0357958
58	0x3d3146a4	0.04328026
59	0x3d0d332b	0.034472626
60	0xbd5ac853	-0.0534137
61	0xbcae4022	-0.021270815
62	0xbd9605ad	-0.07325301
63	0xbd62c32e	-0.05536192
64	0x3dbde737	0.09272616
65	0x3d8f94db	0.07010814
66	0x3da46a0f	0.080280416
67	0x3c812472	0.015764449
68	0x3c130dec	0.008975487
69	0x3b0e275f	0.0021690947
70	0x3dcc5296	0.099766895
71	0x3d7dd42e	0.06196993
72	0xbcb44a05	-0.022007952
73	0x3ba8aa81	0.005147279
74	0x3d9cd714	0.076582104
75	0xbbc3c68d	-0.005974597
76	0xbd5fdd6f	-0.054654535
77	0xbc9a77fc	-0.018856041
78	0xbcb37821	-0.021907868
79	0xbdafa8da	-0.08577128
80	0x3d4b48ed	0.049630094
81	0xbbc9e680	-0.006161511
82	0x3db76348	0.08954483
83	0x3a8834d9	0.0010391726
84	0x3d7ceeb2	0.061751075
85	0xbce66464	-0.028124042
86	0xbd2fed3f	-0.042950865
87	0x3da5bbfb	0.08092495
88	0x3d917810	0.07102978
89	0xbdc6e25a	-0.09711142
90	0xbd1f983b	-0.038963538
91	0x3c0aa216	0.008461496
92	0xbd1bc051	-0.038025204
93	0xbd57b41e	-0.052662008
94	0x3d9aad37	0.07552569
95	0xbd06abaa	-0.032878555
96	0x3cb211da	0.021737028
97	0x3d01ce62	0.031690963
98	0x3d75bc87	0.059994247
99	0xbd6a2c1c	-0.057170972
100	0xbbce525f	-0.0062964405
101	0x3d525af4	0.05135627
102	0xbd82b0ce	-0.06381379
103	0x3daee795	0.085402645
104	0x3cbe4c14	0.023229636
105	0x3ae05810	0.0017116088
106	0x3d1a12c8	0.037615567
107	0x3c23276d	0.00995813
108	0x3c6ec5c2	0.014573516
109	0x3d2fb4ed	0.042897154
110	0xbcb3c749	-0.021945613
111	0x3d0bca49	0.03412846
112	0xbcde7b90	-0.027158529
113	0x3de91104	0.113801986
114	0x3db7de3f	0.08977937
115	0x3d521ce2	0.051297076
116	0x3dbdac76	0.0926141
117	0xbd1d8899	-0.038460348
118	0xbc5adcec	-0.013358336
119	0xbdc60648	-0.09669167
120	0xbd975748	-0.073896945
121	0x3d52aa75	0.05143209
122	0xbd546570	-0.05185455
123	0xbc5cc8e6	-0.013475632
124	0xbc934595	-0.017977515
125	0x3da38394	0.07984081
126	0xbdcad563	-0.099039815
127	0x3dff1410	0.124549985

4.weight f4 [1, 128]
0	0xbda8e62a	-0.08247025
1	0xbd8d23cc	-0.06891593
2	0xbd75a622	-0.05997289
3	0xbd6025cb	-0.054723542
4	0x3d8795a0	0.066203356
5	0xbd8525f9	-0.06501383
6	0xbe076839	-0.13223352
7	0x3b7dc6d9	0.0038723259
8	0xbca93425	-0.020654747
9	0x3d8d3396	0.06894605
10	0x3c81b9f4	0.01583574
11	0x3d0a086a	0.03369943
12	0xbdbcb753	-0.09214654
13	0xbe0d7f1f	-0.13818024
14	0x3d8b9b1f	0.068166964
15	0xbdd7268f	-0.10505401
16	0xbe2acbb0	-0.16679263
17	0x3c6cb3fc	0.0144472085
18	0xbe13a9b4	-0.14420205
19	0xbdd4b84b	-0.103867136
20	0xbc28f23b	-0.0103116585
21	0x3d1390f1	0.0360269
22	0xbd69bc3f	-0.05706429
23	0xbe33a1c0	-0.17542171
24	0x3cfcc20c	0.030854248
25	0x3c862437	0.01637469
26	0xbd787644	-0.060659662
27	0x3c59f43c	0.013302859
28	0xbb542a34	-0.0032373788
29	0xbd44db49	-0.04806069
30	0xbb9339fa	-0.0044929953
31	0xbdc30c60	-0.09523845
32	0xbdec65d8	-0.11542863
33	0x3d96718f	0.07345878
34	0xbd625481	-0.05525637
35	0xbe27ac47	-0.16374312
36	0xbdac23d4	-0.08405271
37	0x3d96832e	0.07349239
38	0xbde0298b	-0.10945424
39	0x3c0ce998	0.008600615
40	0x3cc54346	0.02407993
41	0x3d56b51c	0.052418813
42	0x3d0183b9	0.03161976
43	0xbd08b51f	-0.033375856
44	0x3db32d49	0.08748872
45	0xbe19458d	-0.14967938
46	0xbde26d89	-0.110560484
47	0x3d810229	0.0629924
48	0xbdad0df8	-0.0844993
49	0xbe267f19	-0.16259421
50	0x3d8bf9c9	0.06834752
51	0x3923c01e	0.0001561646
52	0x3cc673df	0.024225174
53	0x3d1133da	0.03544984
54	0xbdd5b95f	-0.10435747
55	0x3d079ea8	0.03311029
56	0xbdd9dba7	-0.106375985
57	0xbdb94458	-0.09046239
58	0x3d28a282	0.041170605
59	0xbdc75a21	-0.097339876
60	0x3c88f9f4	0.01672075
61	0xbd5a7869	-0.05333749
62	0xbd2f2670	-0.042761266
63	0xbc33d32b	-0.010975639
64	0xbe0664be	-0.13124368
65	0x3cac0834	0.021000005
66	0xbded3b75	-0.11583606
67	0xbb1456fe	-0.002263486
68	0x3caa618f	0.020798473
69	0xbde7f87d	-0.11326692
70	0xbe166e8c	-0.14690608
71	0xbdd99b8b	-0.106253706
72	0xbdd1f7bc	-0.1025233
73	0xbd1a6115	-0.03769024
74	0x3d879825	0.06620816
75	0xbdb98ade	-0.0905969
76	0xbc91d529	-0.017801838
77	0x3b757729	0.0037455058
78	0xbd880a6e	-0.06642614
79	0x3d434c5f	0.047680255
80	0xbd859719	-0.0652296
81	0x3a07e9d8	0.0005184687
82	0xbdb85a58	-0.09001607
83	0xbd79a7c5	-0.060951013
84	0x3ba2d2cc	0.0049689766
85	0xbde4fedd	-0.11181424
86	0x3d90fe77	0.07079785
87	0x3c1928f0	0.009348139
88	0xbe0ca418	-0.13734472
89	0x3bc185da	0.005905849
90	0xbd426daa	-0.047467865
91	0x3cb3cfec	0.02194973
92	0xbe0b4af2	-0.13602808
93	0x3cade67b	0.021228066
94	0x3d8afc75	0.067864336
95	0x3d8c2047	0.06842094
96	0xbc728919	-0.014803194
97	0x3dafdc8f	0.0858699
98	0xbda07a9e	-0.07835887
99	0x3c8c787e	0.017147299
100	0xbdafd55d	-0.08585618
101	0x3cfac0b3	0.030609464
102	0xbd080780	-0.033210278
103	0xbd9517a5	-0.072799005
104	0x3d09606e	0.03353923
105	0xbe118b88	-0.14213383
106	0xbe0022d6	-0.12513289
107	0x3d66a46c	0.05630915
108	0x3d8cac62	0.06868817
109	0x3cd79623	0.026316708
110	0xbe34a3fa	-0.17640677
111	0xbd405d78	-0.04696414
112	0xbdb8158f	-0.08988487
113	0xbdd82ee4	-0.10555819
114	0xbe20d522	-0.15706304
115	0x3d80e729	0.0629409
116	0xbdc40403	-0.09571078
117	0xbd44713c	-0.04795955
118	0x3b296402	0.0025846963
119	0x3bff2ff9	0.007787701
120	0xbd8951bb	-0.06705042
121	0xbdaad714	-0.08341804
122	0x3ce1880b	0.02753069
123	0x3d5a8214	0.05334671
124	0xbd08aa96	-0.03336581
125	0x3d0eecb8	0.03489372
126	0x3cc98a10	0.024601966
127	0xbe101a5f	-0.1407256
