model_multinomial_1/dqn_retail_model_4_lr_0.002_ed_0.997_g_0.98.pth (torch, 71664 bytes, 5 tensors)

0.weight f4 [128, 3]
0	0xbf01fa1f	-0.5077228
1	0x3f09ae1d	0.537813
2	0xbccf206d	-0.025284017
3	0x3eca1edc	0.3947667
4	0xbea0e5c8	-0.3142531
5	0xbefc0203	-0.49220285
6	0x3df3685f	0.118851416
7	0xbe16b3f1	-0.1471708
8	0xbd00ea2f	-0.031473335
9	0x3e65c79e	0.22439429
10	0x3f126b38	0.5719485
11	0xbe3ba22a	-0.1832358
12	0xbe8f711a	-0.28015977
13	0x3ea7452d	0.32669964
14	0xbb830496	-0.0039983494
15	0xbe441de0	-0.19152021
16	0xbf1380b8	-0.57618284
17	0xbeb71de2	-0.35764986
18	0x3ef709f9	0.48249796
19	0x3e994080	0.29932022
20	0x3e5f5ee0	0.21813536
21	0x3e59e8b5	0.21280177
22	0x3e19c175	0.15015204
23	0x3eee58ed	0.4655222
24	0xbdbe3eff	-0.09289359
25	0x3ec3d65f	0.3824949
26	0xbef1b429	-0.47207764
27	0xbd001337	-0.031268325
28	0xbec747f5	-0.38922086
29	0xbe5d2360	-0.21595526
30	0xbdd63c2d	-0.10460696
31	0xbe1375d1	-0.14400412
32	0x3ed7b8e7	0.42133257
33	0x3ef28082	0.4736367
34	0x3f058334	0.52153325
35	0x3ed5bfb9	0.41747835
36	0x3d58aea6	0.052900933
37	0xbe55a771	-0.20864655
38	0x3c877b4d	0.016538287
39	0xbe2eec05	-0.17082222
40	0xbef3b227	-0.47596857
41	0x3e6cafe9	0.2311398
42	0xbec357a9	-0.38152817
43	0x3ee786d0	0.4522004
44	0x3e30b3ea	0.17256132
45	0xbec408ef	-0.38288066
46	0xbea547c4	-0.32281315
47	0x3eb2d3cf	0.34927222
48	0x3eb31065	0.34973446
49	0xbe27cc37	-0.16386496
50	0x3c223e01	0.009902478
51	0xbed958de	-0.42450613
52	0x3da7d4da	0.08194895
53	0x3ebb041f	0.36526582
54	0x3e9a4815	0.3013312
55	0xbf0acf74	-0.542228
56	0x3f1a13a0	0.60186195
57	0xbe546c9f	-0.2074456
58	0xbe0fc6ed	-0.14040728
59	0xbe26b6c7	-0.16280662
60	0xbe243fe1	-0.16039993
61	0x3e2242d6	0.15845808
62	0xbea5065f	-0.32231423
63	0x3eda93c2	0.42690855
64	0xbeeb0438	-0.45901656
65	0x3f07bbcb	0.53020924
66	0xbea02760	-0.3128004
67	0xbe278615	-0.16359742
68	0xba4164f0	-0.00073774066
69	0xbe2d990d	-0.16952915
70	0x3e0bb7e8	0.13644373
71	0x3ee14d60	0.44004345
72	0xbea7b423	-0.3275462
73	0xbc83493e	-0.016026136
74	0x3e8b9d06	0.27268237
75	0xbe18de10	-0.1492846
76	0x3ec2e1dd	0.38062945
77	0xbf08b637	-0.5340304
78	0xbeb41077	-0.35168812
79	0xbf01dbc4	-0.5072596
80	0xbea8fcd4	-0.33005393
81	0xbf13b855	-0.57703143
82	0x3de95f69	0.11395151
83	0xbe07fa53	-0.13279085
84	0xbf0b1612	-0.5433055
85	0x3f11f87c	0.5701978
86	0xbefe1a41	-0.49629405
87	0x3ed7a6d6	0.42119473
88	0xbf0aaefd	-0.5417326
89	0x3ed1d819	0.40985182
90	0x3e407465	0.18794401
91	0xbea6c828	-0.32574582
92	0x3ee30b09	0.44344357
93	0xbe804abe	-0.25057024
94	0x3ecc4ff0	0.39904737
95	0x3c1bfafd	0.0095202895
96	0x3ed901fb	0.42384323
97	0x3f0e2b1a	0.5553452
98	0x3df8146d	0.12113271
99	0xbdf43e50	-0.11925948
100	0xbf0c1816	-0.5472425
101	0x3cdeb5a0	0.027186215
102	0xbd6ac02d	-0.05731218
103	0xbd82432a	-0.06360467
104	0x3e84f8e0	0.25971127
105	0xbed83812	-0.42230278
106	0x3cf0d496	0.029398244
107	0x3e889101	0.2667313
108	0xbef35126	-0.4752285
109	0x3e2e9bf9	0.17051686
110	0xbdc9d677	-0.09855359
111	0x3e6db6f8	0.23214328
112	0x3ecd562f	0.40104815
113	0x3d8675f1	0.06565464
114	0xbf1161a0	-0.5678959
115	0xbe110b53	-0.14164476
116	0x3e896f4a	0.2684272
117	0x3ef75f25	0.48314777
118	0x3d81862b	0.06324419
119	0x3ec8ec62	0.39242846
120	0x3e9e9b9a	0.3097809
121	0xbeb83dcf	-0.35984656
122	0x3d2ddeaa	0.042448677
123	0xbf0c4554	-0.54793286
124	0xbe321062	-0.17389062
125	0xbe1807b0	-0.14846683
126	0xbe8dbb8d	-0.27682152
127	0xbe54ade6	-0.20769462
128	0xbd927856	-0.071518585
129	0x3f14375f	0.5789699
130	0xbde99218	-0.11404818
131	0xbc9cc799	-0.019138144
132	0xbec0d043	-0.3765889
133	0xbda0c86b	-0.07850727
134	0xbecea18b	-0.40357623
135	0xbee2e072	-0.44311863
136	0xbe5660e0	-0.20935392
137	0xbf13bcb9	-0.5770984
138	0x3e70bd17	0.23509632
139	0x3eca8b05	0.39559188
140	0xbe9dd59c	-0.30827034
141	0xbe834923	-0.25641736
142	0x3e49930f	0.19685005
143	0x3d86d7be	0.06584118
144	0x3f007b67	0.501883
145	0xbda84487	-0.082161956
146	0x3de146d3	0.10999837
147	0x3f17452f	0.5908994
148	0x3f00768e	0.501809
149	0xbeb3410e	-0.3501057
150	0xbed54367	-0.41652986
151	0x3ddd53bf	0.10806989
152	0xbe8f32a1	-0.27968314
153	0x3e9bdceb	0.30441985
154	0xbe0b5bc9	-0.13609232
155	0x3e13a143	0.14416985
156	0xbc644a56	-0.013933739
157	0xbcab8aae	-0.020940151
158	0x3e192f21	0.14959385
159	0x3ea245e2	0.3169394
160	0xbebcc1a9	-0.368665
161	0xbec8d72f	-0.39226672
162	0x3f0fc48b	0.56159276
163	0x3dba7528	0.09104377
164	0x3df8a2ec	0.1214045
165	0xbe0393c9	-0.12849344
166	0x3e0ccf75	0.13751014
167	0xbe95657a	-0.29178983
168	0xbda3dc79	-0.08001036
169	0x3d16b330	0.03679198
170	0x3f0a79e0	0.54092216
171	0xbec9de75	-0.39427534
172	0x3dcbc2aa	0.099492386
173	0x3eaff8dc	0.34369552
174	0xbf10e179	-0.56594044
175	0x3d467922	0.048455365
176	0xbf12a082	-0.57276165
177	0xbebc8311	-0.36818746
178	0xbe9c9833	-0.3058487
179	0x3d579def	0.05264085
180	0x3efc6091	0.49292424
181	0x3d5d7b17	0.054072466
182	0xbf06df5a	-0.5268456
183	0x3e9ae21d	0.30250636
184	0xbe96f145	-0.2948095
185	0x3e39b2d1	0.1813462
186	0xbeb449cb	-0.3521255
187	0xbe17d534	-0.14827424
188	0xbeeebf11	-0.46630147
189	0xbe5ff285	-0.21869858
190	0xbe531686	-0.20614061
191	0xbf0ba931	-0.5455504
192	0x3f06dd90	0.5268183
193	0xbe953930	-0.29145193
194	0xbe8b8eee	-0.27257484
195	0x3f0f2031	0.55908495
196	0x3ea685ca	0.32523948
197	0x3e747ad0	0.23874974
198	0xbe63b4a8	-0.22236884
199	0xbdf60724	-0.12013081
200	0xbe3acab1	-0.18241383
201	0x3eaf38bb	0.3422297
202	0x3d4eb779	0.050467942
203	0xbed9ac9e	-0.4251451
204	0x3eef46d1	0.46733716
205	0x3eec550f	0.46158645
206	0x3e460a4b	0.19339864
207	0xbe9e7f6b	-0.30956587
208	0xbf04cecd	-0.5187805
209	0xbedea9df	-0.43488976
210	0xbee09ecc	-0.43871152
211	0xbe57257d	-0.21010394
212	0x3eca9972	0.39570194
213	0x3eab7d7d	0.33494177
214	0x3e49b126	0.19696483
215	0xbecebf45	-0.40380302
216	0xbed5c6dc	-0.4175328
217	0x3e064162	0.13110879
218	0x3e82a0f9	0.25513437
219	0xbe70783e	-0.23483369
220	0xbd460392	-0.04834325
221	0xbe1037ed	-0.14083834
222	0x3e869c52	0.26291138
223	0x3ecc8c3e	0.39950746
224	0xbe0c5841	-0.13705541
225	0x3d9dc5ce	0.07703744
226	0xbed139ab	-0.4086431
227	0x3f010071	0.503913
228	0xbdd2323c	-0.10263488
229	0x3d20c8be	0.039253943
230	0xbed00070	-0.40625334
231	0x3ed926c5	0.4241239
232	0x3ef179d0	0.47163248
233	0x3eaa2d29	0.3323758
234	0x3e8f186f	0.2794833
235	0xbf029ab2	-0.51017296
236	0x3ca4d86c	0.02012273
237	0x3e534812	0.20632961
238	0xbe6f5256	-0.23371252
239	0x3eee1965	0.4650375
240	0xbe3c0ea4	-0.1836496
241	0xbec3794f	-0.3817849
242	0xbf0f510f	-0.5598306
243	0x3e1278f1	0.14303948
244	0xbeb5d8b7	-0.35516903
245	0x3eb231de	0.3480367
246	0xbec78898	-0.389714
247	0xbf13bf1f	-0.577135
248	0x3e5eebd6	0.21769652
249	0xbe9a4bff	-0.30136105
250	0x3eb05943	0.344431
251	0x3a526d17	0.000802712
252	0xbeeeef66	-0.46667022
253	0x3eafe916	0.34357518
254	0xbf088a50	-0.5333605
255	0xbe2caa22	-0.16861776

0.bias f4 [128]
0	0x3e76adfe	0.2408981
1	0x3e975261	0.29555038
2	0x3ec81476	0.3907811
3	0x3ef6e0ee	0.48218483
4	0xbeb827e5	-0.35967937
5	0x3dbb27d8	0.09138459
6	0x3d5cc615	0.053899843
7	0x3d6b6dbc	0.057477698
8	0x3d88579a	0.06657334
9	0x3e03936d	0.12849207
10	0xbdbc805f	-0.09204172
11	0x3ef76cbb	0.48325142
12	0x3d266f40	0.04063344
13	0xbd4ad314	-0.049517706
14	0xbf010155	-0.5039266
15	0x3dca028c	0.09863767
16	0xbe74d020	-0.23907518
17	0xbeaf7bc0	-0.342741
18	0x3f12069d	0.5704134
19	0x3e84469d	0.25835124
20	0xbd2593c2	-0.040424116
21	0x3d8b05ed	0.0678824
22	0xbeb6e868	-0.35724187
23	0xbe216fc8	-0.15765297
24	0x3ef7fed5	0.4843661
25	0x3f0d35ce	0.55160224
26	0x3d29af67	0.041427042
27	0xbeb59233	-0.35463104
28	0x3db05004	0.08609012
29	0xbe90f218	-0.28309703
30	0x3e6a4455	0.22877629
31	0x3e587b87	0.21140872
32	0xbed9297d	-0.42414466
33	0xbe5e03db	-0.21681158
34	0x3ebe06a2	0.37114435
35	0xbea4a78b	-0.32159075
36	0x3ee0afad	0.4388403
37	0x3defbe56	0.117062256
38	0xbeb72675	-0.35771528
39	0xbee4416e	-0.4458117
40	0x3e781291	0.24225833
41	0xbee79bb9	-0.45235994
42	0x3d4cbad9	0.04998288
43	0xbe03b061	-0.12860252
44	0xbec01eeb	-0.3752359
45	0xbed32db7	-0.41245815
46	0xbf0d301f	-0.5515155
47	0x3e87f6f7	0.26555607
48	0x3f165124	0.5871756
49	0x3e31fabc	0.17380804
50	0x3e6fc085	0.23413284
51	0x3df5c8db	0.12001201
52	0x3f0264f8	0.50935316
53	0x3ebe07c5	0.37115303
54	0x3ee0b90f	0.43891189
55	0x3ef22e73	0.47301063
56	0x3f01a55c	0.50642943
57	0xbee2ebf9	-0.44320658
58	0x3e93d58e	0.28873867
59	0xbd942988	-0.07234484
60	0xbcf646d2	-0.030063067
61	0x3dd5e707	0.104444556
62	0xbedf8d18	-0.43662333
63	0x3eadc808	0.33941674
64	0x3ecf1179	0.40443018
65	0x3e7e7c9d	0.24852224
66	0xbdbc7f4c	-0.092039675
67	0xbda0a9ca	-0.07844885
68	0x3ef0076d	0.46880665
69	0xbedf2cbb	-0.43588814
70	0xbf09f060	-0.5388241
71	0x3e230309	0.15919127
72	0xbf03dd02	-0.51509106
73	0x3f11bb10	0.5692606
74	0xbeea0b88	-0.45711923
75	0x3e73bde1	0.23802902
76	0x3eafc8ff	0.34333035
77	0xbe802890	-0.25030947
78	0x3d9bd75b	0.07609435
79	0x3e9de89b	0.30841526
80	0x3f007321	0.5017567
81	0x3e6c79ef	0.23093389
82	0xbd4b15b2	-0.049581237
83	0xbee03cef	-0.4379649
84	0x3e95c43e	0.29251283
85	0x3dd3c2bc	0.10339877
86	0x3e4a509a	0.1975731
87	0x3de91825	0.11381558
88	0x3ed5b925	0.41742817
89	0x3ef67c6b	0.48141798
90	0x3f112055	0.5668996
91	0xbe6e61b5	-0.2327946
92	0x3ed72ef7	0.4202802
93	0x3ef4e3c0	0.4783001
94	0x3cd43a34	0.02590666
95	0xbe2dc9c3	-0.16971497
96	0xbf057374	-0.5212929
97	0x3e84b2fc	0.25917804
98	0xbe6e63e1	-0.23280288
99	0x3ed051d6	0.40687436
100	0xbe2130f7	-0.15741335
101	0x3ebdcbf0	0.37069654
102	0x3e62e83a	0.221589
103	0xbe9f8a5b	-0.31160244
104	0xbca8cfd2	-0.020606909
105	0xbd9f67c4	-0.077834636
106	0x3f10e64a	0.56601393
107	0x3e8478af	0.25873324
108	0x3a8163e5	0.000987169
109	0x3e712a75	0.23551352
110	0xbe8e98a6	-0.27850837
111	0x3d3ed4b1	0.046589557
112	0xbf06e252	-0.5268909
113	0xbddd6107	-0.10809522
114	0x3e433551	0.19063307
115	0xbea1aeff	-0.31578824
116	0x3da60d53	0.0810801
117	0xbe31edf5	-0.1737593
118	0x3def4f44	0.116850406
119	0x3ec43ee5	0.38329235
120	0x3d40dc44	0.04708506
121	0xbe862b60	-0.26204967
122	0x3e966b17	0.29378578
123	0xbec171fb	-0.37782273
124	0x3e6797b9	0.22616471
125	0x3dcbd9f9	0.09953684
126	0x3f1254db	0.5716073
127	0xbecffa2b	-0.4062055

2.weight f4 [128, 128]
0	0xbd7f3fc2	-0.062316664
1	0xbdad8cf0	-0.08474147
2	0xbd60e0a5	-0.054901738
3	0x3cd45c58	0.02592294
4	0x3d687da4	0.056760445
5	0x3d60c402	0.054874428
6	0xbb6c4740	-0.003605321
7	0x3bd52622	0.00650479
8	0xbd5de495	-0.05417307
9	0xbcb185dd	-0.021670276
10	0xbd187f14	-0.037230566
11	0xbd3e3c03	-0.04644395
12	0x3d873bfb	0.06603237
13	0x3c772214	0.015083808
14	0x3d8c40cb	0.06848296
15	0x3d0878aa	0.0333182
16	0xbc52f4bb	-0.012875731
17	0x3da39c3d	0.079887845
18	0xbdba7e19	-0.091060825
19	0xbc580162	-0.013183923
20	0x3d5928c4	0.053017393
21	0xbd9df647	-0.07712989
22	0xbd8727a1	-0.065993555
23	0xbd88d8e7	-0.06681996
24	0xbab4f236	-0.0013805095
25	0x3c769a5c	0.015051451
26	0xbc90c65c	-0.01767271
27	0x3cc648ad	0.024204576
28	0xbd71c35d	-0.059024204
29	0x3cf28a97	0.0296071
30	0xbdb4d1d6	-0.088290855
31	0xbcf844a2	-0.030306164
32	0xbb8de258	-0.004329961
33	0xbd3e61c4	-0.046479955
34	0xbd420be8	-0.047374636
35	0xbd584057	-0.052795734
36	0xbd9ec645	-0.07752661
37	0xbd24b9be	-0.0402162
38	0xbd43d2aa	-0.047808327
39	0x3d8b9f85	0.06817535
40	0x3cb3b456	0.021936577
41	0x3c99433c	0.018708818
42	0xbd6f934b	-0.05849008
43	0x3d050322	0.03247369
44	0x3cb84a3b	0.022496333
45	0x3c3c0b9c	0.011477377
46	0xbccfa430	-0.025346845
47	0x3d9b69a3	0.07588508
48	0x3d76b868	0.060234457
49	0xbd27c9b5	-0.040963847
50	0x3b268c6b	0.0025413285
51	0x3d8547d3	0.0650784
52	0xbd49aa38	-0.0492346
53	0x3d4bbd9b	0.04974137
54	0x3c2f687d	0.010706064
55	0x3cc4eaf2	0.024037812
56	0x3c04100e	0.008060468
57	0x3d477aa2	0.048700936
58	0x3d4cefc9	0.050033364
59	0x3b19f37b	0.0023491073
60	0x3d33112a	0.04371754
61	0x3c543905	0.012953048
62	0xbd86854c	-0.06568393
63	0xbb84e8d4	-0.0040560756
64	0x3d6ed277	0.058306184
65	0x3da890e8	0.08230764
66	0xbd79db2a	-0.061000027
67	0xbd8064cf	-0.06269228
68	0x3c8eb406	0.017419826
69	0xbc6c6ba8	-0.014429964
70	0xbb92da37	-0.0044815796
71	0x3d917234	0.07101861
72	0x3db23620	0.0870173
73	0xb98b7ce4	-0.00026605197
74	0xbd35b6fb	-0.044363957
75	0xbd91553a	-0.07096334
76	0x3a8d3d33	0.0010775685
77	0x3d879a47	0.06621223
78	0xbd53e27c	-0.051729664
79	0xbd09cf65	-0.033645052
80	0x3d6bd2fc	0.057574257
81	0xbbf56498	-0.0074887984
82	0x3c5cd502	0.013478519
83	0x3d216e56	0.039411865
84	0xbc8866b3	-0.016650533
85	0xbd855514	-0.06510368
86	0x3d9c324d	0.076267816
87	0xbd3758cf	-0.04476243
88	0x3cd7b937	0.026333435
89	0x3d0153b5	0.03157397
90	0xbd80ec18	-0.06295031
91	0x3d8f08c4	0.06984094
92	0xbc82f537	-0.015986068
93	0xbd4ca304	-0.04996015
94	0x3ce73c80	0.02822709
95	0xbd5e5a59	-0.05428538
96	0x3d5db0f1	0.054123823
97	0xbd79e281	-0.061007027
98	0x3c97ee9a	0.018546391
99	0xbd222a87	-0.03959134
100	0xbc65e89e	-0.014032511
101	0x3c939a10	0.018017799
102	0xbc9c6a3e	-0.019093629
103	0x3d620632	0.05518169
104	0xbd98c4c7	-0.07459407
105	0x3d738fc3	0.059463274
106	0xbcf9a305	-0.030473242
107	0x3d4fa97a	0.050698735
108	0x3d615439	0.05501196
109	0x3cfb82bc	0.030701987
110	0x3daa01dc	0.08301136
111	0x3d4fa731	0.050696556
112	0x3c5c1fb6	0.013435295
113	0xbd052e61	-0.032514933
114	0x3d98de26	0.074642465
115	0x3a94468d	0.001131253
116	0xbd17e789	-0.037086044
117	0xbd8c1779	-0.068404146
118	0xbd8b8a98	-0.06813544
119	0x3d793455	0.060840923
120	0xbda4a771	-0.080397494
121	0x3d901250	0.07034743
122	0xbd3a4cd0	-0.04548341
123	0x3d377d39	0.044797156
124	0xbc879097	-0.016548438
125	0xbd970057	-0.07373112
126	0xbda884ef	-0.0822848
127	0xbcbd75c2	-0.02312744
128	0xbd7ea971	-0.06217331
129	0x3dec3d26	0.11535101
130	0x3d795ba5	0.060878415
131	0x3c9a507f	0.018837212
132	0x3cf45fbf	0.029830812
133	0xbca0f91a	-0.01965003
134	0x3e064e6f	0.13115858
135	0x3cb8299e	0.022480782
136	0x3afa01a6	0.0019073978
137	0xbd09dacb	-0.033655923
138	0x3d0a2cce	0.033734135
139	0x3dfc3d9e	0.1231644
140	0x3cd43513	0.025904214
141	0x3d6da563	0.058019053
142	0x3da8b624	0.082378656
143	0x3cc031f7	0.023461325
144	0x3c7dc1f9	0.015488141
145	0x3c97e4ea	0.018541772
146	0x3d797733	0.060904693
147	0x3d8659df	0.0656011
148	0xbd6d14ff	-0.05788135
149	0x3e002341	0.12513448
150	0xbd8b2b07	-0.06795316
151	0x3d30cc97	0.043163862
152	0xbd8524e0	-0.06501174
153	0xbd6e455c	-0.058171615
154	0x3d1f59aa	0.03890387
155	0x3d33dd6c	0.043912336
156	0x3c88113a	0.016609777
157	0x3dbedac6	0.093190715
158	0xbb7b254b	-0.003832179
159	0x3cee8df0	0.029120415
160	0x3c588daa	0.013217369
161	0xbb82e953	-0.0039950996
162	0xbd0661e3	-0.032808196
163	0x3cb58a56	0.02216069
164	0x3d67886e	0.056526594
165	0x3d87bc21	0.066276796
166	0xbd3e7e83	-0.04650737
167	0x3d846e7f	0.06466388
168	0xbcfc1758	-0.03077285
169	0xbd4acc00	-0.049510956
170	0x3d1e36fa	0.03862665
171	0x3d8c163f	0.068401806
172	0x3c6bd22b	0.01439337
173	0xbc3ca70a	-0.011514435
174	0x3c56e07f	0.0131150475
175	0x3d55d5d8	0.05220589
176	0x3dcf1940	0.10112238
177	0x3ca1769b	0.019709876
178	0x3d7c6672	0.061621137
179	0xbc8fa306	-0.01753379
180	0x3dbfb162	0.09360005
181	0xbd6d6936	-0.057961665
182	0x3c96e15f	0.018418012
183	0xbcf720cc	-0.030167006
184	0xba9d42ee	-0.0011998096
185	0xbcafcd97	-0.021460338
186	0x3cd2a9d7	0.025715752
187	0xbcf0268f	-0.029315261
188	0xbcd03f1d	-0.02542072
189	0x3bbf3e63	0.0058362945
190	0xbcb7ff0e	-0.022460487
191	0x3d12a584	0.03580238
192	0x3dc5dbd9	0.09661073
193	0xbc8eb5ee	-0.017420735
194	0xbc113736	-0.008863261
195	0xbd761696	-0.060080133
196	0x3e00daab	0.12583415
197	0x3bfa2b5e	0.0076345643
198	0xbc29909f	-0.010349422
199	0x3c8f60b4	0.017502166
200	0x3d69a4f2	0.05704207
201	0x3bd5d95b	0.006526155
202	0xbd6bf7c7	-0.057609346
203	0xbd1f08b7	-0.03882667
204	0x39c25c46	0.00037071313
205	0x3b9ff6a2	0.004881696
206	0x3d0a3e43	0.033750784
207	0xbc07bf14	-0.008285303
208	0xbd57faf7	-0.052729573
209	0xbb81144a	-0.003939186
210	0x3c94c7e5	0.018161723
211	0xbca1acb4	-0.019735672
212	0x3da5dbfa	0.08098598
213	0x3da004db	0.07813426
214	0x3d4523b8	0.048129767
215	0x3d164b20	0.03669274
216	0x3da5707b	0.080780946
217	0x3d9b7416	0.07590501
218	0x3c61a358	0.013771854
219	0xbcaff33b	-0.021478286
220	0x3c2ab95f	0.0104201725
221	0xbcd5e19a	-0.026108552
222	0x3de16a9c	0.11006662
223	0xbcef2290	-0.029191285
224	0xbd7c867f	-0.061651703
225	0x3dde8387	0.108649306
226	0x3d7303ab	0.05932967
227	0x3d3ed05c	0.046585426
228	0xbd0099f6	-0.03139683
229	0xba40e637	-0.00073585234
230	0xbc8baa80	-0.017049074
231	0x3e038003	0.12841801
232	0xbd820a52	-0.06349625
233	0x3d9fad85	0.07796768
234	0x3dbab99d	0.09117434
235	0x3de28cea	0.110620335
236	0x3d0393ff	0.032123562
237	0xbd4e68ae	-0.0503928
238	0x3cb3e65a	0.021960426
239	0x3d63ab0f	0.055583056
240	0xbd79fd27	-0.06103244
241	0xbd2822d1	-0.04104883
242	0xbc99140a	-0.018686313
243	0xbd8ac19e	-0.06775211
244	0x3cc4dcbd	0.024031037
245	0xbda7587c	-0.08171174
246	0x3db2d8f6	0.08732788
247	0xbc07d893	-0.008291381
248	0x3dfb6f97	0.122771434
249	0x3d360e9c	0.044447526
250	0x3de604e9	0.11231405
251	0xbcebbd3a	-0.028776754
252	0x3c32e0a3	0.010917815
253	0x3d68fc26	0.056881092
254	0x3d556032	0.052093692
255	0xbd495af4	-0.049159005

2.bias f4 [128]
0	0xbc9b7869	-0.018978314
1	0x3cc4fd7b	0.02404665
2	0xbdbd4fcd	-0.092437364
3	0xbd5d9c7b	-0.05410431
4	0x3c93cad3	0.01804105
5	0x3deea4c9	0.11652524
6	0x3d8be74e	0.06831227
7	0x3d700427	0.05859771
8	0xbc89de0b	-0.016829511
9	0x3dee9068	0.11648637
10	0x3d0d0ab6	0.034434043
11	0xbccd1f63	-0.02503938
12	0xbc1cd33a	-0.009571845
13	0x3da6eb2b	0.081503235
14	0x3dcac8f8	0.09901613
15	0xbd1d3ba2	-0.03838695
16	0x3d62a0ed	0.055329252
17	0xbdb4224e	-0.087956056
18	0x3cfd4321	0.030915799
19	0x3d858148	0.06518799
20	0xbd7dda9d	-0.061976064
21	0xbd60e771	-0.05490822
22	0x3da1eade	0.079061255
23	0xbd9b650b	-0.07587632
24	0x3d0aa6b6	0.033850394
25	0x3d9fee34	0.078091055
26	0x3d7668e0	0.06015861
27	0x3de17682	0.11008932
28	0xbd878cc8	-0.06618649
29	0xbd1882d0	-0.037234128
30	0xbbc99f5f	-0.0061530317
31	0xbdb1b28b	-0.086766325
32	0x3c9c3dc1	0.019072415
33	0xba35d52a	-0.0006936366
34	0xbd3f4900	-0.046700478
35	0x3d9643cc	0.0733715
36	0xbd80f2b6	-0.062962934
37	0x3a286392	0.00064235285
38	0x3d58e5fe	0.052953713
39	0x3cdb9570	0.026804656
40	0x3d36c586	0.044621967
41	0x3d8c7cc9	0.068597384
42	0xbdbdf96d	-0.0927609
43	0xbd99068b	-0.07471951
44	0xbd92fa16	-0.07176606
45	0xbc5b42c0	-0.013382614
46	0x3db2f4ef	0.087381236
47	0xbcf5823e	-0.02996933
48	0x3d063930	0.032769382
49	0xbd853d8d	-0.065058805
50	0x3d21bcce	0.0394867
51	0x3cad822f	0.02118024
52	0x3dbf89c6	0.0935245
53	0x3d1d9164	0.038468733
54	0x3c75308b	0.014965187
55	0x3da80743	0.0820451
56	0x3cac29e9	0.021016078
57	0xbd205e5e	-0.039152496
58	0x3d80ecfa	0.062952
59	0x3d8ac312	0.06775488
60	0xbcbf363b	-0.023341289
61	0xbd25f8de	-0.04052054
62	0xbd24d807	-0.040245082
63	0x3da06c6c	0.0783318
64	0x3dc7099d	0.097186305
65	0xbdb35bba	-0.0875773
66	0xbc357b5a	-0.011076773
67	0x3cb9e68a	0.022692937
68	0x3d706076	0.058685742
69	0xbd190398	-0.037356943
70	0x3cf36db1	0.02971539
71	0xbd8190f4	-0.06326476
72	0xbd18b7e9	-0.037284765
73	0xbd0bd026	-0.034134053
74	0x3d508781	0.050910477
75	0x3de6a06f	0.11261069
76	0xbc570b27	-0.0131252175
77	0xbdb878d1	-0.09007419
78	0xbcb4599e	-0.022015389
79	0x3d54f8a6	0.051994942
80	0x3ce91958	0.028454468
81	0x3d15da9a	0.036585428
82	0xbcbc1106	-0.022957336
83	0x3d451995	0.0481201
84	0x3db56042	0.0885625
85	0x3c323f88	0.010879405
86	0xbd482e07	-0.04887202
87	0xbc4c6cb4	-0.012477089
88	0xbcda59f0	-0.026654214
89	0x3b31f5b6	0.0027154512
90	0x3d3fb7c9	0.04680613
91	0x3d93081c	0.07179281
92	0xbbf05193	-0.007333943
93	0x3b1e23cf	0.002413023
94	0xbd10b988	-0.035333186
95	0xbd7044e5	-0.058659453
96	0xbbc3c75e	-0.005974694
97	0xbd928d37	-0.07155841
98	0x3cd8654f	0.026415495
99	0xbd4d952f	-0.0501911
100	0x3dae2dca	0.08504827
101	0x3d50db3d	0.050990332
102	0x3ba65aeb	0.0050767562
103	0x3d915071	0.07095421
104	0x3d2493d2	0.040180035
105	0x3d243410	0.040088713
106	0xbd8f0000	-0.06982422
107	0xbd1a9661	-0.03774107
108	0x3c544993	0.012956995
109	0xbc9a5b1a	-0.018842269
110	0x3db6ea13	0.08931365
111	0x3a1d8092	0.0006008233
112	0xbd7e2fd5	-0.062057335
113	0xbcdfd26e	-0.02732202
114	0x3c755e3d	0.014976081
115	0xbbfdb888	-0.007742945
116	0xbd427fa1	-0.047484998
117	0x3daf97ae	0.085738525
118	0x3d966af9	0.07344622
119	0x3db0116f	0.08597075
120	0x3de362e4	0.11102846
121	0xbda0d326	-0.07852773
122	0xbd152e21	-0.036420945
123	0x3abb64e2	0.0014297033
124	0xbc724a64	-0.014788244
125	0xbb33ff3a	-0.002746536
126	0x3d914feb	0.07095321
127	0x3db53dbb	0.08849665

4.weight f4 [1, 128]
0	0x3d7a1ce0	0.061062694
1	0xbe246c0a	-0.16056839
2	0x3d7784c9	0.06042937
3	0xbd398d91	-0.045301024
4	0x3c46d584	0.012135867
5	0xbdbb792e	-0.091539726
6	0xbcb83997	-0.022488398
7	0xbc6470bb	-0.013942893
8	0xbdb26141	-0.08709956
9	0xbe214ef2	-0.15752771
10	0xbdbb0ca3	-0.0913327
11	0xbda972ec	-0.08273873
12	0xbd61af46	-0.055098794
13	0x3d87449c	0.06604883
14	0xbdb2f32c	-0.087377876
15	0x3da7b8b3	0.081895255
16	0x3d9d2d21	0.07674623
17	0xbda8f9a3	-0.082507394
18	0x3d21a06e	0.03945964
19	0x3c9aee67	0.018912507
20	0x3c1cb2f6	0.009564152
21	0xbdf6a60c	-0.1204339
22	0xbe00d530	-0.12581325
23	0x3cb30d56	0.021856945
24	0x3d84f3bf	0.064918034
25	0xba59ec42	-0.0008313098
26	0x3c260a51	0.010134296
27	0xbe0e820a	-0.13916793
28	0xbdfd0488	-0.1235438
29	0x3d47e951	0.048806492
30	0xbdfe619e	-0.12420963
31	0x3bb39c53	0.005481282
32	0xbdf376f9	-0.118879266
33	0xbe065211	-0.13117243
34	0x3cc4f6c4	0.024043448
35	0xbe117ee3	-0.1420856
36	0x3da515a7	0.080607705
37	0x3c2ba203	0.010475638
38	0x3d664d79	0.056226227
39	0xbdbc54e0	-0.09195876
40	0x3da13a38	0.078724325
41	0xbdb9d34c	-0.09073505
42	0x3af4d9e5	0.001868066
43	0x3cf11cc8	0.02943267
44	0x3d3b43ec	0.045719072
45	0xbe041794	-0.1289962
46	0x3db47565	0.08811454
47	0xbdd08838	-0.10182232
48	0xbdbd55ea	-0.092449024
49	0xbd9aeb8e	-0.0756446
50	0xbdfbfb76	-0.12303822
51	0xbe0f4680	-0.13991737
52	0xbe173930	-0.14767909
53	0xbccced55	-0.025015512
54	0x3c98be03	0.018645292
55	0xbd5ecb4f	-0.05439311
56	0x3d99a799	0.0750267
57	0xbd457028	-0.048202664
58	0xbddcc499	-0.107796855
59	0xbd5fba0c	-0.054620788
60	0xbcb341eb	-0.021882018
61	0x3d97c0fd	0.074098565
62	0x3d52baf0	0.05144781
63	0xbe0e5501	-0.13899614
64	0xbdf56704	-0.11982539
65	0x3ca3542b	0.019937595
66	0xbdde8c9d	-0.108666636
67	0xbd99ce2d	-0.07510028
68	0x3d28022a	0.04101769
69	0xbd046f43	-0.03233267
70	0xbdaf9786	-0.08573823
71	0xbd82750c	-0.06369981
72	0xbde98579	-0.11402411
73	0xbc046201	-0.008080007
74	0xbda1e8f0	-0.079057574
75	0xbdefadd9	-0.11703081
76	0x3bd531a4	0.0065061618
77	0x3d1ac7ff	0.037788387
78	0xbdded836	-0.10881083
79	0xbd8d17ca	-0.06889303
80	0x3d90a3ff	0.0706253
81	0x3d19f3d8	0.037586063
82	0xbd906984	-0.070513755
83	0xbe1bd6c1	-0.15218641
84	0xbdd588bb	-0.1042647
85	0x3d47a492	0.04874093
86	0xbda96523	-0.082712434
87	0x3d20c0f6	0.039246522
88	0x3da9600b	0.08270272
89	0x3d149a33	0.03627987
90	0x3d927add	0.071523406
91	0x3d0006c8	0.031256467
92	0xbd81ba9e	-0.063344225
93	0x3da2cd3a	0.079493
94	0x3d98442f	0.0743488
95	0x3d46f998	0.048577875
96	0x3cd8449a	0.0263999
97	0x3d3baae0	0.045817256
98	0xbd948283	-0.07251456
99	0xbdaae8ac	-0.0834516
100	0xbe20dd47	-0.1570941
101	0xbe026652	-0.12734345
102	0x3d94fcdf	0.07274794
103	0x3d8d6052	0.06903137
104	0x3dad737d	0.08469293
105	0x3d72d03e	0.059280626
106	0xbda86fc1	-0.0822444
107	0xbe032510	-0.12807107
108	0x3d4b783f	0.049675222
109	0xbd56cd9d	-0.05244218
110	0xbe2d7b14	-0.16941482
111	0xbd9ef9dc	-0.07762501
112	0xbcd7c1db	-0.026337555
113	0xbd9695c0	-0.07352781
114	0xbd514526	-0.051091336
115	0xbc2e7f13	-0.010650414
116	0x3d08154e	0.033223443
117	0xbd018e20	-0.03162968
118	0x3c07cb6b	0.008288245
119	0xbd126dc8	-0.035749227
120	0xbddd7791	-0.10813821
121	0x3cb5f3dd	0.02221101
122	0x3d7334e5	0.059376616
123	0xbdd18d64	-0.10232046
124	0xbd8c62df	-0.06854796
125	0xbdb035d7	-0.08604019
126	0x3d505f8a	0.050872363
127	0xbe25dfcf	-0.16198657
