model_multinomial_1/dqn_retail_model_1_lr_0.001_ed_0.995_g_0.99.pth (torch, 71664 bytes, 5 tensors)

0.weight f4 [128, 3]
00000000: d6ed d2bc 775a b3be 8b99 ebbd 6c6c 13bf
00000010: be4a c2be 2bab cb3d 009d 28be cee5 f93e
00000020: 1384 0b3f fa6b f03e 8765 f43e 7958 003e
00000030: 4311 d2be 5b8b 963e a8a1 eebe 3cd6 b5bd
00000040: ef59 733e 1144 58be b6c2 293e 738e 023f
00000050: 6f8f 2f3e 348e b73d 76fc b83e 48cf 2ebe
00000060: 25a7 863d 5a0c 0c3f 055b 923e 40da 0abe
00000070: e821 8a3e b7a0 1a3f 059d e93e 4eb1 0a3f
00000080: 3367 b93e 72dc 043d 66cf a73e 3a62 d63d
00000090: fd93 bcbe 9009 fc3d ab31 46be 7b6c c03e
000000a0: ffc7 41be 6a41 073f b77d afbe 1824 dabe
000000b0: d5ff c0be c36b 833e f179 9b3e 5f12 b7be
000000c0: 2808 fe3b fae9 10bf 4cc5 0fbf 9ad5 f2be
000000d0: dc3b ccbe 6674 d53e 926a a0be c267 d33e
000000e0: 0ca4 d3be 78b0 b73d 09ef fa3e 3432 d8be
000000f0: e0a9 f73d 1c26 e1be f7ab 063f a509 c5be
00000100: cc4a c9be 5b36 073f 251d 05bf 42c3 1d3e
00000110: 0d80 ecbe e839 09bf 5adf a23e a35b 11bf
00000120: b9d5 d2be fc25 ee3d 9650 dabe b12f cc3e
00000130: cb2d 9a3c 4bff c3be eb50 04bf c7a8 a7be
00000140: e284 64bd 96d3 36be dcd2 623e 0ace 15be
00000150: 759a 093f 9ca3 bb3d 92ec 343e b1f3 05bf
00000160: e6a9 b73e bff4 4dbe a1b4 0dbf 1a8c e8be
00000170: 6044 43be 8432 6d3e d1c7 39be 04f5 f2be
00000180: 4dea 0abf e760 7b3c 87bf 3cbe 197e a6be
00000190: 1172 203e 85d5 cf3e 45bc c53e 8b7b 043f
000001a0: 9d82 b3bd a74c 0abf 0967 f9bd 6a91 92bc
000001b0: 8531 ca3e 988a 0d3e cf14 20be 4f92 103f
000001c0: 812f a13e 151f 77be 3573 f8bd 21c8 d63e
000001d0: a147 c73e 8fcf adbe 7d5d d3bd 5642 f83e
000001e0: a65a c13e 6f8d 033f e18d 0e3e 4933 e2be
000001f0: 1f79 1ebe be94 9c3d d663 ef3d 1dee 083e
00000200: 9cc0 113f 76a2 09bd d4eb 4b3e 37b6 d3be
00000210: 9201 4fbe 17eb cbbe 5800 183e b6af e3be
00000220: c9d9 fbbd 7f5f 2fbe a4be 8f3e b5fe 133f
00000230: 6f91 c6be 148b a4be cc86 b6bd b169 00bf
00000240: e66b 05bf 84d8 b13e 3eea 313e 0432 1dbe
00000250: 864f 8ebc 33c2 10be 4abd c13d 0f15 6c3e
00000260: fdce a53e a142 f23e 0bf8 b93e 7d4e 0bbf
00000270: 7016 0e3f f77b aa3e c765 863d e89a 3ebe
00000280: 594d 51be b496 fb3d 5212 07bf 38e9 503e
00000290: 3718 033a ef50 1bbe 028c ff3d 72b1 4e3e
000002a0: 388c 12be 16de 14be 4cc1 f53e 81a3 b13e
000002b0: b263 f8be 88b9 0dbf 4041 7a3e b510 43be
000002c0: c32a b1be c108 6abe d8c0 ffbd c143 523e
000002d0: ea2d 07bf 5904 7d3e 61d1 843e 1e8f 913d
000002e0: 7d89 123f ba7e 6c3e d4aa f5be 5e06 63be
000002f0: d182 8dbe 5dde 803e 6350 893e 7039 df3c
00000300: b943 513e 3083 ec3e 2480 783d 8008 1d3e
00000310: 026e 9d3e e270 d8be 2396 183f 03ee e8be
00000320: 3bc4 293e e73b b6be 44c3 933e 95f0 cabe
00000330: fbc5 e4be 1aed 1ebe 74c0 6e3e a89b 883e
00000340: a249 1c3e 55fd 70be 4edc bd3e 1ccd e03d
00000350: 96d0 9abc d0ad 1abe 31b7 6dbe 0a84 ba3e
00000360: 90ae e03e c7fb 89be 7e23 ad3e 9fcc 663e
00000370: f690 dcbe 688e 13bf 5411 0dbf fec8 133f
00000380: f38b 5cbc 98e8 1f3f 3e37 053f bc27 b43e
00000390: e76d 2d3e 0cd2 583e fcd1 113f 2142 e63e
000003a0: 0917 c2be 648d 6cbd 9c28 aebe b7b4 b53d
000003b0: 23eb 583d 09b6 d73e 8234 f33e 0925 60be
000003c0: 4407 143f 9625 803e 6620 ed3e 5dfc e33e
000003d0: 1a6b 283e 8410 c8bd 4837 8abe 974f c6be
000003e0: 5853 03bf 4312 0d3e c1dc a53e 891c b23e
000003f0: 94ad b63b 5526 5ebe d7a6 f33d 4843 2d3e
-0.025748175 -0.35029957 -0.11503895 -0.57587314 -0.3794765 0.09944757 -0.16466141 0.4880814
0.54498404 0.4695738 0.4773371 0.1253375 -0.41028795 0.29403195 -0.4660771 -0.088787526
0.23764776 -0.21119715 0.16578183 0.5099861 0.1714456 0.0896267 0.36130112 -0.17071259
0.06574849 0.54706347 0.28585067 -0.13559818 0.26978993 0.6040148 0.4562761 0.54176795
0.36211547 0.032436796 0.3277542 0.10467954 -0.36831656 0.123065114 -0.19354884 0.37582764
-0.18923949 0.5283419 -0.342756 -0.42605662 -0.37695184 0.25668153 0.3036647 -0.35756204
0.007752437 -0.5660702 -0.56160426 -0.4742859 -0.3988942 0.41690367 -0.31331307 0.41290098
-0.41336095 0.089692056 0.49010494 -0.42225802 0.12092948 -0.43974388 0.5260615 -0.3848392
-0.39314878 0.52817315 -0.51997596 0.15406516 -0.46191445 -0.5360398 0.3181103 -0.5678045
-0.41178682 0.11628339 -0.42639607 0.39880136 0.018820664 -0.3828071 -0.5168597 -0.32745954
-0.05579079 -0.17854151 0.22150749 -0.14629379 0.5375131 0.091620654 0.1766837 -0.5232497
0.3587181 -0.20112894 -0.5535374 -0.4541939 -0.19069052 0.23163801 -0.1814263 -0.47452557
-0.54263765 0.015342928 -0.18432437 -0.3251808 0.15668513 0.4059259 0.386202 0.5175101
-0.08765147 -0.5402321 -0.121778555 -0.017891604 0.39490905 0.138224 -0.15632938 0.5647325
0.31481555 -0.2413295 -0.12131349 0.4194956 0.38921836 -0.33947417 -0.10320566 0.4848811
0.37764472 0.51387686 0.1392131 -0.44179752 -0.15475892 0.07645558 0.11688964 0.13372083
0.56934524 -0.0336022 0.1991418 -0.41349956 -0.20215443 -0.39827797 0.14843881 -0.44469994
-0.122973986 -0.17126273 0.28075135 0.5781053 -0.38782832 -0.32137358 -0.08912429 -0.5016127
-0.52117765 0.347355 0.17374513 -0.1535111 -0.017371904 -0.14136581 0.09459932 0.23054908
0.32384482 0.4731646 0.36322054 -0.5441664 0.55502987 0.33297703 0.06562381 -0.1861378
-0.20439662 0.12284604 -0.5276233 0.20401466 0.0005000862 -0.15167592 0.12477876 0.20184878
-0.14311302 -0.14537844 0.47999036 0.34695056 -0.4851356 -0.55361223 0.24438953 -0.19049342
-0.34602937 -0.22854902 -0.12487954 0.20533659 -0.52804434 0.2470869 0.25940993 0.071073756
0.5724104 0.23095217 -0.47981894 -0.22170398 -0.27638867 0.2516965 0.26819143 0.027249068
0.2043599 0.46193838 0.06066908 0.15335274 0.30747992 -0.42273623 0.5960409 -0.4549409
0.16578762 -0.35592577 0.28859913 -0.39636675 -0.44682297 -0.15520135 0.23315603 0.26681256
0.15262464 -0.23534139 0.37082142 0.109766215 -0.01889829 -0.15105367 -0.23214413 0.36428863
0.4388318 -0.26949903 0.3381614 0.22538994 -0.43079346 -0.5763917 -0.55104566 0.57728565
-0.013461101 0.62464285 0.5203742 0.35186565 0.16936456 0.21173877 0.56961036 0.44972327
-0.379082 -0.057752028 -0.34015357 0.08872359 0.05295862 0.4213107 0.47500998 -0.21889128
0.57823586 0.25028676 0.4631378 0.44528475 0.16447106 -0.09768775 -0.269953 -0.38732597
-0.5129905 0.13776498 0.32394984 0.34787396 0.0055748913 -0.2169431 0.118970565 0.16920197

0.bias f4 [128]
00000000: 6662 073f 4a70 f63d 5605 e93e 8cb9 40bd
00000010: 36ec dcbe 290c 983d 57c4 263e cc03 3a3e
00000020: 86c5 993e f499 0b3f fb43 3bbe 5d1e bdbd
00000030: 6432 b13e 83e4 193f ef41 fcbe e707 52be
00000040: acaf 9ebe bfcd ebbe 5b62 09bf 58b8 96be
00000050: 5ed5 e8be b765 95bd 56ca 8b3e 1715 95be
00000060: 0d07 13bd 81c4 09bf 08d8 0b3f 8ef9 de3e
00000070: b607 89be 5f47 903d 2a44 a33e 3e96 d63e
00000080: 750b 8d3e 4067 cd3e be10 bfbd d0f7 0ebf
00000090: a0e3 6f3e f88a 353e 8c42 633e adc5 143f
000000a0: 5a9e 713e a6d4 dd3e e347 153f 13f4 023f
000000b0: f95b 903e 567f 0d3e 2d38 023f 6050 f8be
000000c0: 31dd ffbe c3cd e43e f668 ddbc 0607 c63e
000000d0: 6595 bbbe d2d8 b23b f6a6 e43e f8f2 3bbe
000000e0: 5e08 0b3f 6c49 acbe 6843 4bbe e4a9 10bf
000000f0: 9919 60bb b298 093e 8c33 bebe 7864 a43e
00000100: 894e f9bd 3a56 c5be 0391 7bbe 7b74 bd3e
00000110: 7b25 853e c225 21be 23fc bbbe 1e72 41be
00000120: 7cb4 bfbe f7a6 8ebe 4f2f 4b3e 84b1 9d3e
00000130: 2d27 6f3d b806 503d 22d8 9f3d e8af 57be
00000140: 3f54 853d ebbf c83e e839 d93e 2323 1dbd
00000150: 3406 b43e e0e6 053f 3598 433e 2e8d c23e
00000160: c631 c1be 0413 943e 698a 3bbe e79b c9be
00000170: 1af9 d7be 1bd7 9ebe f1e9 a0be 7975 c8be
00000180: 5f9a 163e 0665 d1be 526e f2be 13f8 f9be
00000190: 0429 c2be 9056 ab3e 7812 e9be 16f9 103e
000001a0: 203e 94be 3dc4 3ebe d310 113f 7447 f4be
000001b0: 45e4 ae3e 8406 043f 4ab8 b8be 1096 8fbe
000001c0: 4571 08be 9939 e23e 5dc6 513c 87d4 093f
000001d0: c8df 0f3f d6c8 24be 918a f03e e4bc 153f
000001e0: 3124 d93e 4956 08bf 0274 15bd 483e 8bbe
000001f0: 21e4 c4be 6760 acbd c903 14bc 0e33 c43e
0.5288452 0.12033136 0.45511883 -0.04705195 -0.43148965 0.07424194 0.16285835 0.18165511
0.3003351 0.5453179 -0.18287651 -0.09234307 0.34608757 0.60114306 -0.49269053 -0.20510827
-0.30993402 -0.4605541 -0.53665704 -0.29437518 -0.45475286 -0.07294791 0.27302808 -0.29117653
-0.035895396 -0.53815466 0.5462651 0.4354977 -0.26763695 0.07044863 0.31887943 0.419115
0.27547804 0.40117836 -0.09329365 -0.5584688 0.23426676 0.17728794 0.22193354 0.5811413
0.23595563 0.433263 0.58312815 0.5115368 0.2819517 0.13818106 0.5086697 -0.4849882
-0.49973443 0.44688234 -0.027027588 0.38677233 -0.36637416 0.005457976 0.4465863 -0.18354404
0.5430964 -0.33649766 -0.19849932 -0.5650923 -0.0034194945 0.13437155 -0.37148702 0.32107902
-0.121731825 -0.38542348 -0.24567036 0.3700293 0.26005158 -0.1573706 -0.36715803 -0.18891189
-0.37442386 -0.2786176 0.19842266 0.30799496 0.05838697 0.050787657 0.07804896 -0.21063197
0.06510209 0.39208922 0.4242699 -0.038363587 0.35160983 0.5230541 0.19101031 0.37998337
-0.37733287 0.28920758 -0.18314518 -0.39376757 -0.42182237 -0.31023487 -0.31428483 -0.39152125
0.14707325 -0.40897387 -0.47349793 -0.48822078 -0.37921917 0.3346448 -0.45521903 0.14157519
-0.28953648 -0.18629546 0.56666297 -0.47710764 0.3415853 0.5157244 -0.360781 -0.28044176
-0.13324459 0.4418457 0.012803641 0.53839916 0.5620084 -0.16092238 0.46980718 0.5849135
0.42410424 -0.5325666 -0.036487587 -0.27195954 -0.384553 -0.08416825 -0.009034106 0.38320202

2.weight f4 [128, 128]
00000000: 17dc a0bd b030 1a3c da4a 89bd dc0d 6fbd
00000010: f50b 93bd 642a 873d 8b47 3f3d 0269 7abd
00000020: 51ba 3a3d b382 f53c 599c 6ebc f1c2 763d
00000030: fd39 143d 465e 3abd be8b 11bd f2ef 233d
00000040: 1113 f53c a0ce 29bc 6e0c 89bc 117d 89bd
00000050: 351f 0ebc 0c23 8fbd 9575 49bc d535 9ebd
00000060: 77f9 8cbd db12 853c e4b7 5f3d 8ff4 9fbd
00000070: 182a 863d 4184 1f3c 1b9e 783d 3142 35bd
00000080: 32e5 c53b a508 b0bd 11e8 6fbc a391 143d
00000090: 9a28 5f3d 9e8a 50bd b413 88bd c8ba 0cbd
000000a0: 4b6f 41bd 0ba4 a83d 4e02 23bc 4b79 393c
000000b0: 87ab 743d ec4b acbd bb0f 513d 6132 20bd
000000c0: 8c59 223d 3e78 613d a5d3 70bd 8600 38bd
000000d0: 7532 9dbd 909c 0abb 7319 063d 64bb 10bd
000000e0: 03b4 c03c 5fcc 94bb e4c9 7a3c ac49 f4bc
000000f0: 0aab a4bd ce40 1f3d 3287 9e3d 04ee 89bd
00000100: 2694 b1bd f281 953c ca3f a23d 33a9 78bd
00000110: 6102 993d d10e 8abd 82d1 a0bd df13 8b3d
00000120: e810 633d 5fb1 9d3d 2bfb 133d fea8 b23d
00000130: 90dd 36bc 57d0 09bc 54fd 2fbd 04bf ad3d
00000140: 1afc aa3d 63c7 123d df63 67bd 97e0 3ebd
00000150: 75f6 853c 6a26 163c 43fa 92bd c2ac 303c
00000160: bd46 343c 31b8 a1bd 29b5 773b a005 ad3d
00000170: d454 84bd 4853 b4bd 6cf2 383d 8ef7 023c
00000180: 464f 9f3d 2b02 f83c f5fd fdbc b66f 8dbd
00000190: c0f4 52bc 3c32 d13b 5cb6 2cbd 9903 7dbd
000001a0: 6aa5 18bd 9bc6 2f3d 5ae0 09bd c4c5 a63d
000001b0: 0403 a53d 0702 8cbc b68b d03c 8c9e a83c
000001c0: 4424 b8bc 69be 07bb 0b76 b93c 2924 a1bd
000001d0: 314c 5bbd 33b2 88bd 7c80 e5bc bfac afbd
000001e0: 49c6 51bb 5b3f d2bc 27e8 74bd ca8f 36bd
000001f0: 0b28 1fbd b2db f7bb b01f f4bb e716 7dbd
00000200: 8bb8 5fbd 4c7c 13bd 92f5 e93c 356a 4eba
00000210: 9f8d 8f3c 6b3d 313d 2f3f 573d e3e6 243d
00000220: 3f21 833d bed6 353d 28dd e33d e1c6 493d
00000230: 6021 96bb ef7c d63d 0cdd ccbb 4a5d 53bd
00000240: 4aef 943d b478 9a3b aac5 66bd 8e50 61bd
00000250: 5cc9 543d f405 76bc 1bf2 973d 1880 95bd
00000260: c5ff 60bc 0583 02bc 50a8 573d 3fee 033d
00000270: 661f 0d3e e4e8 96bc 2cc3 463d 946d 453d
00000280: 0455 853d 1c07 f53c a8ae 60bc d06c d1bc
00000290: b852 533d 9505 123d 2b2e 453d ea3b 03bb
000002a0: 2d21 9d3c 0e90 ef3c 50b3 d23d 4425 d5bc
000002b0: 4cb7 4b3b 30eb 66bd 1f0d b03d ba8c 7ebd
000002c0: 6075 4fbc 6a31 933d 616f a7ba 7663 683a
000002d0: ab2f 3abc 116d 7c3d 7e18 2b3c 6459 7bbb
000002e0: f7dc cabc 6d98 a43c 0017 92bc 4c71 c03d
000002f0: e63f aebc 4879 423d 4468 95bc b170 a83d
00000300: ac67 e6bb bab7 00bd c9e8 ee3b 04fe 20bd
00000310: a585 3a3d a992 ac3d a94f ab3d 92be 5cbd
00000320: 6420 583d cca3 763d 99e5 4a3d 6dba ec3d
00000330: f588 283d c9ce d83d 95e1 973d 7af4 9d3a
00000340: d115 af3d 2464 3fbc 68e9 a1bc 7ddd 353d
00000350: b423 c03d 02e9 56bc 1417 703d e37f bb3d
00000360: c59f 96bd 815b 8bbd 222c a1bd c778 5cbd
00000370: 1608 393d 4175 643c 50b0 ec3d 2d24 863d
00000380: bde0 b33c e287 3abd 4c13 833c 62c3 06bd
00000390: 4c73 2ebd 3628 2c3d 467c 2dbd 591a 7f3d
000003a0: 18cb ca3c 8f71 883d 7ca1 6c39 0ef0 c43b
000003b0: 2efc ad3d e293 a73d d7e6 1ebd fd2f 4b3d
000003c0: 94c8 d63d 2f45 a1bd 3a5e 373c 3580 843d
000003d0: af9b ea3c cad4 103d e1df 983d 3907 af3d
000003e0: f7e6 27bd 21c6 a0bd f904 b63d cf1d bb3d
000003f0: 3d32 893d 5327 803d 31cf 313d 1330 74bc
-0.07854479 0.009411022 -0.0670373 -0.058362827 -0.07180015 0.06599882 0.046699088 -0.0611353
0.04558784 0.029969549 -0.014563643 0.060244504 0.036188114 -0.045500062 -0.03553366 0.04002375
0.029916318 -0.010364205 -0.01672956 -0.06713308 -0.0086744325 -0.069891065 -0.0122961 -0.077251114
-0.06883519 0.016244343 0.05461873 -0.07810318 0.065509975 0.009736122 0.060697656 -0.04425258
0.006039285 -0.08595399 -0.014642731 0.036271702 0.05448208 -0.050913446 -0.06644383 -0.034357816
-0.047225278 0.08234414 -0.00994928 0.011320422 0.059733894 -0.084129184 0.051040392 -0.039110545
0.03963618 0.055046313 -0.05879559 -0.044922374 -0.076756395 -0.0021150447 0.032739114 -0.03533496
0.023523336 -0.0045409645 0.015306924 -0.029820286 -0.080404356 0.038880162 0.0774063 -0.06734851
-0.08670835 0.01825044 0.07922323 -0.060708236 0.07471157 -0.06741107 -0.078524604 0.067908995
0.055436045 0.076998465 0.036128204 0.08723639 -0.011161223 -0.0084114885 -0.042966202 0.08483699
0.08348866 0.03583468 -0.05649173 -0.046600904 0.016352871 0.009164432 -0.0717664 0.010783376
0.011003193 -0.0789646 0.003779719 0.084483385 -0.06461492 -0.08804947 0.045153067 0.007993592
0.07778792 0.030274471 -0.031004885 -0.06906073 -0.012875736 0.006384162 -0.0421661 -0.06177101
-0.037267126 0.042914014 -0.033661224 0.081431895 0.08057216 -0.01709081 0.025457244 0.020583414
-0.02247823 -0.0020712859 0.022639295 -0.07868225 -0.05353946 -0.06674614 -0.028015368 -0.085778706
-0.0032009056 -0.025664976 -0.05979171 -0.04457072 -0.038856547 -0.0075640315 -0.0074500665 -0.06178942
-0.054619353 -0.03600721 0.02855948 -0.00078741024 0.017523585 0.043271463 0.05255049 0.040259253
0.064028256 0.044394247 0.111261666 0.04926193 -0.0045816153 0.10473048 -0.006251937 -0.05160264
0.07272203 0.004714096 -0.05634085 -0.055008464 0.051949844 -0.015016068 0.07419225 -0.072998226
-0.013732855 -0.007965808 0.05265075 0.03220963 0.13781509 -0.018421598 0.048525974 0.048200205
0.06510356 0.029910617 -0.013713516 -0.025564581 0.05159256 0.035649855 0.048139732 -0.0020024725
0.019180859 0.029243495 0.102881074 -0.026018746 0.0031084595 -0.056376636 0.08596253 -0.062145926
-0.012662262 0.07187159 -0.0012774282 0.00088649185 -0.011363904 0.06162745 0.010442851 -0.0038352842
-0.024763567 0.020092214 -0.017833233 0.0939661 -0.021270704 0.047478944 -0.018238194 0.08224619
-0.0070314016 -0.031425215 0.0072909337 -0.03930475 0.04553761 0.08426411 0.08364803 -0.05389268
0.052765265 0.060214803 0.049535368 0.115589954 0.041146237 0.10586316 0.07416073 0.0012051009
0.08549083 -0.01168159 -0.019764617 0.04440068 0.0938181 -0.013117077 0.05861576 0.09155252
-0.07354692 -0.06804562 -0.07869746 -0.05382612 0.045173727 0.013943971 0.115570664 0.06549869
0.02195775 -0.045539744 0.016000412 -0.032901175 -0.042590424 0.042030536 -0.042354845 0.062280986
0.024755046 0.066622846 0.00022566871 0.006010062 0.08495365 0.08182503 -0.038794365 0.049606312
0.10487476 -0.07874524 0.011191899 0.06469766 0.028638689 0.03535918 0.074645765 0.085462995
-0.04099175 -0.0785029 0.08887667 0.09136545 0.06699035 0.062575005 0.043410484 -0.01490404

2.bias f4 [128]
00000000: 91e1 e3bc 0cd2 2f3c 7599 363d 321a 913c
00000010: 154a 7f3d 2622 82bc 6223 efbc e7df 9a3c
00000020: 0287 83bd 0678 ac3d 08fa 933d 3cd2 803d
00000030: 49ec 78bb f02e a4bd 8e05 dbbc 9a21 8cbd
00000040: 2828 ea3d 21e9 b0bb f8dc 9fbd fdd9 f83b
00000050: 2260 6db8 49f2 9abd 50ed 863c 69b3 703c
00000060: 42b9 cb3c 66d5 933d 78a3 04bd 5bc5 3e3d
00000070: f08c 983d 382d 843c c096 543b 2f69 56bd
00000080: 4ee2 333d c004 723d 2ecc a83b 934a 0fbd
00000090: 362e 483c 4b16 973d 940d f0bc 84ad 5f3d
000000a0: bd0d 843d 3fe8 923d c052 64bd 7826 dfbb
000000b0: 99c2 b4bc feac 713d a1c6 573d 6242 2f39
000000c0: 8b7d 743d a1ce 41bd 0b60 a2bd e315 90bd
000000d0: 8261 b93c 43af 2dbd cf8a f93d 8fa6 113c
000000e0: 12bb c43d b3da 883d 8acb b03d e01f 7b3d
000000f0: c840 15bc 0639 54bd 801b 7a3b f035 1d3c
00000100: afd7 443d cc2f 243d 22ec a83c de26 e33c
00000110: 8161 453d cab3 50bd a5e1 c53c 5228 273d
00000120: 1421 9ebd e913 82bd c0aa 73bd abaf c2bc
00000130: 4773 643d dab3 c1bc ff5e 93bd 340f 2ebd
00000140: 064d 943d 3a8d 823b d15c 103d 5bba 87bd
00000150: 79f2 a3bd 964b 51bd a437 b43d 7af6 8ebd
00000160: c170 5a3d 3627 e7ba 7931 223d af47 22bd
00000170: 3374 8e3d 5708 053d c4f4 b13d 4859 bbbd
00000180: b72d 7dbd c55d 443d 446c 4cbd f410 5cbd
00000190: 4bdf ce3c 2eeb 5bbc 01ca 953d 8600 3cbd
000001a0: 135c cf3c 81ad 7d3d 7477 80bc 709c 723d
000001b0: cf32 4c3d 9273 e73d 0307 c63c 1089 75bc
000001c0: 05e7 1dbd e3bf 83bd db38 06bd 995b 92bd
000001d0: b761 073d 8dd9 d53c 7790 b3bd 8d24 08bd
000001e0: 394d 953d 1307 bfbd a425 9d3d a2fc ecbc
000001f0: 944f ea3c c68d a3bd 774c 47bd 15b3 463d
-0.02781752 0.010731231 0.04457994 0.017712686 0.06232651 -0.015885424 -0.029191677 0.018905593
-0.06422235 0.0842133 0.07225424 0.06290099 -0.0037982634 -0.08016765 -0.026736047 -0.068423465
0.114334404 -0.005398885 -0.07805818 0.0075943456 -5.6594734e-05 -0.075657435 0.016470581 0.014691212
0.024868611 0.07218437 -0.03238246 0.04657493 0.07448757 0.016134843 0.0032438487 -0.052346405
0.043916993 0.05908656 0.0051512932 -0.03498323 0.012218049 0.07377299 -0.02930335 0.054608837
0.06447933 0.07173204 -0.05574298 -0.0068100058 -0.022065448 0.05900287 0.05267966 0.0001671403
0.05969004 -0.047316197 -0.07928475 -0.070354246 0.022629503 -0.04240347 0.12184679 0.008889808
0.09605993 0.066823386 0.08632572 0.061309695 -0.009109683 -0.051812194 0.0038163364 0.009595379
0.048057254 0.040084645 0.02062041 0.027728494 0.04818869 -0.05095271 0.024155447 0.040809937
-0.07721153 -0.06351454 -0.05948901 -0.023765406 0.055774 -0.02364533 -0.071958534 -0.042494968
0.072412536 0.0039841207 0.035244767 -0.06627341 -0.08005232 -0.051097475 0.08799675 -0.069806054
0.053330187 -0.0017635587 0.039597962 -0.039619144 0.06955757 0.032478657 0.086892635 -0.091478884
-0.061811175 0.047940988 -0.049907938 -0.053727105 0.025252959 -0.01342277 0.0731392 -0.045898937
0.02531246 0.061933044 -0.01568196 0.05923122 0.049853142 0.1130134 0.024173265 -0.0149862915
-0.038550396 -0.06433084 -0.032769065 -0.07146377 0.033052173 0.026104713 -0.08767789 -0.033237983
0.0729012 -0.09327521 0.07673195 -0.028929058 0.028602399 -0.079860255 -0.048656907 0.04851063

4.weight f4 [1, 128]
00000000: bd2f 833d c489 2cbe 8fbd 8e3d 291c ab3c
00000010: 20aa 803c 89df 15be aa28 8cbd 73f2 97bd
00000020: adaf 1e3c 9396 aebd 0323 833d aac2 923d
00000030: e36e 86bd 0e9e 6c3c c161 963d 8a85 2b3d
00000040: a395 35be 25a4 e23b 9af1 83bd 015f c4bc
00000050: 9534 edbd f956 833c 7116 943d 40e9 fcbd
00000060: 059b 963d 215b ab3d 9c85 fcbd 810f 9d3c
00000070: 5fda afbd e1f3 65bd 738b e43c 225e 9a3d
00000080: 2c28 8b3d 42bd 293c 4305 7cbc c842 a33d
00000090: e316 27be ede8 563d 588b 85bd 5407 bfbd
000000a0: a72c c4bd 8cdc 9fbd 0c5c 76bc 6f9a 443c
000000b0: d508 1fbe eef3 59bd 8d85 7bbd a397 18be
000000c0: cdbe 3dbd b0ac 07be f483 933d 5a1c 48bd
000000d0: e89c d3bd 5f72 873d bd9c f7bd 5161 883c
000000e0: b1fa f1bd 073c 8b3d a357 1cbe d6e6 ff3c
000000f0: 9ac7 183d b52f 883d 1cfd 493d 023f bf3b
00000100: 7892 bbbd cf2f 813d 382d 1a3d 19c6 f3bd
00000110: 23e4 05be ee99 cbbd 517b e53b b8d9 34be
00000120: 2df9 1d3d 13a2 b43d f6e2 39bd b010 e4bd
00000130: 798d fb3c 416e 7abd 4d7c 773d d134 f7bd
00000140: b706 ccbd 8ae9 92bd 542e 0abe 36b4 213c
00000150: 5422 823d 8f77 0bbe 6f82 0fbe 22c2 b33d
00000160: 9086 c13c 3923 bfbd d960 efbd eec2 d43c
00000170: 0e9b 6d3c 9974 aebb 8652 8dbd ff3a 143d
00000180: 036d f3bc 14d1 563d e36d 9fbd 2f05 ea3b
00000190: ce88 63ba 37cb bcbd 7814 40bd fd30 15be
000001a0: f5e6 6a3d 7a54 a5bd 71ad 613c 3fa3 863c
000001b0: 2203 92bd 3fe5 2bbe ff7a a33a 436c 10be
000001c0: 06cf 053d d7db c93c 0468 13be 1798 973d
000001d0: 7b0d babd 837c 393c 5627 ac3d deee 333d
000001e0: 80f7 9b3d 8ef6 b53c 1cec cebc 80e5 283c
000001f0: 5a93 993d 5563 953d 2856 6a3b 929d 11be
0.0640559 -0.16849428 0.06969749 0.020887451 0.015706122 -0.14636053 -0.068436936 -0.074192904
0.009685439 -0.085248135 0.06403162 0.071660355 -0.06564119 0.01444198 0.07342864 0.0418754
-0.17732863 0.00691654 -0.06442566 -0.023971083 -0.11582295 0.016032683 0.07230843 -0.123491764
0.073537864 0.08366991 -0.123301715 0.019172432 -0.08586573 -0.056140784 0.027898526 0.07537486
0.067947716 0.010360064 -0.015382114 0.07971722 -0.16317324 0.05246823 -0.06520718 -0.093275696
-0.09578829 -0.07805738 -0.015036594 0.01199971 -0.15530713 -0.053211145 -0.06140666 -0.14901595
-0.04632454 -0.13249469 0.072029024 -0.048855163 -0.10332662 0.066136114 -0.12090442 0.016647967
-0.11815394 0.06798559 -0.15267806 0.031238 0.03729973 0.066497244 0.04931365 0.0058363685
-0.09158796 0.06307947 0.03764078 -0.119030185 -0.13075309 -0.09941469 0.007003226 -0.17661178
0.03856771 0.08819976 -0.045382462 -0.111359954 0.030707108 -0.061140303 0.060421277 -0.12070621
-0.09962218 -0.0717345 -0.13494235 0.009869626 0.06354204 -0.13619827 -0.140146 0.08777262
0.023623735 -0.0933289 -0.11688394 0.025971856 0.0145023 -0.005323958 -0.06900506 0.036189076
-0.029715067 0.052445486 -0.07784631 0.007141731 -0.0008679748 -0.09218448 -0.04689452 -0.14569469
0.057349164 -0.08072753 0.013774262 0.016435264 -0.07129504 -0.16786669 0.0012472569 -0.14103799
0.032668136 0.02464096 -0.14395148 0.07402056 -0.090846024 0.01132119 0.0840594 0.043928973
0.07615566 0.022212293 -0.02525907 0.010308623 0.07498808 0.07294337 0.003575692 -0.14220265
