model_multinomial_1/dqn_retail_model_3_lr_0.0005_ed_0.99_g_0.9.pth (torch, 71654 bytes, 5 tensors)

0.weight f4 [128, 3]
0	0xbeb847a0	-0.35992146
1	0xbd4dea07	-0.050272014
2	0xbecf1e8f	-0.40453002
3	0xbebee6a7	-0.3728535
4	0xbeac0b84	-0.33602536
5	0x3d78d109	0.060746226
6	0x3e99b584	0.30021298
7	0xbec02aec	-0.37532747
8	0x3e4a80ca	0.19775692
9	0xbe822b42	-0.25423628
10	0xbe8b75dc	-0.27238357
11	0xbea74cda	-0.3267582
12	0xbe8a6385	-0.27029052
13	0xbd515bee	-0.05111306
14	0xbe905d51	-0.28196195
15	0xbe76a30e	-0.24085638
16	0xbe45fbf4	-0.19334394
17	0x3f098fb8	0.5373492
18	0x3d92a872	0.07161035
19	0xbeb15296	-0.3463332
20	0x3f057b62	0.5214139
21	0x3edae015	0.42749086
22	0xbedee10e	-0.43531078
23	0xbede84df	-0.43460748
24	0x3f056290	0.5210352
25	0xbeb6091b	-0.35553822
26	0x3e07f288	0.13276112
27	0xbec3fe64	-0.38280022
28	0xbd7061f6	-0.058687173
29	0xbefcc590	-0.49369478
30	0xbe3d264b	-0.18471639
31	0x3ebe7dba	0.37205297
32	0xbe8cc81e	-0.27496427
33	0xbec1aa4d	-0.37825242
34	0x3e841209	0.2579501
35	0x3cb2f552	0.021845493
36	0xbe055579	-0.13020886
37	0x3e8a66fc	0.27031696
38	0x3e1cdc90	0.15318513
39	0x3f1b7668	0.6072755
40	0x3ef0caf1	0.47029832
41	0x3c6e0b67	0.014529086
42	0xbe904284	-0.28175747
43	0x3ecd5f4d	0.4011177
44	0xbeccc8dd	-0.39996997
45	0x3f0b6c42	0.54462063
46	0x3f0394dc	0.51399016
47	0xbed776d0	-0.42082834
48	0x3e7d0123	0.24707465
49	0x3d63b491	0.055592123
50	0xbeef95a2	-0.46793848
51	0xbf0dede6	-0.5544113
52	0x3ec8d0d9	0.39221838
53	0xbe18e64f	-0.14931606
54	0xbda19f47	-0.07891708
55	0xbe3eee03	-0.18645482
56	0x3edc097a	0.4297598
57	0xbe97848c	-0.29593313
58	0xbeea9bd7	-0.4582202
59	0x3e9857f3	0.297546
60	0x3e7c99b7	0.24668013
61	0x3ece8477	0.40335438
62	0xbdc4c0e8	-0.096071064
63	0x3f0210b8	0.5080676
64	0xbf033b4f	-0.5126237
65	0xbd058395	-0.03259619
66	0xbe7fbe65	-0.24974973
67	0x3f06a6e5	0.5259841
68	0x3ede724f	0.43446586
69	0x3e886e09	0.2664645
70	0x3e125a50	0.14292264
71	0x3f06434b	0.5244643
72	0x3efe6ede	0.4969396
73	0x3e977f44	0.29589283
74	0x3e9fb168	0.31190038
75	0xbe993c20	-0.29928684
76	0x3dc9bffc	0.09851071
77	0xbf0c3d8c	-0.54781413
78	0xbb5b1d0b	-0.003343406
79	0xbda20fbd	-0.07913158
80	0xbf0808db	-0.5313851
81	0xbee15817	-0.4401252
82	0xbe49cd64	-0.19707257
83	0xbe8b4965	-0.27204433
84	0xbef09af6	-0.46993226
85	0x3ee938c2	0.45551115
86	0x3e055a4a	0.13022724
87	0x3e5c2b5f	0.2150092
88	0x3da84a87	0.0821734
89	0x3f1add85	0.6049426
90	0x3e11c2f7	0.1423453
91	0xbcfb2a46	-0.030659806
92	0x3e652405	0.22377022
93	0xbe06d9fe	-0.13169095
94	0xbef1fe9d	-0.47264567
95	0xbde240a5	-0.11047486
96	0x3f14e6f6	0.5816492
97	0x3dc9514f	0.098299615
98	0xbe890bd0	-0.26766825
99	0xbecc3f08	-0.3989184
100	0x3eda4027	0.4262707
101	0x3be42a87	0.0069630775
102	0xbefe6481	-0.49686053
103	0xbe825725	-0.2545711
104	0xbe0968ac	-0.13418835
105	0xbeb0783c	-0.34466732
106	0xbf006519	-0.5015426
107	0x3e30bdef	0.17259954
108	0xbe8336e6	-0.25627822
109	0xbf078fc2	-0.5295373
110	0x3e86e289	0.26344708
111	0x3d8161dd	0.06317494
112	0x3f011db5	0.50435954
113	0xbe28adfa	-0.16472617
114	0xbf105594	-0.5638058
115	0xbf039711	-0.51402384
116	0x3ebe7927	0.37201807
117	0x3f198145	0.59962875
118	0xbdb44a2a	-0.08803208
119	0x3da2967a	0.079388574
120	0xbee65224	-0.44984543
121	0xbe953dc9	-0.291487
122	0xbee7d8f1	-0.452827
123	0x3e8275c8	0.25480485
124	0xbe3c4258	-0.18384683
125	0xbe0bc296	-0.13648447
126	0x3ebb3a33	0.3656784
127	0xbc96564f	-0.018351702
128	0x3d2821d4	0.041047886
129	0xbf1124c9	-0.56696755
130	0x3de03868	0.10948259
131	0x3ed13cdf	0.40866753
132	0x3ea43102	0.3206864
133	0x3eb0e66b	0.34550795
134	0xbea9042d	-0.33010998
135	0x3e697218	0.2279743
136	0x3f091545	0.5354808
137	0xbd0d0179	-0.034425233
138	0x3e2166cb	0.15761869
139	0x3e94c668	0.29057622
140	0xbddb4980	-0.107073784
141	0xbe8da369	-0.27663735
142	0x3eaf3905	0.3422319
143	0xbec0c497	-0.37649986
144	0xbeb8f9c3	-0.36128053
145	0xbdac9810	-0.08427441
146	0x3f0d6c40	0.552433
147	0x3f005ada	0.5013863
148	0xbed4e917	-0.41584083
149	0x3ef6b2ec	0.48183382
150	0x3e952b81	0.29134753
151	0xbee17ac6	-0.4403898
152	0x3eac7278	0.33681083
153	0x3e422b28	0.18961775
154	0x3dda390d	0.10655413
155	0x3ef3d462	0.47622973
156	0x3c451815	0.012029667
157	0xbebf5bc1	-0.3737469
158	0xbed92fce	-0.42419285
159	0x3eeb22af	0.459249
160	0x3ed78442	0.42093092
161	0x3ed03ce0	0.40671444
162	0xbef99a76	-0.48750657
163	0x3d3029f5	0.043008763
164	0x3ec9eb95	0.39437547
165	0x3ee46fc5	0.44616523
166	0xbef7a6be	-0.48369402
167	0xbe1e0c3b	-0.15434353
168	0xbeb08cf7	-0.34482548
169	0x3e6afdc9	0.22948374
170	0xbe2fa93c	-0.17154402
171	0xbdbc91a0	-0.09207463
172	0xbeb423ff	-0.35183713
173	0xbe01f675	-0.12691672
174	0xbe853ea8	-0.26024365
175	0x3ef1a237	0.47194073
176	0x3e96fe92	0.29491097
177	0xbda7622d	-0.081730224
178	0x3ec1dee5	0.37865368
179	0x3ef0dc4f	0.47043082
180	0x3d75795f	0.0599302
181	0x3e90bea2	0.2827044
182	0x3e654642	0.22390082
183	0x3eac2c55	0.33627573
184	0xbebfcf70	-0.3746295
185	0x3ed8307b	0.42224488
186	0xbead81d6	-0.3388812
187	0xbef5783a	-0.47943288
188	0xbe86cc8a	-0.26327926
189	0x3ed7829e	0.4209184
190	0xbec0c0cb	-0.3764709
191	0x3ead228f	0.3381543
192	0x3ed9cea0	0.42540455
193	0x3d1fc9ee	0.039010935
194	0xbefe9353	-0.49721774
195	0x3e4d35ff	0.20040129
196	0xbd5653ad	-0.052325893
197	0xbecb415b	-0.396983
198	0x3d721b84	0.059108272
199	0xbcfa637b	-0.030565014
200	0x3ef9599d	0.48701182
201	0xbea6fb3e	-0.32613558
202	0x3d968657	0.07349842
203	0x3f0e5cb2	0.5561019
204	0x3f14aac6	0.5807308
205	0x3ebdced6	0.37071866
206	0x3d8464e1	0.064645536
207	0x3ee4ef56	0.4471385
208	0x3e2499fc	0.16074365
209	0x3dee9735	0.11649934
210	0xbed473de	-0.4149465
211	0x3ecf4906	0.404854
212	0x3f03008d	0.51172715
213	0xbeb1b95a	-0.34711725
214	0x3eed6eea	0.46373683
215	0x3efb979f	0.49139115
216	0x3f02281d	0.5084246
217	0x3eec357b	0.46134552
218	0x3efdda66	0.49580687
219	0xbe8ae475	-0.27127424
220	0xbce42579	-0.0278499
221	0xbe5879e7	-0.21140252
222	0x3e1a539e	0.1507096
223	0xbea4081b	-0.32037434
224	0x3ebc6226	0.3679363
225	0xbe64c1b2	-0.22339514
226	0xbeef4f82	-0.46740347
227	0x3ed78189	0.42091015
228	0xbecabf66	-0.3959915
229	0xbe6226c5	-0.22085102
230	0x3e4a91c1	0.19782163
231	0x3f189f7e	0.59618366
232	0x3ba7e59f	0.0051238085
233	0x3f1c7db1	0.6112929
234	0x3cc44986	0.02396084
235	0x3d898338	0.06714481
236	0xbe1dc550	-0.154073
237	0xbea87ebd	-0.32909194
238	0xbeb30c00	-0.34970093
239	0xbe6d04f3	-0.23146419
240	0xbe022a4b	-0.12711446
241	0x3ebefbb3	0.37301406
242	0x3d64ddb9	0.055875514
243	0x3d7c5089	0.06160024
244	0xbdd4ff5c	-0.104002684
245	0xbe865c70	-0.262424
246	0x3ef4ee10	0.47837877
247	0xbef687b4	-0.48150408
248	0xbe19051a	-0.14943352
249	0xbedc1692	-0.4298597
250	0x3eb69334	0.35659182
251	0x3e4bb631	0.1989372
252	0x3eb9a7fd	0.36260977
253	0x3ebdcc9f	0.37070176
254	0xbf079760	-0.52965355
255	0xbea5f253	-0.3241144

0.bias f4 [128]
0	0x3ec4b394	0.38418257
1	0x3c9d2813	0.019184148
2	0xbe0831f1	-0.13300301
3	0xbe1c186f	-0.15243696
4	0x3e7e6754	0.24844104
5	0x3e905752	0.2819162
6	0xbeddca7d	-0.4331855
7	0x3de06f8e	0.10958777
8	0x3efbf8d2	0.49213272
9	0xbde0fafb	-0.10985371
10	0x3f09beec	0.5380695
11	0x3e247f5e	0.16064212
12	0xbd9b0f86	-0.0757132
13	0x3ef7bb1e	0.48384947
14	0x3f02eb89	0.5114065
15	0xbdec8855	-0.11549441
16	0x3e8c7bde	0.27438253
17	0x3c095af1	0.0083834985
18	0x3edd3dda	0.43211251
19	0xbe4dd156	-0.20099387
20	0xbe4cfb12	-0.2001765
21	0xbea58882	-0.3233071
22	0x3f03490f	0.51283354
23	0xbf09509a	-0.53638613
24	0x3f0b5e82	0.5444108
25	0x3e9c210c	0.30493963
26	0x3e95b043	0.2923604
27	0xbe52e3ca	-0.20594707
28	0x3e91afb1	0.28454354
29	0x3eee45a1	0.46537498
30	0xbecfd61c	-0.4059304
31	0x3f0ee87d	0.558235
32	0x3c4b5107	0.012409455
33	0x3eafd08f	0.34338805
34	0xbee93c77	-0.45553944
35	0x3f0f0943	0.5587351
36	0xbe1848d3	-0.1487153
37	0xbd934d41	-0.071924694
38	0xbf0ab20a	-0.54177916
39	0x3efdb926	0.4955532
40	0xbcad6447	-0.02116598
41	0xbf027260	-0.5095577
42	0x3f12f705	0.5740817
43	0x3c9e1406	0.019296657
44	0x3f0893cc	0.5335052
45	0x3e8cb9ae	0.27485412
46	0x3f068ab7	0.5255541
47	0xbf124e25	-0.5715049
48	0x3e4f11a2	0.2022157
49	0x3f1824ea	0.59431326
50	0x3e66c0d4	0.22534496
51	0xbe9bbf7d	-0.3041953
52	0x3e5c769b	0.2152962
53	0x3f042528	0.51619196
54	0xbee41eee	-0.44554847
55	0x3e9c40b0	0.30518103
56	0xbeaaf870	-0.33392668
57	0x3d9c8f8c	0.07644567
58	0xbeb376b3	-0.35051498
59	0x3ebb30e9	0.36560753
60	0xbe8fc801	-0.28082278
61	0x3efa47aa	0.488828
62	0x3ea3cdb7	0.31992885
63	0xbeec2ca1	-0.461278
64	0x3e7b3e88	0.24535573
65	0x3ec9e4c3	0.39432344
66	0xbec792dd	-0.38979235
67	0x3f15a24c	0.5845077
68	0xbf04cbbe	-0.51873386
69	0xbd957d8c	-0.07299337
70	0x3f181cf5	0.59419185
71	0xba815401	-0.0009866954
72	0xbd57c39b	-0.05267678
73	0x3eef8395	0.46780077
74	0x3e0e720e	0.13910696
75	0x3eb1dc09	0.34738186
76	0xbe89ca15	-0.2691199
77	0xbe330716	-0.17483172
78	0x3d0591f4	0.032609895
79	0x3e8e3a40	0.27778816
80	0xbef09c4f	-0.46994254
81	0xbeb52f48	-0.35387635
82	0x3ed139cc	0.40864408
83	0x3f07d88a	0.5306479
84	0xbc0dd4ae	-0.008656664
85	0xbdd37d6b	-0.10326656
86	0x3ebaacf0	0.36460066
87	0x3f0b1a02	0.5433656
88	0xbd9004fd	-0.070322014
89	0xbe8beddf	-0.2732992
90	0xbecdef05	-0.4022142
91	0x3d09d308	0.03364852
92	0x3edfb40f	0.4369206
93	0x3dfa24a2	0.122140184
94	0xbed82ed7	-0.42223236
95	0xbe808174	-0.25098765
96	0xbf0a0b38	-0.5392337
97	0xbd34406e	-0.044006757
98	0x3eb44157	0.352061
99	0x3eb617de	0.35565084
100	0xbf0883c6	-0.5332607
101	0x3f08bd07	0.5341343
102	0x3c4e5dea	0.012595633
103	0xbc3d7b9c	-0.011565115
104	0x3e5cb3ea	0.21553007
105	0x3e8114d5	0.25211206
106	0x3eeb6ef7	0.45983097
107	0xba0dfdf9	-0.0005416568
108	0xbf031b67	-0.5121369
109	0xbf06173f	-0.5237922
110	0xbe81cfaa	-0.25353748
111	0xbe38ad8a	-0.1803495
112	0xbe9f6a79	-0.3113592
113	0x3e2e9e0c	0.17052478
114	0xbeb2ead9	-0.349448
115	0x3e80ed09	0.25180843
116	0xbe8b4859	-0.27203634
117	0x3df0fa71	0.11766518
118	0x3f0a0360	0.539114
119	0x3f065ec4	0.5248835
120	0x3e853621	0.2601786
121	0x3e2262c6	0.15857992
122	0xbe477023	-0.1947637
123	0x3cad9072	0.021187041
124	0xbe044d88	-0.12920201
125	0xbc852f90	-0.016258031
126	0x3deedd95	0.11663357
127	0x3f12609b	0.5717866

2.weight f4 [128, 128]
0	0xbdaf9042	-0.08572437
1	0x3bb53946	0.005530509
2	0x3de80f87	0.113310866
3	0x3d128642	0.03577257
4	0xbda500bf	-0.08056783
5	0xbd1e83e2	-0.038699992
6	0xbc21b500	-0.009869814
7	0xbda53a1e	-0.080677256
8	0xbd1dabc8	-0.0384939
9	0xbd289e43	-0.041166555
10	0x3d3680c9	0.044556413
11	0xb7d2b7c3	-2.5119522e-05
12	0x3daa7a2c	0.08324084
13	0x3cc2fa6c	0.023801051
14	0xbd887daa	-0.066645935
15	0x3da7387e	0.08165072
16	0x3d4780db	0.04870687
17	0x3d82013b	0.06347891
18	0x3d843ddd	0.06457112
19	0x3d2bc1eb	0.04193298
20	0x3da65523	0.08121707
21	0x3d9b181a	0.075729564
22	0x3cb7b3b0	0.022424549
23	0x3d700405	0.058597583
24	0xbcfbed20	-0.030752718
25	0x3d4063ec	0.046970293
26	0x3d8c1781	0.068404205
27	0xbd5ef663	-0.05443419
28	0x3da6892e	0.08131634
29	0x3d8839da	0.06651659
30	0x3dcd6f22	0.100309625
31	0x3d43b2fb	0.04777811
32	0xbaeeb862	-0.0018212909
33	0xbcf9476a	-0.03042956
34	0x3d391c19	0.04519281
35	0xbd832ac1	-0.06404639
36	0xbb849f28	-0.004047293
37	0xbd01c329	-0.03168026
38	0x3dbbd418	0.09171313
39	0xbc9ee999	-0.019398497
40	0xbc07d997	-0.008291624
41	0xbcc17a70	-0.023617953
42	0x3d1bd30b	0.038043063
43	0x3d2c6ad9	0.042094085
44	0xbce3fb24	-0.027829714
45	0x3d059a29	0.03261772
46	0x3d227fbe	0.039672606
47	0x3d595e93	0.05306871
48	0xbcefca04	-0.029271133
49	0xbc9b11b7	-0.018929346
50	0x3dc05f3a	0.09393163
51	0xbd1dbf3b	-0.03851245
52	0x3da982e5	0.08276919
53	0x3db3a5c2	0.0877185
54	0xbd87a079	-0.066224046
55	0x3d41e447	0.047336843
56	0x3da0835b	0.07837554
57	0xbd38ebe2	-0.04514683
58	0x3d0324d4	0.032017544
59	0x3cd87697	0.026423736
60	0x3d69ebf1	0.057109777
61	0x3c841aa4	0.016125984
62	0xbd4e4fe5	-0.050369162
63	0xbcb591f0	-0.022164315
64	0xbd6b200f	-0.05740362
65	0xbdac6205	-0.08417133
66	0x3add1278	0.0016866466
67	0x3d75c57a	0.06000278
68	0x3d743b04	0.059626594
69	0x3dbfc561	0.09363819
70	0xbcbca12e	-0.023026075
71	0xbd1f5087	-0.038895156
72	0x3caf13c8	0.021371737
73	0x3cbf7378	0.02337049
74	0x3d9b3a29	0.075794525
75	0x3c8e3e49	0.017363684
76	0xbd77a68c	-0.060461566
77	0xbd4a448e	-0.049381785
78	0x3da57cab	0.08080419
79	0xbd52885d	-0.051399577
80	0x3d00e414	0.031467512
81	0x3c9f33ef	0.019433944
82	0x3ddc5a90	0.10759461
83	0x3d971b4b	0.073782526
84	0x3bc4c5f5	0.0060050436
85	0x3cf1553f	0.029459594
86	0xbcf19363	-0.029489225
87	0x3d011304	0.031512275
88	0xbd0f7d76	-0.03503176
89	0xbba398f6	-0.0049925996
90	0xbcfc6989	-0.030812042
91	0xbd33cae5	-0.043894667
92	0xbcbfc2bc	-0.023408286
93	0x3d754c74	0.059887365
94	0xbd96fa8e	-0.07372008
95	0x3b9a778e	0.004713959
96	0xbb77615e	-0.0037747244
97	0xbc73d319	-0.014881873
98	0x3cee657b	0.029101124
99	0x3cb914c0	0.022592902
100	0x3cd68198	0.026184842
101	0x3d992dc7	0.074794345
102	0xbc24ce32	-0.010058926
103	0x3dc2a15e	0.095034346
104	0x3d3a064e	0.04541617
105	0x3d84bda0	0.064814806
106	0xbc34a1dd	-0.011024919
107	0x3cb349f2	0.021885846
108	0xbd5ac4f2	-0.053410478
109	0x3cb6be98	0.022307679
110	0xbcea1ca6	-0.028578114
111	0xbd478196	-0.048707567
112	0x3d9297f5	0.0715789
113	0x3a58dd13	0.0008272689
114	0xbaea1890	-0.0017860103
115	0xbcae9ca3	-0.021314925
116	0x3cf5f67c	0.03002476
117	0xbc4e7926	-0.012602126
118	0xbc8e385e	-0.017360862
119	0xbc1f5bd7	-0.009726486
120	0x3dd4cbf2	0.10390462
121	0x3d9458c0	0.0724349
122	0xbd89c24f	-0.067265145
123	0x3d802e80	0.06258869
124	0x3dd3e3fb	0.10346218
125	0xbd5cb0e4	-0.053879634
126	0xbc838e6f	-0.016059129
127	0xbd01dd71	-0.031705324
128	0xbd297a75	-0.04137655
129	0xbd48eefb	-0.049056035
130	0xbda0800d	-0.07836924
131	0xbb8d812b	-0.0043183765
132	0xbd4ca0bc	-0.049957976
133	0x3d6c3820	0.057670712
134	0xbc7e9ebd	-0.015540776
135	0xbd3f86b5	-0.046759326
136	0x3cd9cf53	0.026588118
137	0xbd6c3c12	-0.057674475
138	0x3da51333	0.080603026
139	0xbc3e602f	-0.011619612
140	0xbd9bb492	-0.076028004
141	0x3d4eb02e	0.050460987
142	0x3b316f4d	0.0027074397
143	0x3da3137f	0.07962703
144	0x377b8da1	1.4993741e-05
145	0x3d818a80	0.06325245
146	0xbcbe66bf	-0.023242353
147	0xbd550af5	-0.052012403
148	0x3d85ed0f	0.06539356
149	0xbd53de02	-0.051725395
150	0xbcb906df	-0.022586284
151	0x3ab0a53f	0.0013476982
152	0xbda6752d	-0.08127818
153	0x3d664d6a	0.05622617
154	0xbd1ccab2	-0.038279243
155	0x3d94b5cd	0.07261238
156	0xbd8391b2	-0.064242736
157	0xbd8df963	-0.06932332
158	0x3d065b5d	0.032801975
159	0xbd2eac24	-0.042644635
160	0x3da5efc8	0.08102375
161	0x3d914496	0.0709316
162	0xbd6b19f2	-0.05739779
163	0xbd636327	-0.05551448
164	0xbd7c33f9	-0.061573002
165	0xbd04fd64	-0.032468215
166	0xbb201aea	-0.0024430105
167	0xbd2f9648	-0.04286793
168	0xbd90b0a8	-0.070649445
169	0x3d45cf19	0.048293207
170	0xbd3b24b7	-0.04568931
171	0xbd9cc755	-0.07655207
172	0x3cf28898	0.029606149
173	0xbd58461b	-0.052801233
174	0xbd88f39c	-0.0668709
175	0x3d686134	0.056733325
176	0xbdb4d8f3	-0.08830442
177	0xbd9fb8c2	-0.07798912
178	0x3d763fa7	0.060119297
179	0xbcdcb552	-0.026941929
180	0x3beb8649	0.007187639
181	0xbd4d4093	-0.05011041
182	0xbcf3f510	-0.02977994
183	0x3cc9c971	0.024632188
184	0xbc2f0e65	-0.010684584
185	0xbc809410	-0.015695602
186	0x3d11ab3b	0.03556369
187	0x3dab93ab	0.08377775
188	0x3d9e00a5	0.07714967
189	0x3c211a7d	0.009832975
190	0x3cf45bb4	0.029828884
191	0xbc4e2ccb	-0.012583922
192	0xbd61b4a2	-0.055103905
193	0xbd18eb3b	-0.03733371
194	0x3d9196d3	0.071088456
195	0x3d9a3ff0	0.07531726
196	0xbdaa3e3c	-0.083126515
197	0xbd4e4489	-0.05035833
198	0x3d3a4f83	0.045485985
199	0xbd365b06	-0.0445204
200	0xbc6f0e25	-0.014590775
201	0xbd7b3a33	-0.0613348
202	0x3d332a31	0.04374141
203	0x3c904a93	0.017613685
204	0xbd62bdfa	-0.055356957
205	0x3d7b6049	0.06137112
206	0x3d9f02dc	0.07764217
207	0x3d6d09d9	0.05787072
208	0x3d1b7b16	0.03795918
209	0xbd2106c7	-0.039313104
210	0xbd1ca3f5	-0.0382423
211	0x3d8f2e69	0.06991274
212	0xbd42184b	-0.04738645
213	0x3d8122d4	0.06305471
214	0xbb85f55a	-0.004088086
215	0xbc4df39b	-0.012570287
216	0x3d616751	0.05503017
217	0x3db0c6d2	0.08631672
218	0xbc751dc2	-0.014960708
219	0x3d897d05	0.06713299
220	0x3c11f599	0.008908653
221	0x3d51ce10	0.051221907
222	0xbd989601	-0.07450486
223	0xbdb1f92c	-0.08690104
224	0xbda04e6d	-0.078274585
225	0x3cd3eb82	0.025869135
226	0x3cb10bfa	0.021612156
227	0x3c2eddde	0.010673014
228	0xbced47e6	-0.028964948
229	0x3c968e9f	0.018378554
230	0x3d80d6b2	0.0629095
231	0xbc8c487f	-0.017124413
232	0x3dac15b4	0.08402577
233	0x3bbe691d	0.0058108703
234	0xbd920a62	-0.071308866
235	0xbd037fe2	-0.03210438
236	0xbd8bb2e7	-0.06821232
237	0x3da20ba8	0.079123795
238	0xbcab4c49	-0.020910399
239	0xbd691c7f	-0.05691194
240	0x3da3a0b3	0.07989635
241	0xbc409b2c	-0.011755746
242	0x3cd232ea	0.025659043
243	0xbcdfed03	-0.027334696
244	0x3be0544c	0.0068459865
245	0xbd0062dd	-0.031344283
246	0x3ce0a7ab	0.0274237
247	0x3d9297a9	0.07157833
248	0x3d49aea3	0.049238812
249	0x3d5e7a97	0.05431613
250	0x3d892f8d	0.06698523
251	0xbd9b71a5	-0.07590035
252	0xbd7dfeaa	-0.062010445
253	0xbbc1579e	-0.0059003374
254	0x3d13bf49	0.036071096
255	0xbba8fdad	-0.0051571936

2.bias f4 [128]
0	0x3d49bfb1	0.049255077
1	0x3d806d59	0.062708564
2	0x3d8e6d2c	0.06954417
3	0xbdb0cec7	-0.0863319
4	0xbd3b5804	-0.045738235
5	0x3cf87636	0.030329805
6	0xbca79eb0	-0.02046141
7	0x3bf921c3	0.0076029017
8	0xbcfe913c	-0.031075113
9	0x3c87edb6	0.016592842
10	0xbd297015	-0.041366655
11	0xbd921423	-0.07132747
12	0xbc46bb8e	-0.012129677
13	0x3d0341ec	0.03204529
14	0xbd880a46	-0.066425845
15	0x3d314900	0.04328251
16	0x3d5f2320	0.054476857
17	0x3c8e85ce	0.017397787
18	0xbd8a2651	-0.067455895
19	0xbd7dc068	-0.06195107
20	0x3b365e5f	0.0027827246
21	0xbc8d4f4d	-0.017249728
22	0xbda4f576	-0.080546305
23	0xbd423c38	-0.04742071
24	0xbd8b374b	-0.06797656
25	0x3d7b26eb	0.061316412
26	0x3de56972	0.11201753
27	0xbd2a6de1	-0.041608695
28	0x3d947c03	0.07250216
29	0x3d0d540e	0.03450399
30	0x3d036c5f	0.032085773
31	0xbd65e08d	-0.05612235
32	0x3da110ad	0.07864509
33	0x3d0c8860	0.034309745
34	0x3da3ddec	0.080013126
35	0x3c6b8c41	0.014376701
36	0x3df5edac	0.12008223
37	0x3d6e59e9	0.058191214
38	0xbd4cba1a	-0.049982168
39	0xbd34e4a0	-0.044163346
40	0xbd94694a	-0.07246645
41	0x3d7cf011	0.061752383
42	0xbcac38dc	-0.021023206
43	0x3d8b44e6	0.06800251
44	0xbd78a878	-0.06070754
45	0xbd64eba6	-0.055888794
46	0xbd1db18b	-0.038499396
47	0xbc34bb8c	-0.011031043
48	0xbcbafda1	-0.022826018
49	0xbd2007e2	-0.039070018
50	0xbd9fddf1	-0.07806004
51	0x3ce50671	0.027957173
52	0xbbf88769	-0.0075845015
53	0x3d08efc2	0.033431776
54	0x3b86326a	0.0040953653
55	0xbd073bfb	-0.033016186
56	0x3c27a6d1	0.010232643
57	0xbd27a34b	-0.040927213
58	0xbce5cf9d	-0.0280531
59	0xbd7a4026	-0.061096333
60	0x3dee02cc	0.11621627
61	0x3d5aa0b2	0.053375907
62	0xbda82dbd	-0.08211849
63	0xbd997593	-0.07493129
64	0x3c189b93	0.0093144355
65	0x3da04f96	0.0782768
66	0xbcebdf29	-0.028792934
67	0x3dadc5ec	0.08485016
68	0x3d99128e	0.07474242
69	0xbbc4f87a	-0.006011066
70	0x3d62a08e	0.055328898
71	0x3d09af15	0.033614237
72	0x3dcee4f6	0.101022646
73	0xbd27fd6d	-0.04101317
74	0x3d3be8e6	0.045876406
75	0xbcfe05ad	-0.031008566
76	0x3daf6dde	0.085658774
77	0xbd736b8a	-0.05942873
78	0x3d9ea36c	0.07746014
79	0xbd84fae7	-0.06493168
80	0x3ce44534	0.02786503
81	0x3d6096da	0.054831363
82	0x3c9ee484	0.019396074
83	0xbd72a60f	-0.059240397
84	0x3c3580fb	0.011078115
85	0x3dce259d	0.10065768
86	0xbd82c159	-0.063845344
87	0xbc9f179b	-0.019420436
88	0x3d6813b0	0.0566594
89	0x3d05fa75	0.032709558
90	0xbd83d8f1	-0.06437863
91	0x3de0d7cc	0.1097866
92	0xbcda64b3	-0.026659345
93	0xbd85b3cd	-0.06528435
94	0x3c490018	0.012268089
95	0xbd376d53	-0.044781994
96	0x3d9c959a	0.07645722
97	0xbc0108ad	-0.007875604
98	0xbd2e1dbc	-0.042508826
99	0x3d9061f5	0.07049934
100	0x3d3faab1	0.046793643
101	0x3b98f527	0.0046678963
102	0x3da31cee	0.07964502
103	0x3ada3c6f	0.0016650091
104	0x3de018b8	0.10942215
105	0x3c11a13d	0.00888854
106	0xbc9588f8	-0.018253788
107	0xbcfe7351	-0.031060847
108	0x3d3cc16c	0.0460829
109	0x3da1b25e	0.07895349
110	0x3d7572c6	0.05992391
111	0x3d3394e6	0.043843172
112	0xbb8a2650	-0.004215993
113	0x3d3ef0bf	0.046616312
114	0x3d2042cf	0.039126214
115	0x3dfd018d	0.123538114
116	0x3d9e4345	0.077276744
117	0x3d103d86	0.035214923
118	0x3d3f2dad	0.04667442
119	0x3c30cabb	0.010790522
120	0xbd1678e9	-0.036736403
121	0xbc8e3017	-0.017356915
122	0x3da0e3fa	0.07855983
123	0xbd83d5a4	-0.06437233
124	0xbcd6f6d1	-0.026240738
125	0xbc0560a6	-0.008140719
126	0xba93c763	-0.0011274632
127	0x3da650c4	0.081208736

4.weight f4 [1, 128]
0	0xbda297eb	-0.07939132
1	0x3d66a562	0.056310065
2	0xbd15dcd7	-0.036587562
3	0x3d603118	0.05473432
4	0x3d80ade9	0.06283171
5	0xbe27b2e5	-0.16376837
6	0x3d5bca25	0.053659577
7	0xbd575c33	-0.052578162
8	0x3da91460	0.08255839
9	0x3d2da0b8	0.0423896
10	0x3d23670b	0.03989319
11	0x3c489f43	0.012245002
12	0xbdb7bd11	-0.089716084
13	0xbe0ba923	-0.1363874
14	0x3cc44678	0.023959383
15	0xbdde5cc9	-0.10857541
16	0xbe1a1431	-0.15046765
17	0x3d24f835	0.04027577
18	0x3c05f674	0.008176435
19	0x3d85e2cc	0.06537399
20	0xbd286614	-0.041112974
21	0x3c04ba61	0.008101077
22	0x3d9ef7c2	0.077621
23	0xbddac55e	-0.10682176
24	0xbd178559	-0.036992405
25	0xbddc98ac	-0.10771307
26	0xbd9a9166	-0.07547264
27	0xbe1b09cf	-0.1514046
28	0x3cbf68df	0.023365436
29	0x3d8820e7	0.066469006
30	0x3d2cd03c	0.042190775
31	0xbd87baea	-0.06627448
32	0xbdb9c072	-0.09069909
33	0x3d54dcaa	0.051968254
34	0xbdad2561	-0.08454395
35	0xbbe7f4b5	-0.007078732
36	0xbdea95d2	-0.11454357
37	0x3d7b7ecd	0.061400224
38	0x3da8bdee	0.08239351
39	0xbd3759b3	-0.04476328
40	0xbd8ab655	-0.06773058
41	0xbe1f8551	-0.155782
42	0x3d54a5dc	0.05191599
43	0xbe04148c	-0.12898463
44	0xbd3ba84b	-0.045814794
45	0xbd7c3651	-0.061575238
46	0xbdf4533a	-0.11929937
47	0x3d91e361	0.07123447
48	0xbd8641b7	-0.06555503
49	0xbdb2bce1	-0.08727432
50	0xbd6b90c0	-0.05751109
51	0xbe069bd8	-0.13145387
52	0xbe0eee64	-0.13958126
53	0x3da23106	0.07919507
54	0x3cb30f76	0.021857958
55	0x3d3d4e39	0.046217177
56	0xbcb8f044	-0.022575505
57	0x3d8e08f7	0.06935304
58	0x3d42fe01	0.04760552
59	0x3d92d2ad	0.071690895
60	0xbde73eeb	-0.112912975
61	0x3d90f7de	0.07078527
62	0x3d531322	0.05153192
63	0x3d536de6	0.05161848
64	0xbdec5920	-0.11540437
65	0xbdda024e	-0.10644971
66	0x3b099bac	0.0020997329
67	0xbdd2444b	-0.10266932
68	0x3d039954	0.032128647
69	0x3cb027ea	0.021503408
70	0xbd5b0b49	-0.05347756
71	0x3d22b078	0.039719075
72	0xbda42a03	-0.080158256
73	0xbe004f66	-0.12530288
74	0xbd900b72	-0.07033433
75	0xbda52214	-0.080631405
76	0xbd8b7a88	-0.0681048
77	0x3db0ef97	0.08639448
78	0xbd850e65	-0.06496886
79	0xbdc48e76	-0.09597485
80	0xbc9fc478	-0.019502863
81	0x3d048b75	0.03235956
82	0xbd05e4db	-0.032688957
83	0x3d642e94	0.055708483
84	0xbd30c11f	-0.043152925
85	0xbdcf5c12	-0.10124983
86	0x3d632fbf	0.055465456
87	0xbdb0f00b	-0.086395346
88	0x3d2b9726	0.041892193
89	0xbc2463fd	-0.010033605
90	0xbba48b53	-0.0050214916
91	0xbdd8ea6e	-0.10591589
92	0x3b649b84	0.0034882734
93	0x3bbbc820	0.005730644
94	0x3d6ea42b	0.05826203
95	0x3d47675d	0.04868256
96	0x3b0c2b5d	0.0021388151
97	0x3a44cfbb	0.0007507761
98	0x3b7f2347	0.003893094
99	0x3d64f1c3	0.055894624
100	0xbcecb1e7	-0.028893424
101	0xbe105238	-0.14093864
102	0x3d0b4d98	0.034009546
103	0x3d6b3996	0.057427965
104	0xbe1ff4f6	-0.15620789
105	0xbe0a3374	-0.1349619
106	0xbd00d143	-0.031449568
107	0xbd615a33	-0.05501766
108	0x3d950cc9	0.07277829
109	0xbdf1cf9d	-0.11807177
110	0x3bf7b818	0.0075597875
111	0xbd985808	-0.07438666
112	0xbdaa0d68	-0.08303338
113	0x3cc064ed	0.023485625
114	0x3b5bf068	0.0033560041
115	0xbe1a8e37	-0.15093313
116	0xbdad7bea	-0.084709
117	0xbe20b756	-0.15694937
118	0xbde9fdfe	-0.11425398
119	0x3daf5a61	0.0856216
120	0x3d4ccef3	0.05000205
121	0x3d891b9c	0.06694719
122	0x3cc86594	0.024462499
123	0x3da92a89	0.08260066
124	0xbe0a6c04	-0.13517767
125	0x3d484991	0.048898283
126	0xbde923ee	-0.11383806
127	0x3d32fba5	0.04369702
