model_baseline/dqn_retail_model_2_lr_0.005_ed_0.998_g_0.95.pth (torch, 71664 bytes, 5 tensors)

0.weight f4 [128, 3]
0	0x3b846e35	0.004041458
1	0x3ea706fa	0.3262251
2	0x3e04a323	0.12952857
3	0x3d67ec96	0.05662211
4	0xbdc11c02	-0.0942917
5	0xbedec6c1	-0.43511012
6	0xbef44619	-0.4770973
7	0x3f04e2d2	0.519086
8	0xbedcb2d9	-0.431052
9	0xbdcd476e	-0.1002339
10	0xbd0c09b3	-0.034188937
11	0xbeca1b17	-0.39473793
12	0xbe0fe2e4	-0.14051396
13	0xbe01a40b	-0.12660234
14	0xbd7996a2	-0.06093467
15	0xbe888ca5	-0.26669803
16	0xbf106496	-0.5640348
17	0x3eee8675	0.46586958
18	0xbe1a497d	-0.15067096
19	0xbec7b317	-0.39003822
20	0x3e95c779	0.29253748
21	0xbeddf3cf	-0.43350074
22	0xbe358494	-0.17726356
23	0xbe74915c	-0.23883575
24	0x3deffa39	0.11717648
25	0xbd8cfafc	-0.06883809
26	0x3f05a9fa	0.5221249
27	0xbe923a27	-0.28559992
28	0xbe7d559c	-0.24739689
29	0x3de39101	0.11111642
30	0x3ec8a04c	0.39184797
31	0xbed249e6	-0.41072005
32	0x3d18576e	0.037192754
33	0xbeeab554	-0.45841467
34	0x3d228753	0.039679836
35	0xbdea997d	-0.11455057
36	0xbdb1e0d7	-0.08685463
37	0xbe8256e8	-0.2545693
38	0x3d624021	0.05523694
39	0x3eb87e37	0.36033794
40	0x3ecc924d	0.3995537
41	0xbee55e35	-0.44798437
42	0x3ee10c9c	0.43954933
43	0x3dd38158	0.10327405
44	0xbed9ead7	-0.4256198
45	0x3e51c013	0.20483427
46	0xbdf6b09b	-0.120454036
47	0xbd03fc5e	-0.032223098
48	0x3e5c67f6	0.21524033
49	0x3edd753e	0.4325351
50	0x3e4f8bf0	0.20268226
51	0x3eda7455	0.4266688
52	0xbedc8fbb	-0.43078408
53	0x3f0c10d1	0.5471316
54	0xbdb2a9cc	-0.087237924
55	0xbf0cb401	-0.54962164
56	0xbc071a2b	-0.008245985
57	0x3dcaad02	0.0989628
58	0xbe7bd496	-0.24592814
59	0x3e9f3036	0.3109147
60	0x3e84b6dd	0.25920764
61	0x3f075faf	0.52880377
62	0xbe82ae18	-0.25523448
63	0x3ebf1e8b	0.3732799
64	0x3ee79e0a	0.45237762
65	0xbe7e6833	-0.24844436
66	0x3f02d5d9	0.51107556
67	0xbe997557	-0.29972336
68	0xbe3972b6	-0.18110165
69	0xbdcccd77	-0.10000127
70	0xbeaac401	-0.33352664
71	0xbe72c8c4	-0.23709399
72	0x3e501da1	0.20323803
73	0xbe819bd0	-0.25314188
74	0x3ee564d2	0.44803482
75	0x3e829385	0.25503173
76	0x3e9c7117	0.3055503
77	0x3e65e80b	0.22451799
78	0xbeaddd70	-0.33958006
79	0xbe017bc1	-0.12644865
80	0xbc051449	-0.008122512
81	0x3d99c523	0.07508304
82	0xbea43b7f	-0.32076642
83	0x3ebb3982	0.36567312
84	0xbc6608f3	-0.01404022
85	0xbf0919ec	-0.5355518
86	0x3e86e8e9	0.2634957
87	0x3ea8320b	0.3285068
88	0xbe339058	-0.17535532
89	0xbd5b5e82	-0.053556927
90	0x3eadd760	0.3395338
91	0x3ec0f023	0.3768321
92	0x3ea251ea	0.3170312
93	0xbe9e66a0	-0.30937672
94	0x3f13c17a	0.57717097
95	0x3edcf5e3	0.43156347
96	0xbe127092	-0.14300755
97	0xbed85266	-0.42250365
98	0x3d651057	0.055923786
99	0xbe6b4546	-0.22975644
100	0x3f087d27	0.5331597
101	0x3ea6b7f1	0.3256221
102	0x3eca25d9	0.39482
103	0xbeae9a0e	-0.3410191
104	0xbe9c7c38	-0.3056352
105	0x3d75fb9c	0.060054407
106	0xbeb9fb65	-0.3632461
107	0xbe698370	-0.22804046
108	0xbe7f4108	-0.24927151
109	0x3da0153e	0.078165516
110	0x3e1c0108	0.15234768
111	0xbe58ce9c	-0.21172565
112	0x3ef16703	0.47148904
113	0xbe038e1b	-0.12847178
114	0xbefe9e80	-0.497303
115	0xbe9fb47a	-0.3119238
116	0x3ec6e159	0.38843802
117	0xbde1710d	-0.11007891
118	0xbcfeefac	-0.031120144
119	0xbef18ceb	-0.47177824
120	0xbd89bb5c	-0.06725189
121	0x3f07be37	0.5302462
122	0xbe09b6b9	-0.1344861
123	0x3f077e37	0.52926964
124	0x3e2cde4d	0.16881676
125	0xbe39f1f9	-0.18158711
126	0x3e9f99b4	0.31171954
127	0x3e31d70d	0.17367192
128	0x3eabb5e3	0.33537206
129	0xbf0b9e73	-0.5453865
130	0x3e325eab	0.17418925
131	0xbef7e1a2	-0.48414332
132	0xbd89ebe4	-0.06734446
133	0xbedd7041	-0.43249705
134	0xbed46fa2	-0.4149142
135	0xbd14664c	-0.03623037
136	0x3e0a7c2d	0.13523932
137	0xbd2ff6f6	-0.04296013
138	0xbe9d5a98	-0.3073318
139	0xbe4720df	-0.19446133
140	0xbe559987	-0.20859347
141	0xbf0c38e1	-0.5477429
142	0xbec82625	-0.39091602
143	0x3edd89c7	0.43269178
144	0xbcd394d6	-0.025827806
145	0x3f0f28aa	0.55921423
146	0xbec75bb5	-0.38937154
147	0xbe989b94	-0.29806197
148	0x3ddab94e	0.10679875
149	0xbde7815d	-0.11303971
150	0x3eeadd93	0.45872173
151	0xbf0484fc	-0.5176542
152	0xbd581952	-0.052758522
153	0xbe0d05c9	-0.13771738
154	0xbedb4389	-0.42824963
155	0xbea6f567	-0.32609102
156	0x3e29c0e1	0.16577484
157	0xbc8edfa8	-0.017440632
158	0xbe866afb	-0.26253495
159	0xbebf9802	-0.3742066
160	0x3e5fcda0	0.21855783
161	0xbedf613a	-0.43628865
162	0xbe8a8e10	-0.2706151
163	0x3ddd4e0c	0.10805902
164	0xbd85e35f	-0.06537508
165	0x3c2a482b	0.010393183
166	0xbe371a5d	-0.1788115
167	0x3e1f8761	0.15578987
168	0xbe139899	-0.1441368
169	0x3e30872c	0.17239064
170	0xbe36a7ab	-0.17837398
171	0xbf0529c2	-0.5201684
172	0xbeae27e3	-0.34014806
173	0x3f08d45e	0.53449047
174	0xbe57dbfb	-0.2108001
175	0xbea1c6f3	-0.315971
176	0xbef7d245	-0.4840261
177	0xbee136f0	-0.43987226
178	0x3ecf927b	0.40541443
179	0xbdc412a7	-0.0957387
180	0x3ee23f34	0.44188845
181	0x3dca7430	0.09885442
182	0xbc7db2a6	-0.015484488
183	0xbe80b7a1	-0.25140098
184	0xbf06031c	-0.52348495
185	0x3e845e5d	0.25853243
186	0xbf015eef	-0.5053548
187	0x3efd7e10	0.4951024
188	0xbecb2c69	-0.3968232
189	0x3c5bb7cd	0.013410521
190	0x3f0395bb	0.51400346
191	0xbd3dec32	-0.04636783
192	0xbd235447	-0.039875295
193	0x3b674fb0	0.00352953
194	0x3e4525e7	0.1925274
195	0x3c72004d	0.0147705795
196	0xbe380af3	-0.17972927
197	0x3d93ca77	0.072163515
198	0xbedc54fe	-0.43033594
199	0x3f129aba	0.57267344
200	0x3ebacf14	0.36486113
201	0xbddf0220	-0.10889077
202	0x3e84e6ca	0.25957328
203	0xbf0398a3	-0.5140478
204	0xbe323216	-0.17401919
205	0x3e832a58	0.25618243
206	0x3f00814c	0.5019729
207	0xbe9d5664	-0.30729973
208	0xbec15299	-0.3775833
209	0xbd85713d	-0.06515739
210	0xbe977aad	-0.29585782
211	0x3e940526	0.28910178
212	0xbe305004	-0.17218024
213	0xbf0d3839	-0.55163914
214	0xbe9ac941	-0.3023167
215	0xbe90f575	-0.2831227
216	0xbf067ff7	-0.5253901
217	0x3ed0f9a0	0.4081545
218	0xbcffd858	-0.03123109
219	0xbe0acc6d	-0.13554545
220	0x3cfe68dd	0.031055862
221	0xbd245a9e	-0.04012548
222	0x3eacb9df	0.33735558
223	0x3f0947cf	0.53625196
224	0x3ed025cf	0.40653846
225	0x3ee91caf	0.45529696
226	0xbe033529	-0.12813248
227	0xbdb3b2f7	-0.08774369
228	0xbe860636	-0.26176614
229	0xbd8b6957	-0.06807201
230	0xbecdeac4	-0.40218174
231	0xbd2b491a	-0.041817762
232	0x3e2c7c81	0.1684437
233	0xbe0e6bd5	-0.13908322
234	0xbf078c2d	-0.52948266
235	0x3e3a0305	0.18165214
236	0xbe45357e	-0.19258687
237	0xbf089f47	-0.5336804
238	0xbeb513fa	-0.35366803
239	0x3de04cc4	0.10952142
240	0xbf035f3f	-0.5131721
241	0xbe48930e	-0.19587347
242	0x3ed5fdc2	0.41795164
243	0xbd578c97	-0.05262431
244	0x3da105b5	0.07862417
245	0x3e9f36bc	0.31096447
246	0xbe782f3a	-0.24236766
247	0xbd867c51	-0.0656668
248	0x3f144ae5	0.5792678
249	0xbef7e6ec	-0.48418367
250	0x3f02cbfa	0.51092494
251	0x3ebf2d0a	0.3733905
252	0xbf03cd3d	-0.51485044
253	0xbe6bee58	-0.2304014
254	0xbd901913	-0.070360325
255	0x3bc4bc65	0.0060039037

0.bias f4 [128]
0	0x3e1706a9	0.14748634
1	0x3f0959a6	0.5365242
2	0x3e0630dd	0.13104577
3	0x3ec18849	0.3779929
4	0x3eb1d84f	0.34735343
5	0xbef68822	-0.48150736
6	0x3e9961ef	0.2995753
7	0xbea6414c	-0.32471693
8	0xbf1535a6	-0.58284986
9	0x3e8adff4	0.27123988
10	0x3e480387	0.19532596
11	0xbe335ef0	-0.17516685
12	0x3ef86863	0.4851714
13	0x3e5fb54d	0.21846505
14	0xbe49277d	-0.1964397
15	0xbda1ea7e	-0.07906054
16	0x3e975509	0.29557064
17	0xbf0f25ba	-0.5591694
18	0xbef2a3f8	-0.47390723
19	0x3d1fc0ef	0.039002355
20	0xbe80bc1e	-0.25143522
21	0xbd93f68a	-0.07224758
22	0x3dbb991e	0.09160064
23	0xbedbefd2	-0.42956406
24	0x3f0f9f52	0.5610248
25	0xbecab9e3	-0.39594945
26	0xbeb13259	-0.34608725
27	0xbd59ec2d	-0.05320375
28	0xbebf6e41	-0.37388805
29	0xbd372644	-0.044714227
30	0x3ec90e2d	0.39268628
31	0x3db752bc	0.08951327
32	0x3f06c264	0.52640367
33	0xbddc6111	-0.107607014
34	0xbcee9b3a	-0.029126752
35	0x3dbf43c8	0.093391
36	0xbd983126	-0.07431249
37	0x3dba1c35	0.09087411
38	0xbea72394	-0.3264433
39	0xbe116372	-0.14198092
40	0xbd88e9be	-0.06685208
41	0x3e37e00f	0.17956565
42	0xbee2b23e	-0.44276613
43	0x3dab13c5	0.0835338
44	0x3e12f260	0.14350271
45	0xbecbf8ab	-0.39838156
46	0x3cbd3b71	0.023099633
47	0xbe97616d	-0.29566517
48	0x3e376b28	0.1791197
49	0x3f109bfe	0.56488025
50	0x3e962289	0.29323223
51	0x3e4200d8	0.18945634
52	0x3f084b07	0.5323948
53	0xbdcf2c83	-0.10115912
54	0xbf1304b2	-0.5742904
55	0x3e975d44	0.29563344
56	0xbee41f87	-0.44555303
57	0x3dfb1129	0.122591324
58	0x3f0f051c	0.5586717
59	0xbe8d20e4	-0.27564156
60	0xbde8ef80	-0.11373806
61	0xbea0ead8	-0.31429172
62	0xbe2691dd	-0.1626658
63	0xbe43a8e0	-0.1910739
64	0xbe4aeab9	-0.19816102
65	0x3ed409fe	0.41413873
66	0xbe718725	-0.2358671
67	0xbe45431d	-0.19263883
68	0xbedfe4d8	-0.4372928
69	0xbed6a802	-0.41925055
70	0x3e147a53	0.14499788
71	0x3ea90f40	0.33019447
72	0xbf0fe70e	-0.56211936
73	0x3da31f6b	0.07964977
74	0xbf0759c8	-0.5287137
75	0xbebc4553	-0.3677164
76	0xbedfc54e	-0.4370522
77	0xbeb699e7	-0.35664293
78	0xbce14613	-0.027499234
79	0x3e3881e4	0.180183
80	0x3e7be65b	0.24599592
81	0xbed3acad	-0.4134268
82	0x3ebeb4a1	0.37247184
83	0x3eb62788	0.35577035
84	0xbed54e7b	-0.41661438
85	0xbdec14f1	-0.11527432
86	0x3ed5bd07	0.4174578
87	0x3d9da537	0.07697528
88	0xbe9586ed	-0.29204503
89	0x3d7f5040	0.06233239
90	0x3e76a3af	0.24085878
91	0xbd3bd868	-0.045860678
92	0x3d51192c	0.051049396
93	0xbedc2f19	-0.43004683
94	0x3e361e5b	0.17785017
95	0x3ef72558	0.4827068
96	0xbe86ba92	-0.26314217
97	0xbd8750b1	-0.066071875
98	0xbef0734d	-0.46962968
99	0x3ec398ea	0.38202602
100	0x3d3a54dd	0.04549109
101	0xbe8268eb	-0.2547067
102	0xbeed4049	-0.46338108
103	0x3db42fde	0.087981924
104	0x3c405c42	0.011740746
105	0xbef24bf3	-0.4732357
106	0x3f097233	0.5368988
107	0xbe1b643b	-0.15174954
108	0xbe1a6503	-0.15077595
109	0x3eb8b02b	0.36071905
110	0x3ee51f98	0.44750667
111	0x3c1cb449	0.009564468
112	0xbf04eab2	-0.51920617
113	0xbe53f99f	-0.20700692
114	0xbd72bca6	-0.05926194
115	0xbeaf02f3	-0.34181938
116	0x3ebb8fad	0.36633053
117	0x3d03a8e8	0.032143503
118	0x3ed349ed	0.41267338
119	0xbe94083b	-0.2891253
120	0xbf005af1	-0.50138766
121	0x3ed78c99	0.42099455
122	0xbd91e5a7	-0.07123881
123	0xbefdf14c	-0.49598157
124	0xbe2fc98f	-0.17166732
125	0xbd74fb04	-0.0598097
126	0x3f11700a	0.56811583
127	0x3e18cc3d	0.1492166

2.weight f4 [128, 128]
0	0x3d73d680	0.059530735
1	0x3d961236	0.07327692
2	0x3d1a1530	0.037617862
3	0xba44908c	-0.0007498346
4	0x3c8efb56	0.01745383
5	0x3d4e25c7	0.050328996
6	0x3c1cc0ee	0.009567482
7	0xbacc8f44	-0.0015606661
8	0xbcecd624	-0.028910704
9	0xbd653dc0	-0.055967093
10	0x3d80d990	0.06291497
11	0x3b68cbaa	0.0035521784
12	0x3ce4b1b9	0.027916776
13	0xbcda5df0	-0.026656121
14	0x3d95b8d7	0.07310646
15	0x3c167c48	0.009184904
16	0xbd83fda6	-0.06444864
17	0x3c44ea15	0.0120187
18	0x3d8384ab	0.06421789
19	0x3d923923	0.07139804
20	0xbce44afe	-0.02786779
21	0x3be5ccb8	0.00701293
22	0xbd9b3d35	-0.07580034
23	0x3b05cf15	0.002041762
24	0x3d00ae89	0.03141645
25	0x3d188fdc	0.03724657
26	0xbdabcf87	-0.08389192
27	0xbd4a50b0	-0.049393356
28	0xbd8a1c21	-0.067436464
29	0x3c241608	0.010015018
30	0x3c0fde46	0.008781021
31	0xbd205874	-0.039146855
32	0x3bb4c80d	0.005517012
33	0xba69996f	-0.0008911108
34	0xbce5b722	-0.028041426
35	0xbc82a1dd	-0.015946323
36	0xbd00e60b	-0.031469386
37	0xbcbcf1cb	-0.023064515
38	0xbcf8e9a8	-0.030384853
39	0x3dabf23f	0.08395814
40	0x3a0ff4fe	0.0005491524
41	0x3c2363d7	0.009972534
42	0xbd9217d4	-0.07133451
43	0x3bd7260d	0.0065658153
44	0x3d9e2a5a	0.07722922
45	0x3d1e5844	0.038658395
46	0xbdb04002	-0.086059585
47	0x3da473f2	0.08029927
48	0x3c778fe7	0.015109993
49	0x3c6eb135	0.014568617
50	0x3c4d32be	0.012524305
51	0x3d835cad	0.06414161
52	0xbd7cc727	-0.061713364
53	0x3bdac60a	0.00667644
54	0x3d7ac4a2	0.06122268
55	0x3d809210	0.06277859
56	0x3c3df3bc	0.011593755
57	0x3da72310	0.081609845
58	0x3c533fec	0.012893658
59	0xbc838fa6	-0.016059708
60	0x3ce33881	0.027736904
61	0x3ae0fa8e	0.0017164515
62	0x3c0aef9a	0.008479977
63	0xbd42d10f	-0.047562655
64	0x3d7b0ea3	0.061293256
65	0x3da3a5a7	0.0799058
66	0x3d3b5bed	0.045741964
67	0xbda56971	-0.08076752
68	0xbd794775	-0.060859162
69	0xbce33eb6	-0.027739864
70	0x3d5b672c	0.05356519
71	0x3da4033b	0.08008429
72	0x3d796380	0.060885906
73	0xbc0c92be	-0.008579908
74	0xbd0b23ee	-0.033969812
75	0x3d37ae28	0.044843823
76	0x3c598c7b	0.013278122
77	0xbd854c67	-0.06508713
78	0x3c58beef	0.013229116
79	0xbd7fbbe6	-0.062435053
80	0x3cad1f93	0.02113322
81	0x3d802668	0.062573254
82	0xbd5ac3da	-0.053409435
83	0xbc18e96e	-0.009332998
84	0x3d092f5a	0.033492424
85	0xbd8c0edc	-0.06838772
86	0x3c57bb07	0.013167149
87	0xbd375954	-0.044762924
88	0xbd7a9019	-0.06117258
89	0x3ceb05d1	0.028689297
90	0x3d81c421	0.06336237
91	0x3d3a932c	0.04555051
92	0x3d64597a	0.055749394
93	0xbd8fa16d	-0.070132114
94	0xbc4f1c53	-0.01264103
95	0xbd4af73e	-0.049552195
96	0xbda47e60	-0.080319166
97	0xbd06166c	-0.032736227
98	0xbd7c562e	-0.061605625
99	0x3d6fbc04	0.058528915
100	0xbd4c4f0b	-0.04988007
101	0x3d71b287	0.059008148
102	0x3d95c6cb	0.073133074
103	0xbd6d5834	-0.057945445
104	0x3d27ee3c	0.040998682
105	0x3db07f03	0.086179756
106	0x3d9f3bc7	0.077750735
107	0xbd83f452	-0.06443085
108	0x3d91ceae	0.07119499
109	0x3cce354d	0.0251719
110	0xbcd7384d	-0.026271963
111	0x3d0b086e	0.033943586
112	0x3bdb4a44	0.0066922028
113	0xbd8cce63	-0.06875303
114	0xbd89aea3	-0.067227624
115	0xbc392f7d	-0.011302826
116	0xbd04362c	-0.032278225
117	0x3c14d62f	0.0090842685
118	0x3c56f26e	0.013119323
119	0x3dab2030	0.08355749
120	0xbdaea8f7	-0.08528321
121	0xb97294f2	-0.00023134405
122	0x3d716818	0.058937162
123	0xbd799bd0	-0.06093961
124	0xbdb4c16a	-0.08825953
125	0xbca2d5b6	-0.019877296
126	0x3d93ca94	0.07216373
127	0xbd1bf452	-0.0380748
128	0xbd9d8986	-0.07692246
129	0xbcf5a4aa	-0.029985745
130	0xbd932454	-0.071846634
131	0xbc7fe336	-0.015618136
132	0xbd3bbce9	-0.045834456
133	0xbc81725c	-0.015801601
134	0xbd08791b	-0.03331862
135	0xbbb08cc3	-0.005387874
136	0x3d05d46c	0.032673284
137	0xbcdfc036	-0.027313333
138	0xbd3b0c26	-0.045665883
139	0xbdac0d8c	-0.08401021
140	0xbdc91be0	-0.0981977
141	0x3d86985b	0.06572028
142	0x3d872a3e	0.06599854
143	0x3d3b63b9	0.0457494
144	0xbbf13c6f	-0.0073619406
145	0x3cec4afc	0.02884435
146	0xbc26e8d4	-0.0101873465
147	0x3d71e767	0.059058573
148	0xbc81bdaa	-0.01583751
149	0xbd47efd8	-0.048812717
150	0xbdc83f43	-0.09777691
151	0xbda61d51	-0.081110604
152	0xbd04519c	-0.03230439
153	0x3cae6a54	0.021290936
154	0x3d56ea1f	0.05246937
155	0xbcd723aa	-0.026262123
156	0xbd209cc1	-0.039211992
157	0x3d7ad9f9	0.06124303
158	0xbcb71eb4	-0.022353508
159	0x3c83276d	0.01601001
160	0x3ca1eb8a	0.019765634
161	0xbdc4ca8c	-0.09608945
162	0x3d65ad5e	0.05607354
163	0x3daa90bc	0.08328387
164	0x3cf5ceb4	0.03000579
165	0x3caca48f	0.021074561
166	0xbdb8f6ea	-0.0903147
167	0x3c102be1	0.008799524
168	0xbd1ed372	-0.03877587
169	0x3d5e156c	0.05421965
170	0xbcd097fc	-0.025463097
171	0x3d8995b3	0.06718006
172	0x3c86a98e	0.016438272
173	0x3da6e00a	0.08148201
174	0x3982e5ca	0.00024966738
175	0x3c24de9b	0.010062839
176	0x3c936496	0.017992299
177	0xbc6a4460	-0.014298528
178	0xbdc1f6fb	-0.09470936
179	0x3d3f3d85	0.04668953
180	0x3da493a9	0.080359764
181	0x3cf17de7	0.02947898
182	0xbdafafc9	-0.0857845
183	0xbca56644	-0.020190366
184	0xbd6d49e3	-0.057931792
185	0x3d5ac0e0	0.053406596
186	0xbd645e7c	-0.05575417
187	0x3d857655	0.06516711
188	0x3d12bb6b	0.035823267
189	0x3d02ca0b	0.031930964
190	0x3db1d5fe	0.08683394
191	0x3d37c831	0.04486865
192	0xbc0fa525	-0.008767401
193	0xbcbdf443	-0.023187762
194	0xbd9d031d	-0.076666094
195	0x3cc4dd4a	0.0240313
196	0x3c10c6b3	0.008836436
197	0x3ccd0f6e	0.025031772
198	0xbd5554fe	-0.052083008
199	0x3c038afd	0.008028743
200	0x3d813d0a	0.063104704
201	0x3cc934aa	0.024561245
202	0xbbca3aff	-0.0061715837
203	0xbd524a1f	-0.05134022
204	0xbc8fe318	-0.017564341
205	0x3da19aa8	0.078908265
206	0x3d9901fa	0.0747108
207	0x3d0f3d85	0.03497078
208	0x3ce5b5b0	0.028040737
209	0x3d7edb91	0.062221114
210	0xbd8ff279	-0.0702867
211	0x3c5f066c	0.013612371
212	0xbcd0611b	-0.025436928
213	0xbd565010	-0.052322447
214	0x3c158b29	0.009127417
215	0xbd6c62f6	-0.057711564
216	0xbdcd62ec	-0.100286335
217	0x3d7e0f65	0.0620264
218	0x3d86010e	0.0654317
219	0xbd5fb52f	-0.05461615
220	0x3da4d07b	0.08047577
221	0xbd23b1f5	-0.039964635
222	0xbdb20071	-0.086914904
223	0xbdb410d0	-0.08792269
224	0xbd80bda9	-0.06286175
225	0xbd671551	-0.056416813
226	0x3daaa286	0.0833178
227	0xbcfd78f8	-0.030941471
228	0xbb6645c6	-0.0035136803
229	0xbc5eee79	-0.013606661
230	0xbd1941fc	-0.037416443
231	0xbd4e1a41	-0.050318006
232	0x3d9054b3	0.07047405
233	0xbdab11a3	-0.08352973
234	0x3cbdec1e	0.023183879
235	0xbd79290d	-0.060830165
236	0x3d924925	0.071428575
237	0x3dae2172	0.08502473
238	0x3d322337	0.043490615
239	0xbd77172b	-0.06032483
240	0x3d9468bb	0.07246538
241	0xbc8b1417	-0.016977353
242	0xbd1ebd7f	-0.038754936
243	0xbcabaa6c	-0.020955287
244	0x3cf1c6cc	0.029513739
245	0xbd5f6db4	-0.05454798
246	0xbd785793	-0.060630392
247	0xbd9ba417	-0.07599657
248	0x3d860c1d	0.06545279
249	0xbcc26c5c	-0.02373331
250	0x3d74c42e	0.059757404
251	0x3d7bd5c3	0.061483156
252	0xbcf50fe1	-0.029914798
253	0xbce23bd0	-0.027616411
254	0x3d5412c1	0.051775698
255	0xbd381dcb	-0.044950288

2.bias f4 [128]
0	0x3b8df57d	0.004332243
1	0x3d6949b6	0.05695506
2	0xbd5cc2e1	-0.05389679
3	0xbd72fdee	-0.059324197
4	0xbd96702a	-0.07345612
5	0xbda390e1	-0.07986618
6	0x3d9909ac	0.07472548
7	0xbd25783a	-0.04039786
8	0x3bce9e01	0.0063054566
9	0x3c7be288	0.0153738335
10	0xbd5497dc	-0.051902637
11	0x3d12c6da	0.03583417
12	0xbd03161e	-0.032003514
13	0x3ddf1834	0.10893288
14	0x3d56a959	0.052407596
15	0xbc36f1f3	-0.011166084
16	0xbdba22e1	-0.09088684
17	0x3da3fa47	0.08006721
18	0x3ca2e640	0.019885182
19	0xbd6a9608	-0.057271987
20	0xbd372610	-0.044714034
21	0x3d4de8c6	0.05027082
22	0xbc84215f	-0.016129194
23	0x3d08e2b7	0.033419337
24	0x3d381da1	0.04495013
25	0xb8e14980	-0.000107425265
26	0xbda99633	-0.08280601
27	0x3d461b04	0.048365608
28	0x3d7bf69f	0.061514493
29	0xbc898730	-0.016788095
30	0xbc122b2e	-0.008921428
31	0x3d8d27ab	0.06892332
32	0x3d905d02	0.0704899
33	0x3cb51db8	0.022108898
34	0x3d553cf4	0.052060083
35	0x3c388202	0.011261465
36	0xbd5acb79	-0.053416703
37	0x3d2d31fa	0.04228399
38	0xbc85e309	-0.01634361
39	0xbd7c06ff	-0.06153011
40	0x3d779022	0.06044019
41	0x3dce7916	0.10081689
42	0x3c53bf8e	0.012924088
43	0xbdab7a14	-0.08372894
44	0xbca8e44f	-0.020616679
45	0x3d2f6a64	0.04282607
46	0xbc76e629	-0.015069523
47	0x3d481985	0.048852462
48	0x3d1a351e	0.037648313
49	0x3cdecc79	0.02719711
50	0x3d327264	0.043566123
51	0xbdbaca42	-0.09120609
52	0x3daf078c	0.08546361
53	0x3cf3a2f7	0.029740794
54	0xbd05495c	-0.032540664
55	0x3da8ae64	0.08236387
56	0xbd7bcc25	-0.061473984
57	0xbd849131	-0.064730056
58	0x3d4eab2e	0.05045622
59	0xbc2858b0	-0.010275051
60	0x3db30344	0.08740857
61	0xbda2932a	-0.079382256
62	0xbd532f3b	-0.051558714
63	0xbd4da708	-0.05020812
64	0xbd1cc21a	-0.038271047
65	0x3d70cf2a	0.058791317
66	0x3d9652eb	0.07340034
67	0x3c9cc8c4	0.019138701
68	0x3d6d7b83	0.057979118
69	0xbba4f60e	-0.005034215
70	0xbd21689a	-0.039406396
71	0xbd41eeed	-0.047346998
72	0xbd23b6f7	-0.03996941
73	0xbc91ac68	-0.017782405
74	0x3d0b1614	0.033956602
75	0xbcdf3e01	-0.027251245
76	0x3d28f33c	0.04124759
77	0xbd346461	-0.04404104
78	0x3da1a0ee	0.07892023
79	0xbdc7ec86	-0.0976191
80	0x3d6410db	0.055680137
81	0x3c0dd33b	0.008656318
82	0x3c4b8478	0.01242172
83	0x3ccdfd66	0.025145244
84	0x3d49bccf	0.049252328
85	0xbd2bdb1f	-0.041957017
86	0xbd68df7a	-0.05685375
87	0xbd4b7b2a	-0.049678005
88	0x3d25583f	0.04036736
89	0xbcec3218	-0.02883248
90	0x3db38aca	0.08766706
91	0xbda0fcf5	-0.07860748
92	0xbc9362b5	-0.017991403
93	0x3d896d8b	0.06710347
94	0x3c850cf2	0.016241524
95	0xbd391121	-0.04518235
96	0x3d54c1f2	0.051942773
97	0x3de1fb6f	0.11034285
98	0xbc8f9cfc	-0.01753091
99	0x3c388eb6	0.011264494
100	0xbcf7ea17	-0.03026299
101	0xbbbbbf21	-0.0057295715
102	0xbc0a6b24	-0.008448396
103	0x3d404e32	0.046949573
104	0xbc66b0da	-0.014080251
105	0x3d92e427	0.07172423
106	0x3d9bc83b	0.0760655
107	0xba898264	-0.001049113
108	0xbd5e8fdd	-0.054336417
109	0xb93a6600	-0.0001777634
110	0x3da39c00	0.07988739
111	0x3d58ea9c	0.052958116
112	0xbcb55522	-0.022135321
113	0x3caa9da2	0.020827118
114	0x3c7be456	0.015374264
115	0x3dad599b	0.084643565
116	0x3d640443	0.055668127
117	0xbd5097e7	-0.050926115
118	0x3a337d58	0.0006846986
119	0x3dad13fb	0.084510766
120	0xbd1239c0	-0.035699606
121	0xbc06cc89	-0.008227476
122	0x3d9703e6	0.073737904
123	0x3c0919e8	0.008367993
124	0x3d678f08	0.05653289
125	0x3c6e2bfd	0.014536855
126	0x3cd7b19c	0.026329808
127	0xbcccab00	-0.024983883

4.weight f4 [1, 128]
0	0x3ce3f02d	0.027824486
1	0x3cf1cb82	0.029515985
2	0xbd2f8760	-0.042853713
3	0xbced7cc6	-0.02899016
4	0x3d362a04	0.044473663
5	0xbc89ef63	-0.016837781
6	0xbd208181	-0.039186005
7	0xbd773a58	-0.060358375
8	0x3cc7cbd7	0.02438919
9	0x3d9d45dd	0.07679341
10	0x3b6d9987	0.003625484
11	0xbd8ffafa	-0.07030292
12	0x3d3e8bc8	0.046520025
13	0xbd26626d	-0.04062121
14	0xbc727330	-0.014797971
15	0xbdaccb67	-0.084372334
16	0xbd7b537b	-0.06135891
17	0x3a92c3e4	0.0011197296
18	0x3d983825	0.07432584
19	0x3cfac38a	0.030610818
20	0xbdb4f196	-0.08835141
21	0x3d476d20	0.048688054
22	0x3cb82c42	0.022482041
23	0x3d9d058c	0.076670736
24	0xbd94fd47	-0.07274871
25	0x3d13f484	0.03612186
26	0x3d0a04ec	0.0336961
27	0x3d83d617	0.06437319
28	0xbd8e562f	-0.06950032
29	0xbd0becc8	-0.03416136
30	0xbcaa7cfc	-0.02081155
31	0x3babe3c9	0.00524566
32	0x3cd312c7	0.02576579
33	0xbda1d3f5	-0.07901756
34	0x3db218cf	0.08696138
35	0xbd44a39f	-0.048007604
36	0x3d14c82f	0.036323722
37	0x3d5cddda	0.05392251
38	0xbcd311fe	-0.025765415
39	0x3b69d246	0.0035678311
40	0x3d8ccad8	0.06874627
41	0xbd221e0f	-0.039579447
42	0xbc4dd1b5	-0.012562205
43	0x3d92490f	0.07142841
44	0xbd498bde	-0.049205653
45	0x3d291ad9	0.04128537
46	0xbac20540	-0.001480259
47	0xbd99b33f	-0.075048916
48	0xbd8aef52	-0.06783928
49	0x3d129942	0.03579069
50	0xbd5f18dc	-0.054467067
51	0x3bcaabf0	0.0061850473
52	0xbdafcc6c	-0.08583912
53	0xbd120427	-0.03564849
54	0xbd433462	-0.047657378
55	0x3d8e22f5	0.06940261
56	0xbdabdfcc	-0.08392295
57	0x3d4d4c7c	0.05012177
58	0x39ed0700	0.00045209378
59	0x3c2db8c8	0.010603137
60	0xbde3f398	-0.11130446
61	0x3ca94e4b	0.020667216
62	0xbdac62ba	-0.08417268
63	0x3d543b74	0.05181451
64	0xb9f04cf0	-0.0004583369
65	0xbcf3e686	-0.029773008
66	0x3d87bf2b	0.06628259
67	0x3d80935d	0.06278107
68	0xbb887894	-0.0041647647
69	0x3c48e957	0.012262664
70	0x3d6f0ba9	0.05836073
71	0xbda182ff	-0.07886314
72	0x3d643fb8	0.05572483
73	0x3a1ae2b0	0.0005908413
74	0x3d2fef57	0.04295286
75	0x3cd71388	0.02625443
76	0x3d899e55	0.067196526
77	0x3d63b9f3	0.055597257
78	0x3d819e38	0.06329006
79	0x3b13e33a	0.0022565858
80	0x3d91719d	0.07101748
81	0xba2867d0	-0.00064241607
82	0xbcd38417	-0.025819821
83	0xbd4c9fcc	-0.04995708
84	0xbd000ed6	-0.03126415
85	0x3d613152	0.054978676
86	0x3da2641f	0.07929253
87	0x3cd8bbf0	0.026456803
88	0x3d0455a8	0.03230825
89	0xbb0f275a	-0.0021843524
90	0xbc921d16	-0.017836135
91	0x3d49dbd4	0.04928191
92	0xbda69d15	-0.0813543
93	0xbceda52b	-0.029009422
94	0x3d434559	0.047673557
95	0x3cbf50d0	0.023353964
96	0xbd43836b	-0.04773275
97	0xbdc31d75	-0.09527103
98	0x3c10dcaa	0.008841673
99	0xbcc7cb40	-0.02438891
100	0xbda40f96	-0.08010785
101	0xbd836a4c	-0.06416759
102	0xbd8a1b45	-0.067434825
103	0x3ccea4d7	0.025225086
104	0x3bed90c0	0.0072499216
105	0xbd272ba6	-0.04081311
106	0x3d83ad36	0.06429522
107	0x3d1162ed	0.035494734
108	0xbd76a238	-0.060213298
109	0x3d2c0b99	0.042003248
110	0x3d6f1ae3	0.05837525
111	0x3c77fcc1	0.015135945
112	0xbde09410	-0.10965741
113	0x3d915384	0.070960075
114	0xbd9fc22f	-0.078007095
115	0xbd11ad76	-0.035565816
116	0xbc434570	-0.011918411
117	0xbd277b7f	-0.04088926
118	0x3bf8e5ba	0.007595745
119	0xbce6132e	-0.028085317
120	0xbccbb768	-0.024867728
121	0xbd864edb	-0.06558009
122	0xbdc8a142	-0.097963825
123	0x3cc76418	0.02433972
124	0x3ccb175e	0.024791416
125	0xbd782071	-0.060577814
126	0x3d9846b7	0.07435363
127	0x3d36096e	0.044442587
