model_with_lossfunction/dqn_retail_model_3_lr_0.0005_ed_0.99_g_0.9.pth (torch, 20966 bytes, 5 tensors)

0.weight f4 [64, 3]
0	0x3f255534	0.64583135
1	0x40493331	3.1437495
2	0x3ed94621	0.42436317
3	0x3f8488a4	1.03542
4	0xbfc6f7b5	-1.5544344
5	0x3fc4c98f	1.5374011
6	0x40073cda	2.113089
7	0xbf9bd1bd	-1.2173382
8	0x3fd52716	1.6652553
9	0x3f54ce00	0.8312683
10	0x3facc797	1.349841
11	0x3f85ccee	1.0453165
12	0x3f476b7e	0.77898395
13	0x3fa680ce	1.3008058
14	0x3f85468d	1.0412155
15	0x3f9d162a	1.2272389
16	0xbcd845d4	-0.026400484
17	0x3f7c386a	0.9852358
18	0x3fec77f7	1.847411
19	0xbf9f9043	-1.24659
20	0x3ff13b7c	1.8846278
21	0xbda6e942	-0.08149959
22	0xbdef2cca	-0.11678465
23	0xbe5f7603	-0.21822362
24	0x3ed9c834	0.42535555
25	0xbe9e47cf	-0.3091416
26	0x3f9f7cba	1.2459939
27	0x3f977c5e	1.1834829
28	0xbfc3091e	-1.5237157
29	0x3fd2bac4	1.6463246
30	0x3f95d009	1.1704112
31	0xbfa80cad	-1.3128868
32	0x3fdca2a5	1.7237135
33	0x3f920b56	1.140971
34	0x3f3fedd4	0.7497227
35	0x3fbe2167	1.4853944
36	0x3fdaac0b	1.7083753
37	0xbfa7b69f	-1.3102607
38	0x3faa4876	1.3303363
39	0x3ead5b00	0.3385849
40	0x3d7167d3	0.058936905
41	0x3f8dfbec	1.1092505
42	0x3f475994	0.7787106
43	0xbfc317ab	-1.5241598
44	0x3f90c430	1.1309872
45	0xbd4bf4e3	-0.04979409
46	0xbeb6f234	-0.3573166
47	0xbd37d7dc	-0.044883594
48	0x3fbb6d27	1.4642686
49	0xbf089d41	-0.5336495
50	0x3f895ba1	1.0731088
51	0x3f8b83c1	1.0899583
52	0xbf226e45	-0.6344951
53	0x3fa4d59d	1.287769
54	0x3f091812	0.53552353
55	0x3e9eeb5b	0.31038937
56	0x3fad45f8	1.3536978
57	0x3f92042e	1.1407526
58	0x4049fbec	3.156001
59	0x3ea6d7fa	0.32586652
60	0x3fd0f6fa	1.6325371
61	0xbfa3d17d	-1.2798306
62	0x3fc8e5dc	1.5695148
63	0x3f916617	1.135928
64	0x3f0e1008	0.5549321
65	0x3fbdd503	1.4830631
66	0x3f7f62dc	0.9976022
67	0xbf7fadf7	-0.99874824
68	0x3fcbb8da	1.5915787
69	0xbcc3055d	-0.023806268
70	0x40541c33	3.3142211
71	0xbe13d8be	-0.1443815
72	0x3f516127	0.8178887
73	0x405a87f1	3.4145472
74	0x3e3908cc	0.18069762
75	0xbe17cde1	-0.1482463
76	0x3ec32bb4	0.3811928
77	0xbe5d4719	-0.21609153
78	0x3facfe92	1.3515189
79	0x3fa1ab45	1.2630392
80	0x3fc4c939	1.5373908
81	0xbf124475	-0.5713571
82	0x3d2215bb	0.039571505
83	0xbe2baa27	-0.16764127
84	0xbc165709	-0.009176024
85	0xbee45e71	-0.44603303
86	0xbe5c96e6	-0.21541938
87	0x3fc4008e	1.5312669
88	0xbf47b5ce	-0.78011787
89	0x3fbbb79f	1.4665412
90	0x3fa8c419	1.3184844
91	0x404fd095	3.2471058
92	0x3ebc32bb	0.36757454
93	0xbee8ed4a	-0.45493537
94	0xbe3ad17a	-0.18243971
95	0x3e71663a	0.23574153
96	0x3f87e6cd	1.061731
97	0x3ff53a86	1.9158485
98	0x3fc62d74	1.5482621
99	0xbe0a303c	-0.13494962
100	0x3df6e0e9	0.12054617
101	0xbe947f40	-0.29003334
102	0x3f7e9e1b	0.9946
103	0x4064383d	3.5659325
104	0x3e653dab	0.22386806
105	0xbf0cf7da	-0.5506569
106	0x3ba13a31	0.004920267
107	0xbedc3c87	-0.4301493
108	0x3f03828f	0.5137109
109	0x3f2374a0	0.6384983
110	0x3fb80075	1.437514
111	0x3fe7b64c	1.8102508
112	0xbfbd2c65	-1.4779173
113	0x3fc34677	1.5255879
114	0x3ecde3c7	0.40212843
115	0x4039e77b	2.9047534
116	0x3eabdd0b	0.3356708
117	0x3fe182d8	1.7618055
118	0xbe2910b1	-0.16510274
119	0x3f86a84a	1.0520108
120	0xbe7819a7	-0.24228536
121	0x3ec861be	0.3913707
122	0xbf0f5826	-0.5599388
123	0x3f7bf1cf	0.98415846
124	0xbf84d1df	-1.0376548
125	0x3fd40953	1.6565346
126	0x3fa27fbe	1.2695234
127	0x3e8971ef	0.26844737
128	0x3fdfbc71	1.7479383
129	0x3f892e72	1.0717299
130	0xbdf3dd58	-0.11907452
131	0x3fb7a727	1.4347886
132	0x3f229ddb	0.6352212
133	0x400f7cbe	2.2419887
134	0x3f50d188	0.8156972
135	0xbf0f2967	-0.5592255
136	0x3e416d54	0.18889362
137	0xbc72bd5d	-0.014815656
138	0x3fcdebd1	1.608759
139	0x4044935e	3.0714946
140	0x3f48bd90	0.7841425
141	0xbf01beb9	-0.50681645
142	0x3e8b56bf	0.2721462
143	0xbf10b299	-0.5652252
144	0x3f6409ef	0.8907766
145	0xbed65b1e	-0.41866392
146	0x3fb9cbd6	1.4515331
147	0xbc91497b	-0.017735234
148	0xbd540ef2	-0.051772065
149	0xbec24d02	-0.37949377
150	0xbf09c3db	-0.53814477
151	0x3e8a1f6e	0.26977104
152	0xbe813cc7	-0.25241682
153	0x3f1340c1	0.5752068
154	0x40464810	3.0981483
155	0x3e885325	0.26625934
156	0x3fcff3f5	1.6246325
157	0xbf0f7a85	-0.56046325
158	0x3fd400c8	1.6562738
159	0xbe981108	-0.29700494
160	0x3cbf9a61	0.023389043
161	0xbf096b49	-0.5367933
162	0xbdb55bd6	-0.08855407
163	0xbebff722	-0.37493235
164	0xbea50447	-0.32229826
165	0x3fc8135e	1.563091
166	0x401d7987	2.4605424
167	0x3f93838b	1.1524519
168	0x3ea6a1ad	0.32545224
169	0x40458532	3.0862546
170	0x3e0215f7	0.12703691
171	0xbdcde646	-0.10053687
172	0x3e893450	0.26797724
173	0xbc80fd8c	-0.0157459
174	0xbd37173e	-0.0446999
175	0x3e00a323	0.12562232
176	0xbe710519	-0.23537101
177	0xbeb46c89	-0.35239056
178	0x3e00ccfa	0.12578192
179	0xbe97a9c2	-0.29621702
180	0xbf067ebf	-0.5253715
181	0xbe8059f8	-0.2506864
182	0x3da8d169	0.08243067
183	0x3fad3a8a	1.353349
184	0x404c7a9a	3.194983
185	0x3f125c80	0.57172394
186	0xbd744af1	-0.059641782
187	0xbd801c99	-0.062554546
188	0xbd029bde	-0.031886928
189	0xbdc707aa	-0.09718259
190	0xbe550f17	-0.20806538
191	0xbe810322	-0.25197703

0.bias f4 [64]
0	0x3f934c95	1.1507746
1	0x3f1f8068	0.6230531
2	0x3f8f9fba	1.122062
3	0x3fd68c08	1.6761484
4	0x3f8a4e86	1.0805213
5	0x3facdb38	1.35044
6	0x3f1b02d5	0.60551196
7	0xbee9de6b	-0.45677504
8	0x3dc38c5e	0.09548257
9	0x3d1fb443	0.03899027
10	0x3e455cfd	0.19273753
11	0x3f9c9a52	1.2234595
12	0x3d7419af	0.059594806
13	0x3f01c9e9	0.50698715
14	0x3f27f478	0.65607405
15	0x3ee32ed9	0.4437168
16	0x3f9cbce2	1.2245142
17	0x3f9bc482	1.2169344
18	0x3f80152d	1.0006462
19	0x3fa70e6a	1.3051274
20	0xbe353106	-0.17694482
21	0x3fd632d9	1.6734267
22	0x3e37b082	0.17938426
23	0x3f9f33b6	1.2437656
24	0x3fe500a6	1.7890823
25	0x3eab4707	0.33452627
26	0x3ffd55ad	1.9791771
27	0x3ee9f40d	0.45694008
28	0xbf0afeb6	-0.5429491
29	0x3f3abef5	0.7294763
30	0x3fa6e86f	1.3039683
31	0xbeef74fd	-0.46768942
32	0x3fc662ff	1.5498961
33	0x3ece6a7b	0.40315613
34	0x3f7113d9	0.9417091
35	0x3f08345a	0.5320488
36	0x3f5256cd	0.821637
37	0xbb53adec	-0.003229971
38	0x3fb839bf	1.4392623
39	0x3f31786d	0.6932438
40	0xbf0a0a83	-0.5392229
41	0x3e2649d6	0.16239104
42	0x3f883b94	1.0643182
43	0x3f54646b	0.82965726
44	0x3faba16c	1.3408637
45	0x3eb3ae33	0.3509384
46	0x3fee664c	1.8624969
47	0xbeb33588	-0.3500178
48	0x3eff78c1	0.49896815
49	0x3f049ea8	0.5180459
50	0xbe477da9	-0.1948153
51	0x3fdd5f71	1.7294751
52	0xba8a5418	-0.0010553626
53	0xbe411dd1	-0.1885903
54	0x3ea8ff15	0.33007112
55	0x3ff6dbb0	1.9285793
56	0x3fcf2149	1.6182033
57	0xbef57d53	-0.47947177
58	0xbe284714	-0.16433364
59	0x3bd96769	0.006634642
60	0x3e71e2c4	0.2362166
61	0x3fd41fee	1.6572244
62	0x3e8344ba	0.25638372
63	0x3e627d1a	0.22118035

2.weight f4 [64, 64]
0	0xbf1b2479	-0.6060253
1	0x3e6ce779	0.23135175
2	0x3e73cf0f	0.23809455
3	0xbe49f147	-0.19720946
4	0xbe7f23b4	-0.24915963
5	0xbd009133	-0.031388473
6	0x3ea09d2f	0.31369922
7	0x3dacae24	0.08431652
8	0x3e8d4645	0.27592674
9	0x3e5ca264	0.21546322
10	0x3df8210c	0.12115678
11	0xbdc7932f	-0.0974487
12	0x3dee87b6	0.116469786
13	0x3e5cbb8b	0.21555917
14	0x3d3e2887	0.04642537
15	0xbdc268ae	-0.09492622
16	0xbd14a111	-0.036286417
17	0x3d9cdfae	0.07659851
18	0x3e53504d	0.20636101
19	0xbed51c1e	-0.41623014
20	0x3e0f2cd9	0.13981952
21	0xbd67a9ff	-0.056558605
22	0xbcc0e858	-0.02354829
23	0xbf6be205	-0.92141753
24	0xbf11d76a	-0.5696932
25	0xbd6fc400	-0.05853653
26	0x3cf56fea	0.029960591
27	0xbd9c0026	-0.07617216
28	0x3caccb80	0.02109313
29	0x3d162aaa	0.03666178
30	0xbe9e1399	-0.30874327
31	0x3d2cbe33	0.042173576
32	0xbd113548	-0.035451204
33	0x3cfdc5b8	0.030978069
34	0xbef16792	-0.4714933
35	0x3ce97d68	0.028502181
36	0xbdefd36d	-0.11710248
37	0x3ea3fd4b	0.32029185
38	0xbf4f6931	-0.81019884
39	0x3e2c121e	0.16803786
40	0xbd7ee1f0	-0.06222719
41	0x3e5ad0d6	0.21368727
42	0x3ca594ec	0.020212613
43	0x3e0fd93e	0.14047715
44	0xbe8f131a	-0.2794426
45	0xbda65f64	-0.08123663
46	0xbcf25b2c	-0.02958449
47	0xbda5248e	-0.08063613
48	0xbd1d4a96	-0.03840121
49	0x3c0e1d70	0.008674011
50	0x3d06abf8	0.032878846
51	0xbf021740	-0.50816727
52	0x3e7173d2	0.23579338
53	0x3db808a4	0.08986023
54	0xbdedd9fc	-0.11613843
55	0x3d802ba6	0.06258325
56	0xbf831900	-1.0242004
57	0xbba135e0	-0.0049197525
58	0x3de9c8d2	0.114152566
59	0x3deaf1bc	0.114718884
60	0xbd60e6e0	-0.05490768
61	0xbd8e9192	-0.06961359
62	0x3d0adcbc	0.033901915
63	0xbd98b7a0	-0.07456899
64	0x3ea50b7e	0.3223533
65	0x3e38f35e	0.18061587
66	0x3e377136	0.1791428
67	0x3ec494c7	0.38394758
68	0x3e5e3e82	0.21703532
69	0x3e504905	0.20340355
70	0x3daeabcc	0.085288614
71	0xbd9ba9bc	-0.07600734
72	0xbe15f443	-0.1464396
73	0x3e58f941	0.21188833
74	0x3e266a6d	0.16251536
75	0x3e995dd2	0.29954392
76	0x3e65b9da	0.22434178
77	0xbe216b12	-0.157635
78	0x3e19b857	0.15011726
79	0x3d31b5a8	0.04338613
80	0x3e6c4936	0.23074803
81	0x3e4abd8b	0.19798867
82	0xbe85c7ec	-0.2612909
83	0x3ebcebd7	0.36898682
84	0x3e01cae4	0.12675053
85	0x3e86d5bf	0.2633495
86	0x3df44788	0.11927706
87	0x3f0886c0	0.5333061
88	0x3e6a95ec	0.22908753
89	0xbd829ac2	-0.06377174
90	0x3ea5bc0e	0.32370037
91	0xbd023f94	-0.031798914
92	0xbdc04f2e	-0.09390102
93	0x3d2fdba1	0.042934064
94	0x3e8cc6ca	0.27495414
95	0xbd869091	-0.065705426
96	0x3e1d4b55	0.15360768
97	0x3ce10d48	0.027472153
98	0x3ed7c1f4	0.42140162
99	0xbd5e9860	-0.054344535
100	0xbd32aef3	-0.043623876
101	0xbbed3661	-0.0072391485
102	0x3ea8d04a	0.32971412
103	0x3e5cac76	0.21550164
104	0x3dbd3036	0.09237711
105	0x3d94dad6	0.07268302
106	0x3e350cc3	0.1768065
107	0x3e477e5f	0.194818
108	0x3ee83c11	0.45358327
109	0xbdc5de34	-0.096615225
110	0x3df0f93f	0.1176629
111	0x3deab6ae	0.11460625
112	0x3d8331ae	0.0640596
113	0xbd27b610	-0.040945113
114	0x3de3ad90	0.11117089
115	0x3ef7e267	0.4841492
116	0x3e80cb7a	0.2515524
117	0x3d0fb944	0.035088792
118	0x3d035540	0.032063723
119	0x3e8bbcaf	0.27292392
120	0x3f124e08	0.57150316
121	0xbdfc7174	-0.12326327
122	0xbd9d2fb0	-0.07675111
123	0xbd09d308	-0.03364852
124	0x3d92ea34	0.07173577
125	0x3e649196	0.22321162
126	0x3de8fc12	0.113762036
127	0x3deaa856	0.11457889
128	0xbd96942d	-0.07352481
129	0x3dcc707e	0.09982394
130	0xbdd9352d	-0.106058456
131	0xbdde00f6	-0.10840027
132	0xbb8ecbb0	-0.0043577775
133	0xbd485fe1	-0.048919562
134	0xbd5eb786	-0.05437424
135	0xbd4a6750	-0.049414933
136	0xbcc7be1a	-0.02438264
137	0x3d21db94	0.039516047
138	0x3d9184ab	0.071053825
139	0x3b39759c	0.002829886
140	0xbd060053	-0.032715153
141	0xbd316b19	-0.043315027
142	0xbcdb96ce	-0.026805308
143	0x3daee102	0.085390106
144	0xbc8af3ed	-0.016962016
145	0x3d03e3c7	0.032199647
146	0xbd56ab26	-0.052409314
147	0x3dd6cb95	0.10488049
148	0xba9a7906	-0.0011785335
149	0xbd73c34a	-0.059512414
150	0x3cfe1b5f	0.03101891
151	0x3d8b46ef	0.06800639
152	0x3d0616be	0.032736532
153	0x3c945c70	0.018110484
154	0xbd6ff325	-0.05858149
155	0x3dfff4a4	0.12497833
156	0xbad13180	-0.0015960187
157	0xbdd3a490	-0.10334122
158	0xbd07872c	-0.033087894
159	0xbdb96645	-0.090527095
160	0xbc376a7d	-0.011194822
161	0x3dde614e	0.10858403
162	0xbdd50a7f	-0.104023926
163	0xbc806418	-0.015672728
164	0x3c66e7cd	0.014093352
165	0x3dc4645c	0.095894545
166	0xbd917c93	-0.07103839
167	0x3bb0f4ab	0.0054002604
168	0xbc390d30	-0.011294648
169	0x3ddb1f70	0.106993556
170	0xbe0e2b3e	-0.13883683
171	0x3c9ab425	0.018884728
172	0xbc775b1f	-0.015097409
173	0xbdca68d8	-0.098832786
174	0x3d9135c3	0.07090332
175	0x3d6a80e4	0.057251826
176	0xbc154f83	-0.009113195
177	0xbdf57c4e	-0.119866
178	0xbd7da010	-0.061920226
179	0xbdd7b043	-0.10531666
180	0x3db4c2a2	0.08826186
181	0x3d5b1cbc	0.0534942
182	0xbd780410	-0.06055075
183	0xbe005fc5	-0.12536533
184	0xbdad2dac	-0.08455977
185	0xbd015f58	-0.031585068
186	0xbd847290	-0.064671636
187	0x3dd45fa6	0.10369806
188	0x3de0d6e0	0.10978484
189	0xbda63fe7	-0.08117657
190	0xbd76323c	-0.0601065
191	0x3da05660	0.07828975
192	0x3ec8425a	0.39113122
193	0x3db2966f	0.08720099
194	0x3e8d269e	0.27568525
195	0x3ec82267	0.39088747
196	0x3e8a6cf9	0.27036265
197	0x3eb7b044	0.35876667
198	0x3e291fd0	0.16516042
199	0x3d473804	0.048637405
200	0xbdd7fec4	-0.105466396
201	0x3dfe5e2f	0.12420308
202	0x3e5fec24	0.21867424
203	0x3e58e6b1	0.21181752
204	0x3eb1b8f2	0.34711415
205	0xbdd8d97a	-0.10588355
206	0x3db6e6ed	0.08930764
207	0xbdd03eba	-0.10168214
208	0x3e2538e8	0.1613499
209	0x3e55bd4c	0.20872992
210	0xbd912d17	-0.07088678
211	0x3ebb0b55	0.36532083
212	0x3e66a8f4	0.22525388
213	0x3e4f08cc	0.202182
214	0x3e90da50	0.2829156
215	0x3f03ab7b	0.51433533
216	0x3ec7b206	0.3900301
217	0xbd1bd190	-0.03804165
218	0x3e877d6f	0.26462886
219	0xbd8fcf6c	-0.070219845
220	0x3d883c2a	0.066521004
221	0x3e04fa7d	0.12986179
222	0x3ec5b1d3	0.38612232
223	0x3da136ee	0.07871805
224	0x3e6f9cde	0.23399684
225	0x3d070660	0.032965064
226	0x3ee25cf4	0.44211543
227	0xbdf35f64	-0.11883429
228	0x3d850a9d	0.06496165
229	0x3db3b952	0.087755814
230	0x3f0f4d13	0.5597698
231	0x3e82f37a	0.25576383
232	0x3dc514fe	0.096231446
233	0x3e446653	0.19179659
234	0x3eaaa1ca	0.3332656
235	0x3ec33f8e	0.38134426
236	0x3ecc58c5	0.39911476
237	0xbdeec406	-0.11658482
238	0x3e2da869	0.16958775
239	0x3dfab336	0.12241213
240	0x3e2091b4	0.15680581
241	0xbd9079d8	-0.0705449
242	0x3da392e4	0.079870015
243	0x3f081027	0.53149647
244	0x3e69a2ce	0.22816011
245	0xbd87d714	-0.0663282
246	0x3c1fdfd0	0.009757951
247	0x3e4588b4	0.1929043
248	0x3f23d85b	0.6400201
249	0x3c3eea10	0.011652485
250	0xbcdd43f8	-0.02700995
251	0x3dff1002	0.12454225
252	0xbd4b9f58	-0.04971251
253	0x3e5ea703	0.21743397
254	0x3db60d16	0.08889215
255	0x3c088dc0	0.008334577

2.bias f4 [64]
0	0xbf2b9f53	-0.67039984
1	0x3ed45e6c	0.41478288
2	0xbd6a5fb4	-0.057220176
3	0x3ec56cfb	0.38559708
4	0x3f366cc2	0.712597
5	0x3f2ea0bb	0.68214005
6	0xbf412bd2	-0.7545749
7	0xbd9ce4c0	-0.07660818
8	0x3df3ba28	0.11900741
9	0xbb89846e	-0.004196695
10	0xbcecd508	-0.028910175
11	0x3f7efe5e	0.99606884
12	0x3eb7748b	0.35831103
13	0x3f556fb6	0.8337358
14	0x3c7c5f30	0.015403554
15	0xbf3c5397	-0.7356505
16	0x3f38ccf8	0.7218776
17	0xbda5faf0	-0.08104503
18	0x3d9d7fad	0.07690368
19	0xbacec4bc	-0.0015775184
20	0xbf34532c	-0.7043941
21	0x3f6c30d4	0.92262006
22	0xbec2a5fc	-0.3801726
23	0x3d68c3e8	0.056827456
24	0xbcb79200	-0.022408485
25	0x3b96d260	0.0046027154
26	0xbe9d1b8f	-0.30685088
27	0xbd8d7e02	-0.069088
28	0xbda1eac4	-0.07906106
29	0x3f4750b2	0.77857506
30	0xbf355a7a	-0.7084118
31	0x3edcfe87	0.4316294
32	0xbf590130	-0.84767437
33	0x3f0332b1	0.51249224
34	0xbe4e73bb	-0.20161335
35	0xbf2b9ad5	-0.6703313
36	0x3f2f66bb	0.6851613
37	0xbf5800bc	-0.8437612
38	0xbf4ececc	-0.80784297
39	0xbf48b10e	-0.78395164
40	0xbf2f3fdb	-0.6845681
41	0xbd5ce41e	-0.053928487
42	0x3f5fd9df	0.8744182
43	0xbf3d0942	-0.7384225
44	0xbec28871	-0.37994722
45	0x3dab580d	0.08366404
46	0xbf29a3d8	-0.6626563
47	0x3d7b4126	0.061341427
48	0xbf4d04dd	-0.80085546
49	0x3eda7d10	0.4267354
50	0xbf4a3697	-0.7898955
51	0x3e1270a7	0.14300786
52	0x3f4dc0bf	0.8037223
53	0xbbc37760	-0.0059651583
54	0x3f3aa8a0	0.7291355
55	0x3ec1c25f	0.37843606
56	0xbf407fcf	-0.7519502
57	0x3edfade7	0.43687364
58	0xbf4e5cbd	-0.8061026
59	0xbf0a63bc	-0.5405843
60	0x3cc94cd8	0.024572775
61	0xbf55a9b9	-0.834621
62	0xbf21f9bd	-0.63271695
63	0xbf51b3b6	-0.8191484

4.weight f4 [1, 64]
0	0xbef7c793	-0.4839445
1	0x3a66fbc6	0.0008811321
2	0x3da65940	0.08122492
3	0x3c737a26	0.014860665
4	0x3bc1e700	0.00591743
5	0x3baf6576	0.0053526713
6	0xbeaedb83	-0.3415185
7	0xbcf6d178	-0.03012918
8	0x3dbeb844	0.0931249
9	0x3d185bb7	0.03719684
10	0xbd8cc248	-0.06872994
11	0x3bad26c7	0.0052841636
12	0x3d96a54b	0.07355746
13	0xbcb3d810	-0.021953613
14	0x3df7c23e	0.12097596
15	0xbedcf5fb	-0.43156418
16	0x3d75e9e2	0.0600375
17	0x3dc51989	0.09624011
18	0x3d82e486	0.06391244
19	0xbda6318b	-0.08114918
20	0xbefd7040	-0.49499702
21	0xbccc5e38	-0.02494727
22	0xbce51559	-0.02796428
23	0x3de3ced3	0.11123433
24	0xbdbc4b14	-0.091940075
25	0xbcb19ad0	-0.021680266
26	0xbe3fd4a7	-0.18733464
27	0x3d8a5c48	0.067558825
28	0xbc7e66e0	-0.015527457
29	0x3ca302d3	0.019898808
30	0xbec13630	-0.37736654
31	0xbd487f2e	-0.048949413
32	0xbec50fca	-0.3848861
33	0x3a9b0f18	0.001183006
34	0xbda7a23d	-0.08185241
35	0xbed61af2	-0.41817433
36	0xbb91b909	-0.0044471067
37	0xbedd43e2	-0.43215853
38	0xbec4df30	-0.3845153
39	0xbec49b37	-0.3839967
40	0xbf0c298f	-0.54750913
41	0xbd1aef2b	-0.037825745
42	0x3af33b8f	0.0018557179
43	0xbec51ca4	-0.38498414
44	0xbd6ba306	-0.05752852
45	0xbad952f2	-0.0016580506
46	0xbec7ea21	-0.39045814
47	0x3c0179ea	0.007902602
48	0xbebe54fc	-0.37174213
49	0x3c150fe7	0.00909803
50	0xbef0078d	-0.4688076
51	0xbac591e0	-0.0015073381
52	0xbc21d27c	-0.009876844
53	0xbc6921f0	-0.014229283
54	0x3bbba79f	0.005726769
55	0x3b9a4f73	0.004709178
56	0xbea297de	-0.3175649
57	0x3b51c0de	0.0032005827
58	0xbee1cc23	-0.44101056
59	0xbdc22468	-0.094796
60	0x3c26d570	0.010182723
61	0xbedde54d	-0.43339005
62	0xbf0d66e2	-0.5523511
63	0xbec7b476	-0.39004868
