model_with_lossfunction/dqn_retail_model_1_lr_0.001_ed_0.995_g_0.99.pth (torch, 20976 bytes, 5 tensors)

0.weight f4 [64, 3]
000000 1f ad bd 3e 81 d2 d1 3f 7f 42 1d 3f 47 63 83 3f
       0.37046143 1.6392366 0.6142959 1.0264672
000010 7e 02 65 40 85 39 2d 3e 8e 29 de be 8a 1f db 3e
       3.578277 0.16916473 -0.4339108 0.427975
000020 f0 fb 11 bf 8e fb 39 3f 29 46 27 40 5e 00 f3 3e
       -0.5702505 0.72649467 2.6136572 0.47461218
000030 10 c2 1c 3f 62 3e df bf d3 bc 51 3e 56 0d cd be
       0.61233616 -1.7440913 0.20482187 -0.40049237
000040 75 51 94 3e 73 11 34 3d a1 d3 a0 3f b6 fe 20 c0
       0.28968397 0.043961953 1.2564584 -2.5155463
000050 b8 bd 8f 3f 6f 1a 4c 3f aa 90 10 c0 18 af 9b 3f
       1.1229773 0.79727834 -2.2588296 1.2162809
000060 65 b2 fe be 34 a9 10 3f d6 f7 e1 be 4d 17 5d 3f
       -0.4974548 0.56508183 -0.44134396 0.8636368
000070 8b 69 c2 3f 5a 3a 92 3f fe 29 8e 3f ae b2 17 c0
       1.5188459 1.1424057 1.1106565 -2.3702807
000080 54 90 ed 3e e2 d9 b3 3f ca 0f 0b c0 74 a7 80 3f
       0.46399176 1.4050868 -2.1728387 1.0051103
000090 ba 07 f8 be 8e 5c 2d be 80 cc 23 be ca 02 d8 bd
       -0.48443395 -0.16929838 -0.1599598 -0.10547407
0000a0 34 3b 6d 3e e7 fa 12 bf 04 83 2a be eb 8b a6 be
       0.23167115 -0.57414097 -0.16651541 -0.32528624
0000b0 16 10 9c be 83 b8 55 3f 0d a9 23 c0 78 b0 8e 3f
       -0.30481023 0.8348467 -2.557193 1.1147604
0000c0 b3 5d 01 3f d0 6f f4 bf e4 c5 ab 3f cc af c0 bd
       0.505336 -1.9096622 1.3419766 -0.094085306
0000d0 87 92 0c 3f 98 b0 91 be 49 b7 c0 3e c7 bb 50 40
       0.54911083 -0.28455043 0.37639835 3.261461
0000e0 06 07 c0 3e 3a 0d 0d 3f 12 67 3e 40 df 62 92 3e
       0.37505358 0.5509831 2.975041 0.28591058
0000f0 b7 b7 67 3f f0 6b 19 40 4b 5a 13 3f 18 05 58 3f
       0.905147 2.397213 0.5755965 0.8438277
000100 e0 16 6d 40 4d d0 8b 3e e2 b1 dc be 4e be a0 be
       3.7045212 0.27307358 -0.43104464 -0.3139519
000110 d0 5e 9b bc 91 7f 62 3f a7 cd 69 40 dc 17 c7 3d
       -0.018966109 0.884759 3.653177 0.09721348
000120 8a 18 5d 3f e1 39 84 3e 01 40 7f 3f 8e 6e 8c be
       0.8636557 0.25825408 0.9970704 -0.27428097
000130 44 83 54 3e e2 5b e7 be 3f 9d a2 3f 0a b2 d1 bf
       0.20753199 -0.4518729 1.2704238 -1.6382458
000140 37 11 79 3f 58 1f b6 bc 14 1d d9 3c 80 bb 21 be
       0.9729189 -0.022231743 0.026503123 -0.15794182
000150 62 f7 39 3f a2 af 1e c0 51 36 10 3f 33 c3 0e bf
       0.726431 -2.4794698 0.5633288 -0.557666
000160 4a 7a 96 3e 17 ae 99 bc 2a 47 ba be f6 f5 d8 bc
       0.29390174 -0.01875977 -0.3638242 -0.02648447
000170 8d c6 11 bd 66 ad 0d 3f 04 86 6d 40 a8 6f 83 3d
       -0.035589743 0.5534271 3.7113047 0.06417781
000180 b7 82 16 be 00 e2 0c 3f 47 2e fa be e7 99 4f bd
       -0.14698301 0.5503235 -0.48863432 -0.050683882
000190 29 ab 12 bf 2b 0c 4f 3f a6 b7 66 3f f5 53 3f 3f
       -0.5729242 0.8087794 0.90123975 0.74737483
0001a0 cb c7 f5 3e e7 bf 3a 3f aa 86 d4 bf de c6 66 3f
       0.48003992 0.7294907 -1.6603596 0.901472
0001b0 0f 52 5a 3f 85 7a e3 bf 58 bb a8 3f 76 2e 9b 3f
       0.8528146 -1.7771765 1.3182173 1.2123554
0001c0 ff 53 6e bf 3c 1c 23 3f 9a 1b 3a 3f eb 30 d3 be
       -0.9309692 0.6371496 0.72698367 -0.4124826
0001d0 8d db 36 3f 5e b1 0d bd a7 07 2e 3d de 28 0a 3f
       0.7142876 -0.03459298 0.042487767 0.5396861
0001e0 92 d9 01 3f 6e 02 51 bf f9 bf 91 3f 9f 34 8a 3e
       0.5072261 -0.8164433 1.138671 0.26993272
0001f0 9b 40 58 40 0b 27 62 bc 47 77 66 3f 4b 49 47 40
       3.3789432 -0.013803254 0.9002575 3.1138484
000200 c8 a3 94 3e 86 35 54 3f ed 18 6b 40 42 1a ee 3c
       0.29031205 0.8289417 3.6733963 0.029065255
000210 93 92 71 3e 06 96 9b 3f b3 b4 a5 3e 9a 20 73 3f
       0.2359107 1.2155159 0.32364425 0.9497162
000220 d4 32 16 c0 2b 43 25 3f d3 6b f4 3e a9 84 e2 3f
       -2.3468523 0.64555615 0.47738513 1.7696735
000230 27 58 6d 3f 56 b2 26 3f fa 52 30 c0 3f bc 84 3f
       0.92712635 0.6511587 -2.7550645 1.0369948
000240 b0 c6 1b 3f 1b 02 f9 3f 36 ef 28 3f 4b 44 ea 3e
       0.6085005 1.9453768 0.65990007 0.45755228
000250 53 30 9b bf 09 0c 4c 3f 73 6e 0b bf 27 bf 12 bf
       -1.2124122 0.79705864 -0.5446541 -0.57322925
000260 f4 3b 6c 3e 11 2c 29 3f e8 49 f7 bf 97 01 96 3f
       0.23069745 0.66082865 -1.9319429 1.1719235
000270 d6 42 b0 3f d8 b1 16 c0 a0 0d 3a 3f 6a 98 0d bf
       1.3770397 -2.3546047 0.7267704 -0.5531069
000280 f5 bd fe be 1e e1 de be 03 75 ed be 0f 7a 0e bf
       -0.497543 -0.43531126 -0.46378335 -0.55654997
000290 1f 26 2e 3c 86 a7 08 bf c2 be ac 3d 82 28 02 3e
       0.010629206 -0.5338062 0.08434822 0.12710765
0002a0 8a e4 8c 3e c3 dc 72 40 9e df 88 3d 01 db c1 3f
       0.2751811 3.7947242 0.066832766 1.514496
0002b0 65 ac e9 bf a6 01 a7 3f 3c 60 0d bf 46 8e c2 3d
       -1.8255736 1.3047378 -0.55224967 0.09499793
0002c0 71 9a b0 be 36 92 9c 3f 57 a5 9a bf 2c a5 9c 3f
       -0.3449283 1.223212 -1.2081708 1.2237906
0002d0 34 29 96 3f 21 f7 cd bf 31 b3 27 3f a7 40 18 3f
       1.1731324 -1.6091043 0.655078 0.5947365
0002e0 7b a5 40 40 5c 90 d7 3e cf f3 0b bf b9 cc f9 be
       3.0101001 0.42102325 -0.546689 -0.48789003
0002f0 de eb 8c be e6 a7 95 be 1f 2a 07 3f 71 22 15 3c
       -0.27523702 -0.2922966 0.52798647 0.00910245

0.bias f4 [64]
000000 62 37 b6 3f 00 7c a6 3f 04 29 ed be c9 20 99 3f
       1.4235651 1.3006592 -0.46320355 1.196313
000010 85 00 63 3e 7a fc 77 3e 3d 43 dd 3d 8d 35 36 3f
       0.22168167 0.24217406 0.1080384 0.7117546
000020 60 0b 6d be d5 cf 67 3f 19 1d 25 bf ea 98 26 3e
       -0.2314887 0.905515 -0.64497524 0.1626927
000030 55 f4 ea be 0e e9 a7 3e 03 2e 05 be a5 0f 6c 3e
       -0.45889536 0.32794994 -0.13005833 0.23052843
000040 48 b8 e4 3c 75 cb d0 be 8d 22 41 3f 6d 8a 17 3f
       0.027919903 -0.40780225 0.75443345 0.59195596
000050 e8 6d b4 3f 4d 2c 13 3f 98 a6 41 3e aa 82 b2 3f
       1.4096041 0.5748947 0.18911207 1.3946126
000060 4c f9 b0 3e 4a 61 f6 be 85 39 a5 3d 47 db f0 bb
       0.34565198 -0.481211 0.080676116 -0.0073503586
000070 93 f1 b9 bd b9 d8 c8 3e a2 7e 9c be 9b c7 a3 3f
       -0.0907928 0.39227846 -0.30565363 1.279529
000080 e9 40 c2 3e c5 2e c4 3e 43 f8 ae 3f ef 50 69 3e
       0.37940148 0.38316932 1.3669513 0.2278478
000090 db 32 d4 bd e3 28 ef be e5 aa 4a 3f 2a c9 13 3f
       -0.103612624 -0.46710882 0.79167014 0.57728827
0000a0 e6 77 bc 3e 7f 47 e5 3e 66 a4 a5 3f ee 0c b0 3f
       0.36810225 0.4478111 1.2940795 1.3753946
0000b0 7e 82 51 3f ef 17 20 be 1a 84 0c 3f 0c 49 fe be
       0.8183974 -0.1563413 0.5488907 -0.49665105
0000c0 01 1b 43 3f d7 2a db 3e 3e 97 50 3d 82 24 65 be
       0.7621308 0.42806122 0.050925486 -0.22377208
0000d0 b4 78 76 3e 64 1b 0b bf 25 e3 dd 3e a5 ea 88 3d
       0.24069482 -0.5433867 0.4333736 0.0668538
0000e0 23 d7 61 3f b0 47 33 3f 2f 27 92 3e b2 fe 18 3d
       0.882189 0.7003126 0.2854552 0.03735227
0000f0 30 b2 b0 3c 70 d8 10 3f 6c 01 b7 be 40 c7 02 bf
       0.021569341 0.5658026 -0.35743272 -0.5108528

2.weight f4 [64, 64]
000000 77 19 0a be 96 56 db 3d a2 84 ce 3d d6 28 ab 3d
       -0.13486277 0.10709874 0.100838915 0.08357398
000010 1f 2d 09 bc c4 ef cc bd 9f 0d 0b be e5 15 94 3d
       -0.008372574 -0.10006669 -0.13579415 0.072307386
000020 c8 6b d5 3d b3 b7 a8 3d a8 c4 b3 bd 0e bd eb bd
       0.10420948 0.08238163 -0.087777436 -0.11510669
000030 6c 55 ce bd 04 56 b4 bd c4 9f 2d bd a9 96 f6 bd
       -0.10074887 -0.08805469 -0.042388692 -0.12040455
000040 6d 2a 64 bc 86 3d e9 3d 03 d6 06 bc 94 18 9c bd
       -0.013926131 0.11388688 -0.008229735 -0.076218754
000050 c4 79 c4 3d 32 6f 42 3d 00 2e 9b ba b1 75 c8 bb
       0.095935374 0.047469325 -0.0011839271 -0.0061175455
000060 06 36 06 3d a4 63 c9 bd 10 b0 b5 3d b4 68 c1 bd
       0.032766365 -0.09833458 0.08871472 -0.09443799
000070 b8 fd e1 bd 78 bb 40 bd 3a e0 d9 bd c3 bc 1f bd
       -0.11034721 -0.047053784 -0.10638471 -0.038998377
000080 00 62 f0 bd 60 16 dc bb b8 1e 42 bc 99 c1 de bd
       -0.11737442 -0.0067165345 -0.011848144 -0.108767696
000090 56 b6 a6 bd 08 f2 59 bd 32 b8 07 bd 20 0d 18 bd
       -0.081402466 -0.053209335 -0.033134647 -0.037121892
0000a0 13 df 1d 3d 0d 58 b8 3d 24 5d 7f 3d ba dc ae bb
       0.03854282 0.09001169 0.062344685 -0.0053363713
0000b0 e0 49 c7 3b 7b 3b e0 3d 4e 37 67 bc 10 ae 49 bd
       0.0060818046 0.10948845 -0.014112307 -0.049238265
0000c0 7d 1b d6 bd 89 59 93 bd a4 c2 4f bd e9 f0 c9 bd
       -0.10454462 -0.07194812 -0.050722733 -0.09860403
0000d0 5e 8c 18 bd c8 5c 87 3d 2a ec dc 3d 80 ea b1 3d
       -0.03724324 0.066094935 0.10787232 0.086873055
0000e0 e9 67 f7 3b e3 b3 63 bc 70 4c 17 bc de fa 75 bd
       0.007550229 -0.013897869 -0.009234533 -0.0600537
0000f0 84 5d 96 3d a4 08 01 be 7c ef ae bd 74 52 9c 3d
       0.073420554 -0.12600952 -0.08541772 0.07632914
000100 d3 96 30 be 0b ae 30 be 40 a8 08 bc 0a 09 25 bd
       -0.17245035 -0.17253892 -0.008340895 -0.040291823
000110 13 55 03 3e c2 04 98 3d f8 a8 14 3e 67 d8 85 3d
       0.12825422 0.074227825 0.14517581 0.06535416
000120 42 88 e0 bd d2 cf cc 3d 8d 02 5a bd 6f 2c e3 3d
       -0.10963489 0.10000576 -0.05322509 0.110924594
000130 d8 51 74 3d 68 35 fa bd 10 b4 e5 3d 54 e8 55 3e
       0.059648365 -0.12217218 0.11215985 0.20889407
000140 90 fa 93 3e fc 97 eb bd 48 53 c5 be 26 22 b8 be
       0.28902102 -0.11503598 -0.385401 -0.35963553
000150 04 ba 02 be ff 9a da bd 88 8b b2 bc d9 f8 e8 bd
       -0.12766272 -0.106740944 -0.02179505 -0.11375589
000160 13 df ab 3d 80 30 b7 3c fa 2d e5 3d 0a 6a f9 bd
       0.083921574 0.022361994 0.1119041 -0.121784285
000170 46 c0 12 3d 7c 4f c2 3d d4 55 f2 3d e8 7a bc be
       0.035827897 0.09487817 0.11832777 -0.3681252
000180 14 b7 c8 3d ae 2e 20 3e b5 b1 0e be 05 80 12 3e
       0.098005444 0.15642807 -0.13934977 0.14306648
000190 ce 9d 4a 3e 04 8f e9 3d 26 90 69 bd bc b0 8c 3e
       0.1978676 0.11404231 -0.057022236 0.27478588
0001a0 9b 9f cd 3d 19 62 31 bf 27 7e 31 be 1d c7 ed bd
       0.10040208 -0.6929031 -0.1733328 -0.116102435
0001b0 b4 3d bb bc 37 99 4c bc 56 7e d7 bd bb 8d 37 3d
       -0.02285657 -0.012487701 -0.105221435 0.0448129
0001c0 71 e8 04 be f5 ce 5c 3d b9 c9 d1 bd 79 3a b5 3c
       -0.12979294 0.053908307 -0.10243554 0.022122608
0001d0 d3 18 d3 3d c0 1c 44 3d 7c 86 82 bd 3e fd cb bd
       0.10307469 0.04787898 -0.06373307 -0.099604115
0001e0 f8 22 0c bf 1b f5 b8 3e f8 bf ff 3c b6 1e ba 3d
       -0.5474086 0.361245 0.031219468 0.09087889
0001f0 f4 84 18 3e b4 4c 56 be 18 eb ff bc 72 cc a4 bd
       0.14894468 -0.20927697 -0.031240031 -0.08046807
000200 ac f3 2a be 46 7f 08 be ee c1 dc 3d d1 35 df bd
       -0.16694516 -0.13329801 0.10779177 -0.108989365
000210 f8 de bd bd 80 32 af 3b 5a a8 8d 3e e6 29 d3 3c
       -0.092710435 0.0053465962 0.27667505 0.025776815
000220 64 e5 3b 3d b8 1e 26 bd 0b 4f 75 3d 33 c6 8b 3e
       0.04587306 -0.04055664 0.059889834 0.27299652
000230 62 ca d1 3d 90 bd 89 3c ac 06 09 3d c1 d7 84 3d
       0.102436796 0.016814023 0.03345363 0.06486464
000240 6f 51 41 3e d0 da d9 3d 83 0d 93 be 93 9c 66 be
       0.1887872 0.10637438 -0.28721246 -0.22520666
000250 60 20 05 be 80 18 1b be 08 d8 fa 3c 82 15 73 be
       -0.13000631 -0.15146065 0.03062059 -0.23738673
000260 ec f4 ae 3d 00 06 e8 b9 20 e9 82 3e c0 a5 84 bb
       0.08542809 -0.0004425496 0.25568485 -0.0040480793
000270 1e bf 9a bc 34 bd ba bd fc 90 76 3d 7e b8 a7 be
       -0.01888996 -0.09118119 0.06019686 -0.32757944
000280 da 90 99 3d 00 8b 86 3e 5d 5a 39 be 86 df 23 3d
       0.07498331 0.26277924 -0.18100877 0.04000809
000290 7f 92 4a 3e aa 0d 6b 3d ca eb 6a bd 40 f9 5e 3e
       0.19782446 0.057386078 -0.057353772 0.21774769
0002a0 79 01 31 3e da ec 02 bf b9 32 3c be 06 65 02 be
       0.17285718 -0.51142657 -0.18378724 -0.1273385
0002b0 66 46 07 be 26 53 bd 3b 2e 5e e8 bc b7 07 b5 bd
       -0.13210449 0.0057777343 -0.02836522 -0.08839362
0002c0 15 b8 99 bd d8 0d 21 be 74 cd bb 3d 92 8d 39 3d
       -0.07505814 -0.15727937 0.091700464 0.045301028
0002d0 46 a1 5f 3d 0e 27 91 3d 52 da db 3d 5e 85 e9 3d
       0.05459716 0.07087527 0.10735001 0.11402391
0002e0 5c 24 ed be 0a dc 89 3e 48 2a d3 bc e7 a3 d2 3d
       -0.46316803 0.2692569 -0.025776997 0.10285168
0002f0 b5 f6 a5 3c c6 57 d5 bd d0 a0 8c bd 94 8b c0 3d
       0.02025924 -0.10417132 -0.0686661 0.094016224
000300 b4 f8 8d be 2d ca b3 bd 70 5c e7 3d 21 6b 0e be
       -0.27728808 -0.08778796 0.11296928 -0.13908054
000310 4e c4 67 bd f0 9e 08 bc c0 ed c6 3d 4d 02 07 3d
       -0.056583695 -0.008338675 0.09713316 0.03296118
000320 4c d7 e7 bd 05 87 14 3e 98 ab bd 3d 53 5c 63 3e
       -0.113203615 0.14504631 0.092612445 0.22203188
000330 58 e1 b8 3d 88 f5 9f 3d c0 e2 d7 3c 39 e9 46 3e
       0.09027356 0.07810503 0.02635324 0.19424905
000340 d4 b2 bb 3e ec c2 22 bd f7 6a 85 be f3 c4 5d be
       0.36659873 -0.039736673 -0.2605817 -0.21657161
000350 a8 74 9b bd 00 2a 14 bd 80 0c e9 3a e6 fe 9a bd
       -0.0759061 -0.036172867 0.0017780215 -0.07568149
000360 50 b6 3f bc 92 52 98 3d 65 ba e8 3d ee 71 ac bd
       -0.0117011815 0.07437624 0.11363677 -0.08420168
000370 89 4d 8d bd f0 82 4b bc 02 9a f3 bd dc de ad be
       -0.06899554 -0.012421355 -0.11894609 -0.3395909
000380 30 d3 fa 3d 62 28 ad 3e c2 5a 17 be 2a b0 ba 3b
       0.12247312 0.33819872 -0.14780715 0.00569727
000390 63 5a 9e 3d ab 24 16 3e e6 a2 10 bc 3e f8 c4 3e
       0.07732084 0.14662425 -0.0088279005 0.38470644
0003a0 51 e8 f9 bc 6c 4a 2f bf 73 97 61 be 2d 16 82 be
       -0.030506285 -0.68472934 -0.2203043 -0.25407544
0003b0 53 71 01 be 09 58 d7 3d 1a 65 10 be 31 c2 8a bd
       -0.12640886 0.10514838 -0.14101067 -0.0677532
0003c0 9e c6 1c be d4 a7 24 bd 9d 75 7c bd f8 d6 85 3d
       -0.15310141 -0.040199116 -0.061635602 0.06535143
0003d0 89 77 4e 3e 90 fa f7 3c 7e eb fb bd 76 07 d6 3d
       0.20162787 0.030270845 -0.12300776 0.10450642
0003e0 d9 0a fe be 3e 1c 1e 3e 78 3c 0e 3d a8 e5 2f 3e
       -0.4961765 0.15440461 0.034725636 0.1717745
0003f0 59 2a 0a 3e 8a 79 af be d4 a8 3d 3d dc 63 96 3d
       0.13492717 -0.34272414 0.046303585 0.073432654

2.bias f4 [64]
000000 9e f7 9d bd 91 bc 05 bf ad 01 ec be c9 13 f2 be
       -0.07713245 -0.52240855 -0.4609503 -0.4728072
000010 9b 3c e7 3e 21 64 06 bf e0 5f 11 bf b5 b9 60 3c
       0.45163426 -0.52496535 -0.5678692 0.013716151
000020 85 89 08 3f a3 b3 a7 3e 1b 1f 0f 3f 66 82 d7 bd
       0.5333484 0.3275424 0.5590684 -0.105229184
000030 70 c7 cb be ff 51 68 3d 1b 23 d8 be 44 56 cb bd
       -0.39800596 0.056718823 -0.42214283 -0.09928563
000040 84 1e ff be 8e 4f db 3d 01 7b f2 be 65 80 df be
       -0.4982797 0.10708533 -0.4735947 -0.43652645
000050 49 c6 d4 3d ba a3 8c 3d 03 4b 42 3d 21 55 b8 3e
       0.103893824 0.06867166 0.047434818 0.36002448
000060 ca a5 ff be 0d 2c df be 7d a8 ff 3e 39 f5 e0 be
       -0.49931175 -0.43588296 0.49933234 -0.4393709
000070 ef 03 17 3f 47 43 b6 be 05 8a ea 3e 17 cb e5 3d
       0.5899038 -0.35598204 0.45808426 0.11220377
000080 eb 4b c6 3d 1b 1f fc be 04 98 fd be 84 f7 1b 3f
       0.09682449 -0.49242482 -0.4953004 0.60924554
000090 58 8d 50 3d 75 38 eb 3e 05 f6 e1 be cd 5d e0 be
       0.050916046 0.4594151 -0.4413301 -0.43821564
0000a0 2f 06 3e 3f 3f dc 15 bf 20 49 e8 be 2c 97 14 3f
       0.74228185 -0.58539194 -0.4536829 0.5804317
0000b0 e7 b6 63 be 99 a5 f1 3e dc 48 1e 3f 88 e6 0d 3d
       -0.2223774 0.47196653 0.61829925 0.03464368
0000c0 aa 3f d2 3d 04 dd f5 3e 6a 4f ba bd 61 0b 4f 3c
       0.10266049 0.48020184 -0.09097178 0.01263699
0000d0 7a 84 e7 bd 17 9e 14 bf 4c 38 ab bd ea bd 4f 3d
       -0.11304565 -0.58053726 -0.08360347 0.050718226
0000e0 d8 25 e4 3c 34 1a e1 bd 97 93 b4 3d 18 33 c8 3d
       0.027850077 -0.10991326 0.08817213 0.0977537
0000f0 b1 26 80 bd ca 7e 1e 3f 6c 5e 22 3f a4 41 16 bf
       -0.0625738 0.61912215 0.63425326 -0.5869391

4.weight f4 [1, 64]
000000 0d a8 c8 bc ad b6 f6 be 45 1d b5 be c1 bb b3 be
       -0.024494195 -0.48186246 -0.35373893 -0.35104182
000010 42 ce 8b 3b 01 9c ce be 8c fa b6 be fc 76 c5 3b
       0.004266531 -0.40353397 -0.35738027 0.006026147
000020 69 54 88 3c af 1a 1d 3c 0b 59 c1 3b a2 3f b1 3d
       0.016641812 0.009588881 0.0059005073 0.08654715
000030 48 63 d9 be cb 15 b0 bd eb d7 9f be ac 3d 27 3d
       -0.42458558 -0.08597907 -0.3121942 0.0408303
000040 5f c2 a9 be 50 ce e7 3d 50 92 bf be 37 6e fe be
       -0.33156106 0.11318648 -0.37416315 -0.49693462
000050 ba 42 d8 bd e7 73 1b bd ec b7 26 bd 95 e9 62 3d
       -0.10559602 -0.03795233 -0.040702745 0.055398542
000060 31 57 d1 be 15 d8 d9 be fc 56 af 3c 0d 5e ec be
       -0.40886834 -0.4254767 0.021403782 -0.46165505
000070 44 70 ae 3c 6d 11 c8 be 36 91 28 3d 42 2b a2 bd
       0.021293767 -0.39075795 0.04115411 -0.07918407
000080 6b c9 4f bc 29 90 e9 be e0 8f a8 be 09 c6 bb 3b
       -0.012682299 -0.45617798 -0.32922268 0.0057303947
000090 5c a1 28 3d ea de 72 3c e1 c3 ba be 21 9e 94 be
       0.04116951 0.014823655 -0.3647757 -0.29026893
0000a0 77 a9 98 3c af 29 b5 be a7 a4 b5 be f6 83 43 bd
       0.018635495 -0.35383365 -0.35477182 -0.04773327
0000b0 78 eb 99 bd 8d 69 9f 3b dd 30 c6 3c d0 1b 02 bd
       -0.07515615 0.0048648776 0.024193222 -0.031764805
0000c0 00 8c 7d bb 8b 69 58 3d 94 7c 00 3d 21 a7 b1 bd
       -0.0038688183 0.05283503 0.031368807 -0.086744554
0000d0 86 12 c0 3d 16 fb a4 be 6d 00 67 bd 7c a8 c8 3d
       0.09378533 -0.32222813 -0.05639689 0.09797761
0000e0 c4 88 8c bd c8 38 36 bd 4f cb 39 3c 60 b8 af bc
       -0.068620235 -0.044487745 0.011339976 -0.021450222
0000f0 f8 1e 32 bd 7d c7 d8 bc af f5 b1 3b ce 0d f2 be
       -0.043486565 -0.02646231 0.005430899 -0.47276157
