model_with_lossfunction/dqn_retail_model_2_lr_0.005_ed_0.998_g_0.95.pth (torch, 20976 bytes, 5 tensors)

0.weight f4 [64, 3]
000000 03 d2 96 3e 12 ed 12 3f 9e 7f e0 bc 63 bc 75 be
       0.294571 0.5739299 -0.027404603 -0.23997645
000010 29 73 d7 3e 34 3c 0b 3f 7b c7 08 3f ca 4a c6 bd
       0.42080048 0.5438874 0.53429383 -0.09682234
000020 76 b6 19 3f 16 c3 dc be a2 62 14 3e de d3 13 bc
       0.6004404 -0.4311759 0.1449075 -0.009022681
000030 18 35 dc be 52 f9 45 3e af 26 33 bc 5d 9a 77 3e
       -0.43009257 0.1933339 -0.010934516 0.24179979
000040 2c d3 40 bd 29 b0 a7 3e 76 9d 9f be 2c 5d 04 3f
       -0.04707639 0.32751587 -0.3117482 0.5170467
000050 e7 cd 05 3f 6e 23 a3 be 9d c0 1e be e5 82 bd 3e
       0.5226731 -0.31862968 -0.15503164 0.37013927
000060 58 f0 d0 3e ce 7a 88 3e 5d 8d f8 be eb 59 ba bd
       0.40808368 0.26656193 -0.48545352 -0.09099182
000070 ef 3b d7 be 7e e0 23 3f 43 2c f5 be ba b7 a6 be
       -0.42037913 0.6401442 -0.47885332 -0.32562047
000080 e7 6a b2 3d 09 8a 22 3f af f6 de 3e 3c 49 8c bd
       0.08711796 0.63491875 0.4354758 -0.06849906
000090 bf 3b 08 3f ed 3e 78 be 3c a5 45 3d d0 bb d0 3e
       0.53216165 -0.24242754 0.048253283 0.4076829
0000a0 3f 74 3a 3e 6f ba f1 be 13 bd 01 bf 78 a2 ce 3e
       0.18208407 -0.4721255 -0.5067913 0.4035833
0000b0 ab 2f b7 3e c7 4f ec 3d 88 e2 8a be ef 28 0c bf
       0.35778555 0.11538654 -0.27125955 -0.5474996
0000c0 9d 5d be be 54 d3 e4 3d 4a 0c 4b bc 3d ff 86 be
       -0.37180796 0.1117312 -0.012393067 -0.26366606
0000d0 bc 7d ae 3e 65 0a dc be fb ba 0c bf 5b e3 21 3e
       0.34080303 -0.4297668 -0.5497281 0.15809385
0000e0 6f 2f 87 3e 21 86 0d be 13 13 1c 3e 1d 57 1d 3f
       0.26403376 -0.13820697 0.15241651 0.6146105
0000f0 5a 8b aa 3e c4 8e 7b 3d ae 28 1e be 03 ad 1a be
       0.33309442 0.06141545 -0.15445206 -0.15105061
000100 ec 68 1d 3e d2 97 a5 3d 80 d2 e5 3e 22 dc a4 3e
       0.15372056 0.08085598 0.4488716 0.32199198
000110 f1 ab 1a 3f e2 0d 9a bc 54 99 1d 3d f9 46 a4 3e
       0.6041861 -0.018805448 0.038476303 0.32085398
000120 80 c3 0c bf 7c 1e 73 3e 25 60 0c bf dd 9e 4c be
       -0.5498581 0.23742098 -0.54834205 -0.19982477
000130 5e 2c e6 bd 3b 5d 07 bf 9c 44 cf be bf 04 7f bd
       -0.11238931 -0.52876633 -0.40482032 -0.062260386
000140 ff 23 87 3e 94 61 a8 be 16 61 fa 3e 1e 05 97 3e
       0.2639465 -0.32886946 0.48902196 0.29496092
000150 cf 1d 02 bf bb 82 0d bf 50 75 9a bd ad 19 81 be
       -0.50826734 -0.55277604 -0.07541907 -0.25214902
000160 2a 79 65 be e1 20 c9 3e 11 35 91 3d c0 b7 25 be
       -0.22409502 0.39282897 0.070902 -0.16183376
000170 37 4a 8a be 41 fd db be 91 46 e7 3e f1 dc 94 3d
       -0.27009746 -0.42966655 0.45171025 0.07268704
000180 f4 16 06 3e 01 6e 06 3f 5a f0 0e 3f fa c9 0b 3f
       0.13094693 0.525116 0.558355 0.54605067
000190 2f db 46 bd 63 90 49 3e 67 dd df 3d 73 7b e5 bd
       -0.048548874 0.19683985 0.10930901 -0.11205187
0001a0 a6 ec 90 3e 85 66 a0 3e c2 86 dd 3e bd 9b 52 3d
       0.28305548 0.31328216 0.43266875 0.051418055
0001b0 75 9f b9 3e 85 5b f3 be 70 1d 46 be d2 e2 8d be
       0.3625447 -0.4753076 -0.19347167 -0.27712113
0001c0 53 95 a6 3b 96 6d 00 3f 09 88 f8 be 4b b1 f1 bd
       0.005083719 0.50167215 -0.48541287 -0.11801394
0001d0 04 58 6a be ab de fb be 10 8b 27 3e da a7 51 be
       -0.22885138 -0.4919332 0.16361642 -0.20474187
0001e0 ef 5c 01 3f 7b 7a 07 3d 14 60 b0 bd f7 a4 1a 3f
       0.5053243 0.03307579 -0.086120754 0.60407966
0001f0 b3 aa b5 be 09 d6 fc 3e f9 b0 88 be 0f 79 76 3e
       -0.35481796 0.49382046 -0.2669752 0.24069618
000200 4f ce d2 be 2b f6 99 3b 87 a0 5d 3e 59 21 4f 3e
       -0.41173026 0.004698535 0.21643268 0.20227565
000210 f0 c2 da be 5b 7d 96 be a7 f3 24 3e 44 f5 7f be
       -0.4272685 -0.29392514 0.16108571 -0.24995905
000220 79 67 32 be 56 ad f9 be 58 53 df be ca 59 fb 3e
       -0.17422284 -0.48765057 -0.43618274 0.4909194
000230 b7 7e f3 3e 93 29 e6 3d 06 79 78 be 75 13 e8 3e
       0.47557613 0.112383984 -0.24264917 0.45327345
000240 c6 20 2e 3f f5 cb 33 3e 39 88 e6 3e e9 bb b4 be
       0.6801876 0.17558272 0.45025805 -0.35299614
000250 73 15 c3 3e 55 38 20 3f fd a2 f6 be 90 7c 8a be
       0.38102302 0.62585956 -0.48171225 -0.2704816
000260 25 12 74 bd 03 a9 0e bf 17 74 c7 3e 9d f3 87 be
       -0.059587616 -0.5572664 0.38955757 -0.2655305
000270 8c 71 0c 3f 47 09 48 3d 40 82 8e 3e 70 51 2b be
       0.5486076 0.048836973 0.27833748 -0.16730285
000280 89 97 5c 3d 7a 26 21 3d ac d7 d0 be fc 82 e3 be
       0.053855453 0.039343335 -0.40789545 -0.4443587
000290 a4 75 ac be 14 5b e1 be 37 43 36 be 7b 49 17 3f
       -0.33683503 -0.440148 -0.17799078 0.590965
0002a0 cb 56 21 3e f5 0a 5a be 83 25 a4 3e bb b0 b6 3e
       0.15755765 -0.21293242 0.3205987 0.3568171
0002b0 dc 5c 93 3e 1e c6 0d 3e 1c 48 99 3e 03 27 04 be
       0.28781784 0.13845107 0.29937828 -0.12905507
0002c0 ea d4 ef 3d b0 47 c5 3e d2 b5 1d 3d 02 8a fa 3e
       0.11710532 0.38531256 0.038503475 0.48933417
0002d0 63 93 16 be c6 47 9c bd c3 02 ff bd 8e 9d 16 be
       -0.14704661 -0.07630877 -0.12451699 -0.1470854
0002e0 6f d6 56 3e 12 95 11 3f 3d ac 98 be 36 4a 68 bd
       0.20980237 0.5686809 -0.29818907 -0.056711398
0002f0 41 8b 85 3d 8c 3f a2 bc 78 2c fb bc 16 98 2e 3f
       0.06520701 -0.019805692 -0.030660853 0.68200815

0.bias f4 [64]
000000 f8 c3 fa be 93 eb 1f bd 90 dd 18 3f 52 3e b3 3d
       -0.48977637 -0.03904302 0.5971308 0.08752121
000010 22 76 a7 bd 5f 6f 3e 3e e5 86 1b 3f e6 db b7 3d
       -0.08176829 0.18597172 0.6075271 0.08977489
000020 d6 d4 bb 3e 76 34 be 3e b2 4d b9 3c 21 2f 00 bf
       0.36685818 0.371494 0.022620056 -0.50071913
000030 68 96 90 be be 64 46 3e f2 0d 93 3d f6 58 0c 3f
       -0.2823975 0.19374368 0.07180394 0.54823244
000040 d5 4f 9f be e8 9f 01 3f 00 a7 82 3e 89 f2 b4 be
       -0.31115595 0.5063462 0.25518036 -0.3534129
000050 79 2e 97 bd 88 f7 bd bd a9 b2 8d 3e 8f 2e c1 3e
       -0.07381911 -0.092757285 0.2767537 0.37730834
000060 30 c6 11 be e8 3d d1 3d cc a6 83 3e 09 b2 ff be
       -0.14235759 0.10216886 0.25713193 -0.49940518
000070 13 94 67 3e 22 c0 c2 bd e9 e1 9a be a2 21 50 be
       0.2261508 -0.09509303 -0.3025048 -0.2032533
000080 41 5a 83 be ce b4 b4 be 9d be d0 3e a7 5c b9 3e
       -0.25654796 -0.35294193 0.40770426 0.362035
000090 c0 cd 6d be 80 57 06 bf 54 e2 86 3e b6 0a a9 bb
       -0.23223019 -0.52477264 0.2634455 -0.0051587475
0000a0 78 68 15 3f 40 7b b8 bd e6 16 68 bd c9 1b 5c 3d
       0.5836253 -0.09007883 -0.056662463 0.053737435
0000b0 9a e7 aa ba 61 45 03 bf 5a c2 0f be 62 03 65 be
       -0.0013038993 -0.5127774 -0.14038983 -0.22364572
0000c0 9c 0c 07 3f 5c de 38 3e 31 e5 82 bd 1b 9a d3 3d
       0.52753615 0.18053573 -0.06391371 0.10332128
0000d0 70 ac 76 be c6 dc c5 3e 2a 96 32 be ab 38 5f be
       -0.24089217 0.38645 -0.17440096 -0.21798961
0000e0 85 ff cf 3a d9 6d 05 3f cb be 90 bc 32 5d 73 be
       0.0015868997 0.5212074 -0.017669102 -0.2376602
0000f0 b7 ff 07 3f 0a 69 72 bd e7 18 aa 3e 87 8d a2 bd
       0.53124565 -0.059182204 0.33222124 -0.079371504

2.weight f4 [64, 64]
000000 4a d8 07 3d 2d 4f ec bc 5b 88 0a 3e e0 ce 5b 3d
       0.033165254 -0.028846348 0.13528578 0.05366409
000010 ae c2 dd bd 46 a3 29 3d ac bf f1 3d c3 74 4d bc
       -0.10828148 0.041415475 0.11804137 -0.012540045
000020 6f 84 d3 bd 26 d3 f0 3d 76 ce c6 3d 09 c8 02 3c
       -0.10327994 0.11759023 0.09707348 0.007982262
000030 1e 01 a0 3d 55 da 44 3c d8 dd 24 bd 5f 84 47 bd
       0.07812713 0.012014945 -0.04025063 -0.048710223
000040 48 80 8d 3c 20 c8 b0 bd d8 ab 05 3e fc d6 37 3e
       0.017273083 -0.08631921 0.13053834 0.17953104
000050 24 5f bd 3d 5f 7f 02 3e f3 14 36 3c 75 ec cb bc
       0.09246662 0.127439 0.011113393 -0.024893025
000060 48 a6 93 bd 80 7c ba 3b 2f 32 4a 3d 16 23 38 bd
       -0.0720945 0.005691111 0.049364265 -0.044955336
000070 38 80 54 3d b8 31 c6 3c 45 fe 04 bd 04 28 98 bd
       0.05188009 0.02419363 -0.032469053 -0.074295074
000080 0a e4 2f 3e 4d 42 e1 3d 1a 28 8e 3c 42 a0 ae 3d
       0.17176834 0.10998974 0.017353106 0.085266605
000090 51 8f 12 3d 84 ac c0 3c a2 64 e9 bd 4a 42 86 bd
       0.03578121 0.023519762 -0.11396147 -0.065556124
0000a0 15 f3 65 3d c8 bc 6b bc d8 e4 75 3d 37 eb cc 3c
       0.056140024 -0.014388271 0.060032696 0.025014503
0000b0 fc b7 d5 3d 50 c4 f2 3c 32 1e 67 3b 32 79 e9 3c
       0.10435483 0.029634625 0.00352658 0.028500173
0000c0 6c cb 5d 3d f9 30 e1 bc ae e0 8b 3d f4 e5 36 3d
       0.054149076 -0.027489172 0.068299636 0.044652894
0000d0 ca f6 22 3e 00 6b 4c bd 7e 94 ec bd b9 a2 21 3e
       0.15914455 -0.04990673 -0.1155176 0.1578473
0000e0 6e ec 5b bd e0 36 6f 3c 8a 0d 1b 3c 3c 80 94 3d
       -0.053692274 0.014600486 0.009463677 0.07251021
0000f0 60 0f 18 3d 5c 77 2f 3e 88 f9 58 3d 11 54 18 3e
       0.037124038 0.17135376 0.052972347 0.14875819
000100 4c d8 1a bc 77 b4 64 3d c8 1d 86 3d f0 11 95 bc
       -0.009450983 0.055836167 0.06548649 -0.01819703
000110 68 1d d2 bd 62 aa 84 3c 5f 65 e8 bd dc 3c 43 bd
       -0.10259515 0.016194526 -0.1134746 -0.047665462
000120 1b 96 b9 bd 90 12 b1 3d 18 7b 5b bd 36 2d 5e bd
       -0.090618335 0.08646119 -0.05358419 -0.054242335
000130 94 cb 66 3d 93 b8 fc bd 03 cc 91 3d d2 84 0b 3e
       0.05634649 -0.12339892 0.0711899 0.13624886
000140 74 58 77 3d 48 c7 c8 bc 94 c1 9f 3d 16 4d ce 3d
       0.06038709 -0.024509087 0.07800594 0.10073297
000150 c1 e9 61 bd a0 67 5a bd 48 7d 11 3d 55 bb e1 bd
       -0.055154566 -0.05332148 0.035519868 -0.11022059
000160 40 cb 05 bb a6 3a f2 3d ce 5f 8e bd c0 91 33 3d
       -0.0020415336 0.118275926 -0.06951867 0.04384017
000170 da fb c8 bd 1e d4 e3 3d d8 18 63 3c 2c b2 ec bd
       -0.09813662 0.111244425 0.013860904 -0.11557421
000180 05 23 ad 3d f6 29 07 3c ea 90 7b 3c 20 41 aa 3d
       0.08453945 0.00824975 0.015354374 0.08313203
000190 4e cc 49 3d 97 6f c1 bd de 7a be 3d 08 90 6a bd
       0.049267106 -0.09445112 0.09300779 -0.057266265
0001a0 7a 93 7c bd 2a ce cd bd 9a 9d d6 3d 12 26 43 bd
       -0.061664082 -0.10049088 0.10479279 -0.04764373
0001b0 b2 2a 9d bd 58 bd ae bc b4 68 19 3c 6b 37 7f 3d
       -0.07674159 -0.02133052 0.009363342 0.06230871
0001c0 88 43 9a bd 00 e0 dd bd d6 f3 dd bd ae 40 c5 3d
       -0.07532412 -0.1083374 -0.10837524 0.09631477
0001d0 b2 b8 95 bd 14 5a 82 bb 58 56 2e 3d e6 83 9f 3d
       -0.073106185 -0.0039780233 0.042562813 0.077888295
0001e0 a4 a7 a0 bd 8f 3c 00 bd 82 bd db 3c d8 5b 5f bd
       -0.07844475 -0.031307753 0.026823763 -0.05453095
0001f0 98 f3 49 3d 9f 0e a5 3c 00 e1 e7 3d 56 2c 2c bd
       0.049304575 0.020148573 0.11322212 -0.04203447
000200 dc 0d ff bd 80 da c7 3d 68 75 ed bd 40 59 a2 3b
       -0.12453815 0.097584724 -0.11594659 0.004954487
000210 26 2b c1 3d 88 fc 84 bc c8 be 16 3d 30 5f 18 bc
       0.09432058 -0.016233698 0.036803037 -0.009300038
000220 8a a5 ab 3d 20 c8 e7 bb 00 0a 00 ba c0 07 63 bc
       0.083811834 -0.0070734173 -0.00048843026 -0.013856828
000230 14 af a0 3d f0 59 a8 3c 38 55 ab bd c8 b1 f3 3c
       0.078458935 0.020550698 -0.083658636 0.029747859
000240 18 50 d2 3c bc 33 5e bd 20 10 ad bb b8 e0 e8 bc
       0.025672957 -0.054248556 -0.0052814633 -0.028427467
000250 48 99 ed bd c6 d1 dc bd 98 46 f6 3c 54 d9 c3 3d
       -0.11601502 -0.107821986 0.030062959 0.095629364
000260 a4 31 d7 3d e4 63 76 3d f2 6d ad bd b8 9b ad bd
       0.10507515 0.060153857 -0.08468236 -0.084769666
000270 22 79 ff 3d cc 75 2b 3d d6 30 b4 bd 40 69 84 3b
       0.12474276 0.041860387 -0.08798377 0.004040867
000280 c2 de bb bd 28 9d d3 3c ac c7 99 bd 70 36 98 bc
       -0.09173347 0.025831774 -0.075087875 -0.018580645
000290 68 3e a6 3d 04 02 c9 bd 3e 1a ae bd 98 c6 ca 3c
       0.08117372 -0.098148376 -0.08501099 0.0247529
0002a0 f4 25 8c bd 14 9c aa bd 9a 68 c8 bd f8 6b b3 bd
       -0.068431765 -0.08330551 -0.09785576 -0.08760828
0002b0 7c 10 20 3d 90 32 11 bd d0 a0 e9 3d d8 dd 8e 3d
       0.03907822 -0.03544861 0.11407626 0.06975907
0002c0 82 28 85 bd 9c 2c 1c 3d ec ef 33 3d 10 d5 e6 3d
       -0.06501867 0.03812848 0.04392998 0.11271107
0002d0 60 70 13 3c fe 25 fa 3d 28 dc e2 3c be 05 b1 bd
       0.00899896 0.12214278 0.02769287 -0.08643673
0002e0 34 50 40 3d 5c 27 fb bd ac c8 7c bd 3e 26 ac bd
       0.046951488 -0.122633666 -0.061714813 -0.084057316
0002f0 18 ed b7 3d 60 4f 93 bc 24 d1 43 bd 36 51 ef bd
       0.08980769 -0.017982185 -0.047806874 -0.11685412
000300 94 b4 bd 3d 3f 7a df 3d 46 65 55 bd c2 2a a2 3d
       0.09262958 0.109119885 -0.052098535 0.07918312
000310 34 c9 9c bd 82 3f 57 3d 4b f4 01 be 00 7f 9a bd
       -0.07655564 0.0525508 -0.12690847 -0.075437546
000320 54 67 d8 bd 81 73 00 3c d2 a4 f3 bd a4 a4 c8 3c
       -0.10566583 0.007840038 -0.11896671 0.02449257
000330 ea 19 35 3d 6a f2 0e bd ba 70 da 3d db 95 c1 3c
       0.044214167 -0.034899153 0.10666032 0.023631027
000340 dc 9c 26 3d 78 73 ba bd 5c 9b d3 bd 5d 66 01 bd
       0.040676937 -0.09104055 -0.10332367 -0.03159176
000350 84 df 73 bc 12 38 a8 3d ba ae 1e 3b 56 e3 d0 3b
       -0.014884833 0.082138196 0.0024213032 0.006374757
000360 f6 d8 98 3d 60 3a c6 bd 88 6d 92 3d f4 7b 51 bd
       0.07463257 -0.09679103 0.07149798 -0.0511436
000370 68 a3 ea 3d 00 ce dc b9 79 74 33 bc 40 b2 a7 bb
       0.114569485 -0.00042115152 -0.010953062 -0.0051176846
000380 23 9a a8 3d b6 3b 5c bd 67 b6 06 bd c1 3d b4 bd
       0.08232524 -0.053767882 -0.032888796 -0.08800841
000390 78 66 e6 bd 20 16 0e 3c 20 f9 ca 3b 68 6a 6f 3d
       -0.11250013 0.008672267 0.006194249 0.058451086
0003a0 92 98 55 3d d6 1f b3 3d 3c f5 a9 bd e7 b5 0c be
       0.052147456 0.087463066 -0.08298728 -0.13741265
0003b0 98 e3 02 3d d8 f5 24 bd 20 00 3b 3c 1b 17 ca bd
       0.03195533 -0.040273517 0.011413604 -0.09867688
0003c0 84 b4 d9 bd 50 04 2b 3d 6c f2 c0 bd 78 41 9b bc
       -0.10630134 0.04175216 -0.09421238 -0.018952116
0003d0 b0 2c a6 3d 82 4c de bd 6c 73 3d 3d c6 28 c5 3d
       0.08113992 -0.108544365 0.046252653 0.096269175
0003e0 60 93 ba 3d 59 60 2f 3d b7 be 39 3d cd 48 53 bd
       0.09110141 0.042816494 0.045347895 -0.0515831
0003f0 d8 6f c2 bc 44 16 e5 bd 4c ac fd 3d 7b d6 2e bd
       -0.023734972 -0.111858875 0.12386379 -0.042685013

2.bias f4 [64]
000000 1a 63 67 bd 5a 83 ac bd ac fe 70 3d 5f e5 da 3c
       -0.056490995 -0.08423491 0.058836624 0.0267207
000010 d1 de ee 3b c3 64 43 bd 23 56 86 bc 38 d2 cd 3d
       0.0072897454 -0.047703516 -0.016398495 0.10049862
000020 24 00 89 bd ee a0 d9 bd 30 bc ad bc fe 18 42 3e
       -0.0668948 -0.10626398 -0.021207899 0.18954846
000030 46 f7 97 3d 98 d1 57 3d da 5d e2 bd 60 cd f9 3c
       0.074202105 0.05269012 -0.11053057 0.030493438
000040 10 10 f0 3d f0 ab db bd 8f 87 67 3c 67 ae fe 3b
       0.11721814 -0.10726154 0.014131441 0.007772255
000050 c6 bd 9e bd 0b 6d b1 3d dd 8c b7 bd 02 09 88 bd
       -0.0775104 0.086633764 -0.089624144 -0.06642343
000060 30 cc e4 bd f7 0f 16 be 70 00 cb 3c 78 cf bf bc
       -0.11171758 -0.14654528 0.024780482 -0.023414358
000070 22 39 d0 3d 3c 46 05 bd 6b 21 ac bd 56 f4 84 bc
       0.10167147 -0.032537684 -0.084048115 -0.01622979
000080 f5 ea 01 3d 60 ad 11 3d d7 ae 77 3d 57 f5 b0 3d
       0.031718213 0.035565734 0.060469475 0.08640545
000090 9e 25 5e bd 7c d5 e4 3d 35 5b e7 bd 40 bd dd 3c
       -0.054235093 0.111735314 -0.11296693 0.02706778
0000a0 c0 aa 08 bd b0 ad 35 bd 49 71 8d bc 81 8d 7f 3c
       -0.033365965 -0.044355094 -0.017265933 0.015597702
0000b0 20 f1 9f 3c aa f8 c1 3d 56 6f ca bd 3d 20 0d 3e
       0.019524157 0.09471257 -0.09884517 0.13781829
0000c0 ce ca b3 3d 3b f3 1f 3e 90 1d 51 bd ac 0d 06 be
       0.08778916 0.15620129 -0.051053584 -0.13091153
0000d0 b3 3f d7 bd c2 4b d8 bd 57 f6 de bd 44 94 25 3d
       -0.105101965 -0.10561325 -0.10886829 0.0404246
0000e0 80 af 5a bd e4 1f 70 3d 50 3f 04 be 44 9c b5 bd
       -0.053390026 0.058624163 -0.12914777 -0.08867696
0000f0 7c cd 0e be 25 6c 04 3d 16 34 43 3d 9f 0c d3 3d
       -0.13945574 0.032329697 0.047657095 0.10305142

4.weight f4 [1, 64]
000000 3f 3b 2e be c8 1c 13 bb 74 22 a6 3d b1 b5 18 3b
       -0.17014788 -0.0022447575 0.0811204 0.0023301656
000010 49 8a 97 3d 74 08 ad 3d f5 47 83 be c4 34 fc 3d
       0.07399423 0.08448878 -0.25640836 0.12314752
000020 78 80 a9 bd 49 4a 8d 3d 14 a2 6e bd 36 f2 94 be
       -0.082764566 0.068989344 -0.05826004 -0.29091042
000030 12 0b e1 3d 79 38 12 bd f6 b2 d2 3d ec 01 ca 3d
       0.109884396 -0.035698388 0.1028804 0.09863648
000040 40 6c 80 be 67 4e 2e bd d9 7f bb bb 72 89 80 be
       -0.25082588 -0.04255524 -0.0057220277 -0.25104862
000050 f0 55 35 3a f6 8d 51 be 1f 15 90 bd 10 3f 77 3c
       0.0006917408 -0.2046431 -0.070352785 0.015090719
000060 c0 a0 00 3b e7 39 a2 3c a8 37 ec bd b8 70 aa bc
       0.0019627064 0.019803 -0.11534053 -0.020805702
000070 60 c0 a1 be fd 62 7c be 36 16 cc 3d 82 6e 95 bb
       -0.31592083 -0.24647136 0.09965174 -0.0045602927
000080 52 cc de bd b7 c5 8b be 8d 62 96 3c c9 a3 5f be
       -0.10878815 -0.27299282 0.01835754 -0.21839823
000090 0b f5 a8 3d 24 8d 50 3d b4 fc dc 3d 82 92 8b 3d
       0.08249863 0.050915852 0.10790387 0.068150535
0000a0 3a 99 de bd 4a ac c7 bd 3b b5 97 be 39 26 91 bd
       -0.108690694 -0.097496584 -0.29630455 -0.070873685
0000b0 60 21 58 bc e7 18 92 3d 60 56 5f bc 36 d7 68 be
       -0.013191551 0.07133656 -0.013631433 -0.22738346
0000c0 39 f7 99 3d 4d 0d 44 be 8d b4 0b be 72 87 84 bc
       0.07517857 -0.19145699 -0.13643093 -0.016177867
0000d0 80 65 db 3d 1a 08 c9 3d ca 01 a0 bd 1c ef 32 bd
       0.10712719 0.098159984 -0.07812841 -0.043685064
0000e0 8e 7f f9 3d e0 76 d6 3c 64 99 92 3c c8 c2 fb 3d
       0.12182532 0.02617973 0.017895408 0.12293011
0000f0 e0 13 75 3a d1 4f 6c be fe 55 96 bd d8 46 d3 3d
       0.000934897 -0.23077323 -0.073406205 0.10316247
