model_with_lossfunction/dqn_retail_model_4_lr_0.002_ed_0.997_g_0.98.pth (torch, 20976 bytes, 5 tensors)

0.weight f4 [64, 3]
000000 f8 42 aa 3d c2 8b 5b be 60 ba 91 3e 25 83 8a 3e
       0.083135545 -0.21440032 0.28462505 0.2705318
000010 62 ac b9 be bb 0d cd 3e 19 dc c6 3e cb a9 93 3e
       -0.3626433 0.40049538 0.38839796 0.2884048
000020 71 d4 0e bf 07 df c7 3d b1 a1 b3 3e 71 83 1d 3f
       -0.5579291 0.09759336 0.35084298 0.6152869
000030 ed e2 63 3c 2d cd 98 be b0 2d aa bc 7c bd 87 bd
       0.013909084 -0.29844037 -0.020773739 -0.06627938
000040 9e 11 fe be c8 08 74 be 34 b8 07 3e 46 65 a0 be
       -0.49622816 -0.23831475 0.13253862 -0.31327266
000050 e7 67 b2 be b6 d8 06 bf fc f6 ec 3e 2b cf 27 3e
       -0.34844896 -0.52674425 0.46282184 0.16387622
000060 c1 72 ef 3e 41 6b e8 3e 45 81 77 3e 9c a3 90 be
       0.46767238 0.45394328 0.24170406 -0.28249824
000070 a0 78 12 3e 44 57 dc bc 84 0f 8f 3e 67 8d 90 bd
       0.14303827 -0.02689708 0.27941525 -0.0705822
000080 54 14 98 3e 8d 1e 53 be b8 2f 79 3d a4 30 fa 3c
       0.2970301 -0.20617123 0.060836524 0.030540772
000090 1a df 1d 3f cb f3 fe be 69 31 d2 3e e7 fa c2 be
       0.6166855 -0.49795374 0.41053322 -0.38082048
0000a0 b0 ca 09 3f 95 92 40 3e 33 60 21 3f ce 02 13 3f
       0.538249 0.18805917 0.63037413 0.57426155
0000b0 4f db 25 3f 60 3b b2 3d 32 06 a5 be ef ef 1e 3e
       0.64787763 0.08702731 -0.3223129 0.15521215
0000c0 3a 0e 71 be 26 3f fe 3c 77 05 b0 be d0 aa 3b be
       -0.23540583 0.03103597 -0.3437917 -0.18326879
0000d0 fb 1b 00 bf 14 b1 f3 be 95 e3 ad 3e 1b 25 cd be
       -0.50042695 -0.47596037 0.33962694 -0.40067372
0000e0 c0 84 e3 3e 8f 1f e4 be 81 a7 18 3e 17 00 15 3e
       0.44437218 -0.44555327 0.14907648 0.14550816
0000f0 11 e7 17 be de 93 42 be bd 82 04 be 5b 7a 25 be
       -0.14834239 -0.1900172 -0.12940498 -0.16159956
000100 39 95 80 be 13 53 d2 3e d5 d6 0f bf 12 e1 f6 be
       -0.25113848 0.41079006 -0.5618718 -0.4821859
000110 1d 0f 41 3e 82 70 fc bc dc f8 99 3e 1b 8d 15 3f
       0.18853422 -0.030815367 0.30072677 0.58418435
000120 18 d0 d8 3e ea d6 d6 3e a4 6e 0d 3f 36 c4 ea 3e
       0.42346263 0.4196084 0.5524695 0.45852822
000130 d5 ba a6 3e 52 9a d5 3e a8 72 d6 be d9 0f bd bc
       0.32564417 0.417193 -0.4188435 -0.023078846
000140 dc dd 9d be c4 f5 9d 3e dc ed 8b bd 57 6d 75 3e
       -0.30833328 0.30851567 -0.068324775 0.23967491
000150 e8 6f 0d 3f ef 68 da bd 29 7b ac 3d 85 d5 ce be
       0.5524888 -0.10664546 0.084219284 -0.40397277
000160 41 29 d3 3e a1 f3 14 3f 41 6a b7 3e 70 38 e4 bd
       0.41242412 0.5818425 0.35823253 -0.11143577
000170 98 e9 7f 3c 6d be f4 3e 92 39 c6 3e 16 c1 e4 be
       0.015619658 0.47801533 0.38715798 -0.44678563
000180 68 19 4e 3e 95 47 9c bd 76 73 b7 3e 9f 42 ed 3e
       0.20126879 -0.07630841 0.35830277 0.4633989
000190 a9 3b 0e 3e 70 e1 28 3f be a6 0a 3e 1f 08 99 3e
       0.13889946 0.6596899 0.1354017 0.29889008
0001a0 bc 7b 33 3e 92 ce ff 3e e8 7c fc 3e f6 f5 0f 3e
       0.1752767 0.49962288 0.49314046 0.1405867
0001b0 d4 42 fc bd 6c 6a 0d be 21 4b f3 be 5f bf 2d 3d
       -0.12317434 -0.13810128 -0.47518256 0.042418834
0001c0 26 e5 d7 3e e5 db f7 3e 4b 03 55 3e 29 b1 3b be
       0.42167014 0.48409954 0.20802037 -0.183293
0001d0 09 35 e4 bd ff 1e 2f 3d 38 cb b0 3e 26 40 12 3f
       -0.11142928 0.04275417 0.34530044 0.5712913
0001e0 cc ae d2 3e c4 50 df 3e 15 1a 90 3c 25 ef f0 be
       0.41148984 0.43616307 0.017590562 -0.47057453
0001f0 9e 73 fa 3d fa a1 d8 3e 47 f5 64 3e e5 15 dc bd
       0.122290835 0.42311078 0.22359191 -0.107463636
000200 21 5a dd 3d ef 58 84 bc df 9f bd be 91 96 84 be
       0.10808206 -0.016155688 -0.37036034 -0.25896123
000210 77 5a 98 3e 73 62 00 3f 2d c0 24 3f a5 07 60 be
       0.2975652 0.5015022 0.64355737 -0.21877916
000220 68 cd dc 3d dc 99 30 3e 54 6d 98 3e 05 7b 7f be
       0.10781366 0.17246193 0.2977091 -0.24949272
000230 08 43 83 3e 83 87 7d 3d da 28 9d 3e 03 35 80 be
       0.25637078 0.061896812 0.3069523 -0.25040445
000240 2d d1 08 bf 23 f9 a2 bd a9 6a 08 3f 30 e4 41 bd
       -0.53444177 -0.07957675 0.5328775 -0.047336757
000250 ef e7 05 bf c7 c3 0a 3f 12 52 c3 3e 75 fd 10 3f
       -0.5230703 0.5420498 0.38148552 0.56636745
000260 49 ff f2 be f0 1a 07 bf 89 01 ff 3d 4a 73 13 bf
       -0.47460392 -0.5277548 0.12451465 -0.5759779
000270 fc 78 50 be da 24 98 be bd 6e c7 3d 71 4e 1c 3f
       -0.20358652 -0.29715616 0.097379185 0.6105719
000280 24 9c 3e 3e 42 d6 ef 3b 73 0e 1b be 10 9b 13 3f
       0.1861425 0.0073192427 -0.1514223 0.5765848
000290 bd e3 8e 3e d9 48 75 be f2 c4 ae be f9 bb 3f be
       0.27908126 -0.2395357 -0.34134632 -0.1872405
0002a0 76 1d 88 be 2d 03 0c 3e 2e ed 08 3f 42 97 ee 3d
       -0.26584977 0.13673086 0.5348691 0.11649944
0002b0 ed 96 8c be 92 9a db be 1d bd bd 3c 7f ea b0 bd
       -0.27458897 -0.42891365 0.023161465 -0.086384766
0002c0 2b 58 08 3f 91 8b 0a 3f ca 92 b8 be f6 78 45 3d
       0.53259534 0.5411921 -0.3604949 0.04821106
0002d0 d3 f9 6f bc 3e b2 09 3f 98 4e e4 3e 2e ca 94 be
       -0.014646965 0.537876 0.44591212 -0.290605
0002e0 3b 2d f9 bd 2e d2 9f be 22 5b d2 3e 66 f2 57 3d
       -0.1216683 -0.31215042 0.41085154 0.052721404
0002f0 ba 38 11 bd a9 d2 33 bd a2 05 52 be 90 4e 08 be
       -0.03545449 -0.043902073 -0.20509961 -0.13311219

0.bias f4 [64]
000000 bc fd d8 be 34 a9 93 be c4 f8 04 3f b3 2d 83 bd
       -0.42381084 -0.2884003 0.51942086 -0.06405201
000010 70 55 e0 be 9a 62 7e 3e 09 99 a8 3e 1e d0 2a 3e
       -0.43815184 0.24842301 0.32929257 0.16680953
000020 78 e7 12 3f ad 1e 68 be 59 73 45 bd 53 a5 90 be
       0.57384443 -0.22667952 -0.048205707 -0.28251132
000030 09 3d 09 3e fc 77 be 3e df 7d 15 3f 14 40 e0 be
       0.1340219 0.37200916 0.5839519 -0.43798888
000040 a7 23 0a bf 20 4b b0 be b0 54 a1 be da aa a2 3e
       -0.5396065 -0.34432316 -0.31509924 0.31770974
000050 4c 7b 11 bf 86 ef 1b 3f 76 4d 1f be 6f 5a 0c 3f
       -0.5682876 0.6091236 -0.15556893 0.5482549
000060 fa 5b d7 3e 2b e0 80 be 22 4d 00 3e e7 07 52 3e
       0.4206236 -0.25171027 0.12529424 0.20510827
000070 35 e3 a8 be 6e e5 d2 be 49 96 b2 3e dd ac 8a 3d
       -0.32985845 -0.41190666 0.34880283 0.06771252
000080 85 5e 0a 3f a7 9e ee be cd 8d 06 3f a5 cb 10 3f
       0.54050475 -0.46605417 0.5256012 0.56560737
000090 e3 e6 7d 3d 31 02 f8 3e f1 dd e1 be ca b4 d6 3e
       0.06198777 0.48439172 -0.4411464 0.41934806
0000a0 10 0c ff 3d 50 3b c6 be cb e4 17 be 75 e3 31 3e
       0.124534726 -0.38717127 -0.14833371 0.17371924
0000b0 bf a2 ba be 69 8b 0c bf fb 54 00 bf c6 73 67 be
       -0.3645229 -0.54900223 -0.5012967 -0.22602758
0000c0 fb 04 cc 3a 3d e4 49 3e 41 bb ec be bd 3f 5b be
       0.0015565449 0.19715972 -0.46236613 -0.21411033
0000d0 61 77 aa 3b 98 aa 83 be 99 d9 d8 be ea 0b a2 bd
       0.0052022194 -0.2571609 -0.42353514 -0.07912429
0000e0 59 fe bc be d9 f0 08 3f 96 6a 3b bc b7 10 0b 3f
       -0.36912802 0.53492504 -0.011438986 0.5432238
0000f0 23 7e 9c be 7b c0 8a be 8a 8b 15 3f de dd b4 be
       -0.30564985 -0.27099976 0.58416045 -0.3532552

2.weight f4 [64, 64]
000000 41 64 92 3c e4 fd 88 3d 30 50 4c bb 11 5c 81 3d
       0.01787007 0.06689051 -0.0031175725 0.063163884
000010 c6 1a aa 3d 52 19 cb 3d 42 7f e2 bd 3c af 98 bd
       0.08305888 0.09916939 -0.11059429 -0.07455298
000020 c6 4b 80 bd a6 bd cc 3d 7f b6 13 3d ba 1d ba 3d
       -0.06264453 0.0999711 0.036062714 0.09087701
000030 17 f4 8d bd 6e ec ec 3d 7f 0d 46 3d 41 e9 7c bd
       -0.06931322 0.11568533 0.048352715 -0.061745886
000040 20 86 a8 3b 14 3b 90 3d a8 17 d9 3d 8e 21 c1 bd
       0.005142942 0.07042518 0.10600215 -0.09430228
000050 e0 5a 24 3d fe e1 39 3c 52 e3 9e 3d f3 eb df bd
       0.040125728 0.011345385 0.07758202 -0.109336756
000060 36 9b 05 3d 17 9a a3 3d 8c e8 8d bd ee e7 e2 3d
       0.032618724 0.07988375 -0.069291204 0.11079393
000070 f2 c4 8e bd 40 33 72 bd 9e be db 3c 43 c7 cc bd
       -0.06971158 -0.059130907 0.026824292 -0.09998944
000080 10 4a 02 3b 35 bc 0d bd 29 cf 87 bd 68 99 26 bc
       0.001988057 -0.034603316 -0.066313095 -0.010168411
000090 44 db f9 bd 22 27 88 bd d6 8e 4c 3d 51 a8 d7 bd
       -0.12200025 -0.06648089 0.049940906 -0.10530151
0000a0 eb ce e9 bd 56 b7 f8 bd de 47 9b bd 6c 5d 18 bd
       -0.114164196 -0.121443436 -0.07582067 -0.03719847
0000b0 c2 7d 42 bc 10 95 1f bd 0d c6 fa bd 49 c8 40 bd
       -0.011870803 -0.038960516 -0.122448064 -0.047066007
0000c0 9e 1e c5 bd b6 19 e7 3c df 05 fd bd 36 95 b4 bd
       -0.096249804 0.028210502 -0.123546354 -0.08817522
0000d0 2a 83 82 3d ae a8 ff bb f8 d3 23 bd b8 8a 6b 3d
       0.06372674 -0.0078020906 -0.03999707 0.05750534
0000e0 76 2b 83 3d d8 86 bb 3d 1f 28 ac bd 7f cf ef 3d
       0.06404774 0.09156579 -0.0840609 0.117094986
0000f0 e2 f9 aa 3d 54 29 40 3d 8a 74 dd 3d a0 30 da bd
       0.083484426 0.046914414 0.10813244 -0.10653806
000100 8e 3a 89 bd bb 02 81 bd 41 8a 66 3d 8b 15 e7 3c
       -0.067006215 -0.06299349 0.056284193 0.028208515
000110 64 d6 31 bd 62 7f f4 bd 6e 86 ba 3d 62 66 b9 3d
       -0.04341735 -0.11938359 0.09107672 0.09052731
000120 3f 11 e8 bc 30 b9 9b 3c 75 2b c5 3d 0c 67 e5 3d
       -0.028328536 0.019009203 0.096274294 0.11201295
000130 2e 55 93 bb 35 80 de bd 85 11 8e 3d e5 84 88 3c
       -0.004496238 -0.10864297 0.06936935 0.016664932
000140 10 b6 2b 3c 52 13 f5 3d 6d 73 0e 3d 73 cf 40 bd
       0.010480419 0.11966576 0.034778047 -0.04707284
000150 50 3e e4 bd f3 b8 52 3d 70 7c 5e bd d0 9a 15 3a
       -0.11144698 0.051445913 -0.05431789 0.0005706968
000160 90 5a 01 bd e9 35 63 bd 5e 98 d0 3d 08 01 5c bb
       -0.031580508 -0.055471335 0.10185312 -0.003356995
000170 22 c3 75 3d 69 a3 c0 bd ef 4b b9 3d 95 eb b7 3d
       0.060000546 -0.09406168 0.09047686 0.089804806
000180 34 95 c4 bd 18 42 7f bb df 82 c0 bd 0c 2b c8 bd
       -0.09598771 -0.0038949307 -0.09399962 -0.097738355
000190 d0 37 69 bd 1c 37 a6 3d a8 e6 a7 bd f7 75 56 3d
       -0.056937993 0.0811598 -0.08198291 0.052358594
0001a0 82 fc 07 be b5 47 ba bd 21 f6 98 bd b8 6a e9 bd
       -0.13279918 -0.09095708 -0.0746882 -0.11397308
0001b0 ca ee a3 3d 4b ea cb 3d e2 f9 f2 bc 63 f6 16 bd
       0.0800453 0.09956797 -0.029660169 -0.036856066
0001c0 6f 95 b5 bd f5 d4 e2 bc c2 15 41 3d 30 f4 93 bc
       -0.08866393 -0.027689436 0.04713989 -0.018060774
0001d0 83 3f 79 bd 76 3f 6f bd 37 79 cf bd be 0e 96 bd
       -0.060851585 -0.05841013 -0.10130542 -0.073270306
0001e0 b6 90 c0 3d 01 ac 1d 3c b2 c5 13 bd 10 fb b3 3d
       0.094026014 0.009623528 -0.03607721 0.08788121
0001f0 e6 1d 54 bd b0 c5 c1 3d 10 19 f8 bd c6 8a c5 3d
       -0.051786326 0.09461534 -0.12114155 0.096456096
000200 b0 a8 df bd 60 15 b5 3d 90 dc 23 bc e6 38 f8 bd
       -0.109208465 0.088419676 -0.010001317 -0.121202275
000210 70 a7 2e 3d 34 0b 54 3d 70 32 b0 bc 42 3e c0 3d
       0.04264015 0.051768497 -0.021508425 0.09386875
000220 dc 7b 48 3d 84 7f 23 3d 38 e6 21 bd 7c 6a 2a 3d
       0.048946247 0.03991653 -0.039526194 0.041605458
000230 fc 34 8f bd 3a 3e 99 3d 6a 3f 83 bd 5c 37 0d bd
       -0.06992528 0.07482572 -0.0640858 -0.034476623
000240 e0 d2 a7 bb 00 ff 10 3b 26 99 f7 3d f8 13 dd bd
       -0.005121574 0.0022124648 0.120897576 -0.10794824
000250 42 85 8f bd c0 66 20 bb a2 02 fc 3d 80 be bc bb
       -0.07007839 -0.0024475306 0.1230519 -0.005760014
000260 68 c2 02 3d 80 20 f3 bc 06 89 cc bd 9c 6e 0a bd
       0.03192368 -0.029678583 -0.09987073 -0.03379689
000270 dc bd 1b 3d f0 15 83 bc e8 cd a1 bc 26 fb f6 bd
       0.03802286 -0.016001672 -0.019751504 -0.120596215
000280 2a ab fe bd 5c df 68 3d 76 c7 94 3d 6c a5 91 3d
       -0.12434991 0.056853637 0.07264607 0.0711163
000290 c4 07 83 bd c0 c0 51 3b 30 6a 99 bd cc 34 51 bd
       -0.063979656 0.0032005757 -0.07490957 -0.05107574
0002a0 a0 01 4c bc e8 1b 29 3d 58 67 e4 3c 68 2e cf 3d
       -0.012451559 0.04128638 0.02788131 0.10116273
0002b0 9e f2 b2 bd d0 72 ba 3c 42 69 f7 3d a0 f9 41 bd
       -0.08737682 0.022759825 0.12080623 -0.0473572
0002c0 b6 45 c2 3d d0 65 46 bd 26 4c b5 3d 94 28 88 3d
       0.094859526 -0.04843694 0.08852415 0.06648365
0002d0 80 3f aa ba e0 da b0 3b 50 6b d0 bc 30 bb 92 bd
       -0.0012988895 0.0053971857 -0.025441796 -0.071646094
0002e0 26 c8 b6 3d d4 db 12 bd f0 f8 e8 bc d8 ee 89 3d
       0.08924894 -0.035854176 -0.028439015 0.06735009
0002f0 68 b7 df 3c b4 99 20 bd e2 eb ba bd 1a b5 ae 3d
       0.027309135 -0.039209083 -0.09127022 0.08530636
000300 ec 6c 9f bd c0 ab d5 3d 00 48 cb bc 90 41 db bd
       -0.07784447 0.10433149 -0.024814606 -0.107058644
000310 de 26 80 3d 16 eb fe 3d 76 26 92 bd 68 49 a1 3c
       0.06257413 0.12447183 -0.07136242 0.019688323
000320 ce 14 99 bd 64 12 bb bd c0 d3 d6 bc 90 89 34 bc
       -0.07474671 -0.09134367 -0.026224017 -0.011019126
000330 20 57 cc 3d c0 8b 4c bd 0c 28 61 bd de 3a 85 3d
       0.09977555 -0.049937963 -0.054969832 0.06505369
000340 e4 af 83 bd a8 7e b6 bd 64 b9 ca 3d 48 e7 50 3d
       -0.06430033 -0.089108765 0.09898642 0.051001817
000350 30 a3 10 3d 48 cd ed 3c 8e 88 c8 bd 40 94 53 3c
       0.035311878 0.02902855 -0.09791671 0.0129137635
000360 f0 8b 8b bd 90 48 4e 3d 80 0d a6 3a 28 70 f4 3c
       -0.068138 0.05036217 0.0012668818 0.029838637
000370 34 e0 22 3d 90 3c cb 3d 08 4d e5 bc 2c f9 93 3d
       0.039764598 0.09923661 -0.027990833 0.0722526
000380 1c 7c 38 bd 58 ae ee bc 30 e7 28 bd fa 3d c5 3d
       -0.045040235 -0.029135868 -0.041236103 0.09630962
000390 44 48 28 bd 64 ae e8 bd 08 db 34 bd 78 0d a6 bd
       -0.041084543 -0.11361387 -0.044154197 -0.08108038
0003a0 78 fc a7 bc ee a6 f8 bd b4 37 0c bd f0 de bd bc
       -0.020506129 -0.12141214 -0.03423281 -0.023177594
0003b0 74 d5 cf bd 10 b5 d6 3d 7c f3 9d bd 58 2d f0 bc
       -0.10148135 0.10483754 -0.077124566 -0.029318497
0003c0 00 3d fc 3d f8 8f f2 3c 38 86 5e 3d 3c a2 03 3d
       0.12316322 0.029609665 0.05432722 0.03213714
0003d0 24 02 a8 bd b8 f2 ca bc 86 ed f8 bd 10 dd 65 bc
       -0.08203533 -0.02477394 -0.12154679 -0.014029756
0003e0 80 11 15 bb 58 66 bb bd 00 1d 0d 3c aa fa ac bd
       -0.0022746027 -0.0915038 0.008612871 -0.08446248
0003f0 00 1a fc 3a 50 bd 20 3d f0 bb 38 bd 48 3f 89 bc
       0.0019233823 0.039243042 -0.045101106 -0.016753808

2.bias f4 [64]
000000 60 86 ab bd 48 af da 3d 68 4d f2 3d 9c 6a 31 bd
       -0.08375239 0.106779635 0.1183117 -0.04331456
000010 a8 ae b8 3c f4 01 1c 3d df 4b 65 bd ed d3 00 3d
       0.02254422 0.0380878 -0.05598056 0.03145211
000020 a8 42 e6 bd 2e 46 22 bd d4 3a dc 3d 63 02 0b 3e
       -0.112431824 -0.03961771 0.10753408 0.13575129
000030 64 ba 46 bd 28 39 b8 3c 38 6e 0e 3d 6c b2 bd 3d
       -0.0485176 0.022488192 0.03477308 0.09262547
000040 a0 66 b0 3c b1 cf be bd 97 46 3f bc 8d ef 81 bd
       0.02153331 -0.09316958 -0.011674545 -0.06344519
000050 0c a4 30 3d fe c5 66 bd 28 57 dc bd 71 78 fb bd
       0.043125197 -0.056341164 -0.10758811 -0.12278832
000060 fc 46 51 bd 64 96 ac bd 3d 0b b5 3d 50 3f ac bd
       -0.051093087 -0.08427122 0.08840034 -0.084105134
000070 80 8d 33 3d 0b ef bb 3d bc 5b e9 3d a2 d6 b7 3d
       0.043836117 0.09176453 0.1139445 0.08976485
000080 d0 63 a8 3c 7b 21 23 3c a0 6b a6 bc 00 3f 2a bb
       0.020555407 0.009956713 -0.020314991 -0.0025977492
000090 82 89 36 3d a0 5c 08 3c 8b 04 7e 3c 06 f7 09 3d
       0.04456473 0.008322865 0.015504013 0.033682846
0000a0 ba de 27 bc 98 aa c5 3c e0 b5 b9 3d e8 10 bc bc
       -0.010245973 0.024129197 0.09067893 -0.02295728
0000b0 54 e1 82 bd 93 5e 54 3e da 83 11 3e 06 fe 91 3d
       -0.06390634 0.20739202 0.14210454 0.07128529
0000c0 c9 db 4b 3d f4 9c 5d bd 52 40 7a bc 1c 27 66 3d
       0.04977015 -0.05410476 -0.015274124 0.05618964
0000d0 0d 0b 36 3d da 49 93 bd 78 ac b1 3d 3b 94 b6 3d
       0.044444133 -0.071918204 0.08675474 0.089149915
0000e0 c8 7c 14 3d d7 13 93 bd 87 db fd bc 74 8c cb bc
       0.036251813 -0.071815185 -0.030988468 -0.024847247
0000f0 3c 5e 35 bd 4f 19 d3 3d 77 0d ec bd dd 35 aa bb
       -0.044279322 0.103075616 -0.11526006 -0.0051944093

4.weight f4 [1, 64]
000000 25 13 70 3d a2 39 cf 3d fa b7 f4 3d 18 a3 61 3d
       0.058612008 0.101184145 0.11949153 0.05508718
000010 1c dd b7 bd 78 1d 12 be 9d ec 81 3c 71 e2 4d be
       -0.0897772 -0.14269054 0.015859896 -0.20105912
000020 80 6f f9 bc 2b 13 48 3d 05 22 1b be 11 96 88 be
       -0.030448675 0.048846405 -0.15149696 -0.26676992
000030 de 3c fc bd a0 89 22 3c 8a 81 95 3d 26 90 4a be
       -0.12316297 0.009920508 0.07300098 -0.19781551
000040 a0 d5 f4 3d 52 aa c7 3d 2a 28 d5 3d c4 ba 32 3d
       0.11954808 0.09749283 0.10408051 0.043635145
000050 44 a7 27 bd a1 55 ba 3d 61 c5 e5 3d e3 c7 80 3d
       -0.040931 0.09098364 0.11219288 0.06288125
000060 f8 b1 90 bd 4c 9b 3b 3d f9 f6 30 be 30 4a d7 3c
       -0.07065195 0.0458024 -0.17281713 0.026280493
000070 e6 b0 be 3d 05 94 39 be 87 e0 00 3b e8 95 bf bd
       0.093110844 -0.18122871 0.0019665079 -0.09354764
000080 e8 73 81 bd f2 5f 9f bc 10 df 3b 3c 00 e2 a3 3d
       -0.063209355 -0.01945493 0.011466756 0.080020905
000090 52 80 2c be ce c2 9f 3d 89 05 18 be 04 e5 84 be
       -0.16845825 0.07800828 -0.14845861 -0.25955975
0000a0 cb 3a ea 3d f4 88 30 bd b2 56 ce 3d 84 69 19 bd
       0.11436995 -0.04309936 0.100751296 -0.037454143
0000b0 9f d1 35 3d 3c a7 68 be a7 62 6e be 24 57 46 be
       0.044389363 -0.22720045 -0.2327982 -0.19369179
0000c0 19 c8 c2 3d 6e a6 da bd 50 87 84 3d 41 bb cb 3c
       0.09510822 -0.10676275 0.06471121 0.024869563
0000d0 89 d2 95 bd 84 25 37 bd 59 31 0a be 94 9f 45 bd
       -0.07315547 -0.044713512 -0.13495387 -0.04824789
0000e0 58 88 43 bd 38 65 83 3d 63 52 a8 3d fb a6 0a be
       -0.04773745 0.0641579 0.08218839 -0.1354026
0000f0 db 45 0e be 05 65 4d be 20 b4 ac 3b f1 7f 6a be
       -0.13893835 -0.20058067 0.005270496 -0.22900368
