recording/dqn_retail_model_2_lr_0.005_ed_0.998_g_0.95.pth (torch, 71664 bytes, 5 tensors)

0.weight f4 [128, 3]
00000000: 1eed 11bf 342e febd 972e d23e 95ed d0bc
00000010: e040 e8be 0556 e9be 11a7 ee3e 34a5 ac3e
00000020: 16d0 b63d c95b 38bd ab2a 46be a60e acbe
00000030: e9ae 07bf d9cd a0be e45a c43d eefa 7ebd
00000040: e402 b73d b43a eabe f2d5 f13c f44e a6be
00000050: 51f1 963e 12a1 123f d5e1 aebe a115 c3be
00000060: a84c 843e 3b01 a43e bd9d 64be b732 603e
00000070: 7965 febc 8fdf 683e 7ec0 d5be 0a05 f9be
00000080: eb01 853d 4f23 e63e 7612 d4be d599 113f
00000090: e867 ab3e e1ea ba3e 5793 e6be 3fcc bb3e
000000a0: e0ed 03bf 6504 003f 2a71 02be 707d 10bf
000000b0: 07c9 01bf f84f 85bd d538 18bb 1ab2 3bbe
000000c0: 7c0f a43d 4554 9bbe 59b9 093e 07db cfbe
000000d0: 419e 08be 4dfd a3be 25f4 c5bd fca3 a43e
000000e0: 4565 253e 3159 733e 5dd3 26be 039b 37be
000000f0: d988 b43d b72e fc3e c6ca de3e aebe fdbe
00000100: 0834 87be 838a 03be eb49 fd3d df1a f8be
00000110: 74ec 463e 990e 523e 5320 0a3f fc5b 603e
00000120: 591d d8be db2f b93d 74e5 a93d 241f 5ebe
00000130: 67c5 e03e 73d8 033f 0e9a 4c3d e4c4 8bbe
00000140: 0ed4 dd3e 66e9 9a3e c0ad 47be dba1 f43e
00000150: d6e4 03be b97d 573e 0694 e23d 5882 d5be
00000160: 66fe 81bd 3df7 603e b25f c83e ef92 dabd
00000170: 6097 c73e 69c5 0cbe 4a10 103f 469b 163f
00000180: 82f5 333d 03a4 f03e 8219 123e 1c99 f13d
00000190: 3b60 29be 1e6e 0e3f 2ed7 6ebe 3db3 8b3e
000001a0: 58b4 a9bd 8484 da3d 666c a43e 7682 24bd
000001b0: 56ac 193f 3cd3 5abe 1e9c 9cbd 4c10 063f
000001c0: 1218 bbbe 2343 123f 92cd a0be f8bd a9be
000001d0: 60c2 85be 78c8 803e 96ca 023f 7cd0 1bbd
000001e0: f4f5 01bf a46d 06bf 94c8 8ebe ad4b 9a3e
000001f0: af74 e2be 3090 b43e 7bf6 adbe 63ce 9fbe
00000200: 33c6 8c3e f5e4 083f b7e8 cb3e 6524 133f
00000210: 86fb 183f 7826 a6bd a9bb 83be 1707 efbe
00000220: f3c8 b9be 7481 9bba d046 ee3e d123 5a3d
00000230: cf1e 073f 0b37 473e 5f15 633e 3057 0cbf
00000240: 42e2 febe 05fe 6a3d d565 4bbe 896f ebbe
00000250: 52f8 c33e 16e8 de3e 8ab3 a03e b8c5 c83e
00000260: 4627 1a3f 6fca b03d 7ba2 093d d0c8 aabe
00000270: f0fd c33e 04cb d23e 32a1 713e 7608 fd3e
00000280: 54c5 babe 288e 463e 5c05 d7be c44f f73e
00000290: 579b 0c3e a03f efbd 11e1 e2be 5ad2 12bf
000002a0: bfa0 2cbd e9c2 0e3f 6fb2 fcb8 1260 da3e
000002b0: c6af c8be 4864 123f ab41 963e 9878 a03e
000002c0: 8886 a13b a0f9 163f d0aa 773e 34cd afbe
000002d0: 0765 d2bc d586 e53e 6bed c63d eaef 1e3f
000002e0: ea16 6dbc a4fc bbbc d20d b1bd 7a47 433e
000002f0: 662f f3be e897 e5be f806 1cbd 5b03 fc3d
00000300: e147 963c c15f f63e 20a1 05bf fdf1 923d
00000310: 72de b63e 74fe 193f 8ed9 523e 7023 07bf
00000320: fb19 0dbf f4b1 c83d d911 7c3d c3a0 7f3d
00000330: 9553 d33e bf61 b8be 45f6 893e 9d8c bebe
00000340: 4336 26be dfde c3be 6cc0 163f 0877 ad3e
00000350: 4d08 b03e a1ad 603e df28 093f f153 9abe
00000360: 2093 b3be 4127 2b3d b876 a5be f571 9c3e
00000370: 3f94 ac3d a40a d5bd 9f70 6e3e 02ef b93e
00000380: cc23 a9be ac5d 2b3d f5ca ddbe 391f 28be
00000390: b101 043e cff4 63be 8aaf 2bbe 6cc2 0ebf
000003a0: 13d0 8cbc 8920 023f a860 833e 2fdf 20be
000003b0: e897 f03e 09f7 e13e dd0f d7be 452a 08bf
000003c0: 109b 95be 4d6e e3be c5cb 103f 70e0 e03e
000003d0: 02d5 b63e 0467 583e 7e72 863e 6e5a 67be
000003e0: 46b1 e8bd 085a 13bf cdfe a23e 3155 f8bc
000003f0: ec88 0c3f 51cb 0dbf 4877 d2bd 1e10 f7be
-0.5700244 -0.12411156 0.4105117 -0.025503913 -0.45361996 -0.4557344 0.46611837 0.3371979
0.08926408 -0.04500941 -0.19352214 -0.33604926 -0.53001267 -0.3140705 0.095876485 -0.062251024
0.08936098 -0.45747912 0.029520962 -0.3248211 0.29480985 0.57277024 -0.3415667 -0.3810244
0.25839734 0.3203219 -0.22325797 0.21894346 -0.031054245 0.22741531 -0.41748422 -0.48636657
0.064945064 0.44948813 -0.41420335 0.56875354 0.33477712 0.36507323 -0.45034286 0.36679265
-0.51534843 0.50006706 -0.12738481 -0.564414 -0.5069737 -0.065093935 -0.0023227234 -0.18329659
0.08010766 -0.3033773 0.13449611 -0.40596792 -0.13341619 -0.3202919 -0.096657075 0.3215636
0.16151913 0.23764493 -0.16291566 -0.17930226 0.08815164 0.4925439 0.4351408 -0.4955954
-0.26406884 -0.12845807 0.12367614 -0.48458 0.19426137 0.20513381 0.5395557 0.21910089
-0.4220989 0.09042331 0.08295718 -0.21691567 0.43900606 0.5150215 0.049951605 -0.27298653
0.43325847 0.30256194 -0.19499874 0.47779736 -0.12880263 0.21044053 0.110633895 -0.41701007
-0.06347351 0.21969314 0.3913551 -0.106725566 0.38982677 -0.13747181 0.56274855 0.5883068
0.043935306 0.4700013 0.14267543 0.117967814 -0.16540615 0.55636775 -0.23324272 0.27285185
-0.08286351 0.106698066 0.3211395 -0.04016348 0.6002859 -0.21369642 -0.076469645 0.5236862
-0.36541802 0.5713369 -0.31406838 -0.33152747 -0.2612486 0.25152946 0.5109037 -0.038040623
-0.5076592 -0.5251105 -0.27887404 0.3013586 -0.44229648 0.35266256 -0.33977112 -0.31212148
0.27494964 0.5347436 0.39825985 0.5747741 0.59758794 -0.08112806 -0.2572911 -0.46685097
-0.36286125 -0.0011864142 0.465384 0.053256813 0.52781385 0.19454591 0.22176121 -0.5482054
-0.49781996 0.05737116 -0.19863065 -0.45983532 0.3827539 0.43536443 0.31386977 0.39213347
0.60216177 0.08632361 0.03360222 -0.33356333 0.38279676 0.41170514 0.23596647 0.49420518
-0.36478674 0.19390166 -0.41996276 0.48303044 0.13731132 -0.116820574 -0.44312337 -0.5735222
-0.042145487 0.5576616 -0.00012049532 0.4265142 -0.39196604 0.5718427 0.29346976 0.31342006
0.0049293675 0.5897465 0.24186254 -0.34336245 -0.02568294 0.4482943 0.09713253 0.6208483
-0.014470795 -0.022947617 -0.08645214 0.19070235 -0.474971 -0.44842458 -0.038092583 0.123053275
0.018344821 0.4811993 -0.5219898 0.07175062 0.35716587 0.6015389 0.20590803 -0.5278845
-0.5511777 0.09799567 0.06154046 0.062409174 0.41274706 -0.36012074 0.269457 -0.37216654
-0.16231637 -0.38255975 0.5888736 0.33879876 0.34381333 0.21941234 0.5357799 -0.30142167
-0.35073185 0.041785482 -0.32317138 0.30555692 0.08426713 -0.1040242 0.23285149 0.3631516
-0.33035123 0.04183738 -0.43318906 -0.1641816 0.1289127 -0.22261356 -0.16766182 -0.55765414
-0.017189061 0.50830895 0.2565968 -0.15710138 0.46990895 0.44133785 -0.4200429 -0.531895
-0.29219866 -0.4442009 0.5656093 0.43921232 0.35709387 0.21133047 0.26259226 -0.2259309
-0.11361937 -0.5755925 0.31835023 -0.03031406 0.54896426 -0.5538836 -0.10276657 -0.48254484

0.bias f4 [128]
00000000: e76f cd3d 46a7 ebbe d0f3 8ebe a1f2 923d
00000010: 7f96 3bbe 876b 423e 9205 663e d08a 013e
00000020: cf4b dc3e d98c ae3d 6eb9 0b3f 4b3c 11be
00000030: 2d9f c1be 7ddf 4bbe acb6 10be bd23 eb3e
00000040: 7b10 0bbe f5ab 063f 3715 053f a265 ab3e
00000050: 1af8 f53e 7937 a5be a11f febd 229d fa3e
00000060: 6a37 babe ec79 90be f3bc dd3e 4bab 02bf
00000070: df31 64be 6ffc 913d e098 2d3d b322 0f3f
00000080: 4c58 79be bcbf c4be 23be 0bbe e645 133f
00000090: 1799 e43e 4e5b 0abf 5f1b 02bf f72d d13e
000000a0: f577 b63e e322 113f 410e bfbc 7792 bfbe
000000b0: 68b4 f93e be04 eabe b7cf bfbe 32f5 c5be
000000c0: 7fdb dfbc 9c61 f73e 1938 cdbc 00d3 3fbe
000000d0: 76af 023d f0ee ff3e 5a6c b13d 94e0 ee3e
000000e0: 069f b63d 7b7d cc3e 18fb eabe 4046 043f
000000f0: 539d bc3e 303a a0bb 083a 89be c404 d0bd
00000100: 296d 083e 8b93 d6bc 0b08 133e 58c2 953e
00000110: ba3c 7fbe 5366 393e 98a4 433d ed05 c8be
00000120: 8c32 803e ee45 bbbd 88f3 163f ba2e 923e
00000130: e28c af3d c03a 323e 00b4 e93e 9743 eb3e
00000140: 6c82 2dbe f17b d83e f46d c73e 9be5 fe3d
00000150: 92cf d9be 15a7 ffb9 b6a9 87bd 11a6 08be
00000160: b00d 74be b3a4 a6be faef db3e 0f7c 7fbe
00000170: 093c fc3e e94f ec3e fbe7 0fbf a4f7 c93e
00000180: cef7 53be 9247 83be 4726 193e 2b20 06be
00000190: 6a71 0dbf 7e2e 013f 925d f5be 488d aebe
000001a0: b327 203e 8c2b 04bd 1ce5 cabd a0ef 0d3f
000001b0: c3b4 ec3e b00c 823e 22e2 0c3d 0422 86be
000001c0: ed80 aebe b241 b43b 2686 053e 010f 0f3f
000001d0: 4bb1 2c3e 1665 d7bc 131f 00bf 00d2 d33e
000001e0: 48fd 9cbe 65bc 3bbe f953 853d 9b9b 3e3e
000001f0: b2d8 893e 2155 d43d a05c 00bf ded3 7c3e
0.10031109 -0.46026057 -0.2792039 0.07175184 -0.18319128 0.18986331 0.22463062 0.12650609
0.43026587 0.08522958 0.5457982 -0.14183156 -0.37816754 -0.19909473 -0.14132184 0.45925704
-0.13580506 0.52606136 0.51985496 0.33475977 0.4804085 -0.32268885 -0.124083765 0.48948008
-0.36370403 -0.2821802 0.4330822 -0.5104262 -0.2228465 0.07128226 0.04238212 0.5591232
-0.24350089 -0.38427532 -0.1364675 0.5752853 0.44648048 -0.5404557 -0.50823015 0.4085538
0.35638395 0.5669386 -0.023322226 -0.3741643 0.48770452 -0.45706743 -0.3746316 -0.38663632
-0.027326344 0.48316658 -0.025051164 -0.18732834 0.031905614 0.49986982 0.086632445 0.46655715
0.0891705 0.39939484 -0.45894694 0.51669693 0.3683878 -0.004889749 -0.26802087 -0.10157159
0.13322891 -0.0261934 0.14358537 0.29249835 -0.24925509 0.1810544 0.04776439 -0.3906702
0.25038564 -0.091441974 0.5896535 0.28551275 0.08571793 0.17405224 0.45645142 0.45950004
-0.16944283 0.4228206 0.38951075 0.124461375 -0.42541176 -0.00048761876 -0.06624167 -0.133446
-0.23833346 -0.3254753 0.42956525 -0.24949668 0.49264553 0.46154717 -0.5621335 0.39446747
-0.20699999 -0.2564054 0.14956008 -0.13098209 -0.5525118 0.50461566 -0.4792295 -0.34092164
0.15640144 -0.032268092 -0.099069804 0.55443764 0.4623166 0.25400305 0.034395345 -0.26197827
-0.34082738 0.0055009956 0.13039455 0.5588227 0.16864507 -0.026293319 -0.50047415 0.41371155
-0.30661988 -0.18333586 0.06510157 0.18614046 0.26923138 0.103677996 -0.50141335 0.24690196

2.weight f4 [128, 128]
00000000: e61f ca3d 02be 903d d8f0 8fbc 948b 283d
00000010: 4afc 3c3d 4e38 993d 84ce aebc d452 823d
00000020: 7908 8dbd 24ef 65bd ffb2 8d3c b707 ad3d
00000030: 6104 b83c d3f4 42bd 686f b23d 1867 3bbd
00000040: fbf8 7fbd a519 b73c bb6b b7bc 0bf2 71bc
00000050: eacc 6b3d 3628 30bd 9940 c43d c840 bb3d
00000060: 90d8 813d 8978 0f3d 64d4 913d 3a90 293d
00000070: 0da7 73bd 4b48 9ebd 6d97 b73c 63eb 08bd
00000080: 6162 993d 2129 b43d 5356 82bd 83fb cdbc
00000090: 1231 9a3d 60d5 ab3d 4ea8 26bd e2b9 823c
000000a0: f2d6 5e3d 96ae d63c 5cae 43bd 2f48 c53d
000000b0: 567a 4dbd 4b7f 9abd ea6f 013c aedd a03d
000000c0: f6e2 a4bd 47a4 713d 8582 e33c 7106 8dbd
000000d0: f786 273d deee 23bc 331b 92ba d384 46bc
000000e0: 4328 833d 799c 4c3d e6de e63c fc95 8abd
000000f0: 5e8a 653c 7e57 b3bc 32e1 aebd c860 62bd
00000100: e831 65bd 2b9b 5cbd acfd a03d c1c4 a73d
00000110: 76b9 a73d f4c4 f43c b567 973d ed22 6a3d
00000120: 7d8f 4cbd bfa7 a93d a038 253d a2cd 53bd
00000130: 8ca9 9dbd db9c 98bd f4d4 843d 3128 61bd
00000140: bc06 983d 8b46 493d ef12 ed3b 0794 46bc
00000150: a087 2ebd 8ec9 c23c 9c2e 96bd 8876 473d
00000160: 6fdd 993d fb05 023d c48c 63bd e877 35bc
00000170: 8f51 c6bc 8656 543d 8514 16bb 48b1 b23d
00000180: b791 b83d c555 95bd 2a1c 93bd 2838 8a3d
00000190: c779 0d3b c296 4f3d fd2f 9fbd 80f4 333d
000001a0: cd8f d13d 8d3e 883d 2738 723d 7e44 9bbd
000001b0: 7cc1 833d e64a ab3d ec2c e83c fce0 c43d
000001c0: 0bf8 e63c 1cbd c4bc 3bd7 62bd 9fb8 62ba
000001d0: c34a 5d3d 35d0 0fbd 8e10 3fbd 4fae e23c
000001e0: a9bb 413d d919 453b 53cd 053d aba6 d03c
000001f0: 929c 04bd c2b4 68bd 77cb be3c 8286 d6bc
00000200: 4fe1 1dbc 9025 7bbd 58fb 2bbd 1b80 c83c
00000210: afd0 a03c a27d a9bd 9eea 3a3d 8b4a 97bd
00000220: c4bf 843d 93e0 313d 1662 1c3c ccef 743d
00000230: ba13 263d 816b 0c3d 173d febc e203 9dbd
00000240: b9b5 213d 88b5 843d 87de ef3c c4c0 f9bc
00000250: 0b2f 783c 87f8 8dbd 77f3 2ebd 201b 083d
00000260: 4562 5ebd 1e57 563d b32c 1abd 9cd2 833d
00000270: 3efa 98bd c000 adbc 631e 74bd 07a2 313d
00000280: 13bc b2bc 4e16 7e3d 1f75 51bd 6e35 163d
00000290: 1a3e a4bc d1d9 5ebd 105a 3e3d 79b0 89bd
000002a0: 7f42 533d 3a69 1ebc 133b 883d 23be 79bd
000002b0: 9e83 463d f36d 0cbd 78c1 173d 2f99 bb3c
000002c0: 1933 483c de28 323c 3cbc 81bc df63 2fbd
000002d0: 2720 263d 3585 b4bd f70c 5d3d 583b 56bd
000002e0: 5477 84bc 3fba 5ebd 90c5 17bd f879 fa3c
000002f0: a1d6 dbba 69dd 4ebd 88bb 45bd d5ee 943d
00000300: dfa8 5abc 7518 0ebc b1d7 7abd c8b2 dabd
00000310: 6a9d 5d3d 8ae0 6c3d 95d8 05bd c61f 583d
00000320: 5c13 2a3d 07ea 33bd 92d5 24bd 3d4b 08bd
00000330: 7e5e 813d d055 5f3d e89c 22bd d528 cbbd
00000340: ec92 4dbd 5a0a 3dbd 0433 f33c 4a38 84bd
00000350: 7461 13bd c826 423d e88c b03d b5db 293b
00000360: ddd7 1c3c dfd8 ed3c b387 163b fadc 87bd
00000370: 9d0d 82bc 4ffd 1a3d adb2 bb3b 1fde 93bc
00000380: 312d cdbb fa2e 0bbd 49fb a2bd a031 ccbd
00000390: 3240 acb9 c51d 863d e38d 76bd 6b23 a9bb
000003a0: 5d45 823d 98ad e63c 1058 4a3d 0421 173d
000003b0: 65d5 c93c 018a 573d f1fd 833d c74a 75bd
000003c0: 3b86 8bbd 877d ccbc 54c2 abbc 691a b03c
000003d0: 6b95 503d 5ef8 e2bd ebab 8c3d 5b05 31bd
000003e0: c268 26bd 2b8b 3d3d 4307 bb3b 10c4 a2bd
000003f0: cf23 6e3d 27a0 66bc 03b0 a7bc 365b 6d3d
0.098693654 0.07067491 -0.017570898 0.041148737 0.04613904 0.074814424 -0.021338709 0.063634545
-0.06886382 -0.056136265 0.017297266 0.08448737 0.022463026 -0.047596764 0.08712655 -0.045752615
-0.062493306 0.022351095 -0.022390237 -0.01476718 0.05756847 -0.0430071 0.095826335 0.091432154
0.06340134 0.03502706 0.071205884 0.04139731 -0.059485484 -0.077286325 0.022411073 -0.033427607
0.074894674 0.08796907 -0.06364121 -0.025144344 0.07528891 0.083903074 -0.04068785 0.015957776
0.054404207 0.026206296 -0.047773704 0.096329086 -0.050165497 -0.075438105 0.007900218 0.07854782
-0.08051102 0.058994558 0.027772197 -0.06885994 0.040900197 -0.010005681 -0.0011147022 -0.012116629
0.06404164 0.04995391 0.028182458 -0.067668885 0.01401004 -0.021892305 -0.08539046 -0.05526808
-0.055955797 -0.053858917 0.07860884 0.08191825 0.08189671 0.02987907 0.073928274 0.057162214
-0.04994153 0.08283948 0.040337205 -0.05170978 -0.07698354 -0.07451793 0.0648593 -0.05496997
0.074231595 0.04913954 0.007234923 -0.012120253 -0.04260981 0.02377775 -0.07333109 0.048697025
0.07512938 0.031743985 -0.055554166 -0.011075951 -0.024208812 0.051840328 -0.0022900414 0.0872522
0.09012168 -0.0729175 -0.07183106 0.06748992 0.0021587478 0.050680883 -0.07772825 0.043934345
0.10232506 0.066525556 0.059135582 -0.07581423 0.064333886 0.08363895 0.028341733 0.09613225
0.028194448 -0.024015956 -0.05538104 -0.00086487265 0.054026376 -0.03511067 -0.046646647 0.027671007
0.047298107 0.003007522 0.032666516 0.025470098 -0.03237588 -0.05681301 0.023290379 -0.026187185
-0.009636237 -0.06131512 -0.041987747 0.024475148 0.019630758 -0.08275916 0.045633905 -0.07387265
0.06481889 0.04342706 0.00954487 0.059799 0.040546156 0.03428221 -0.03103499 -0.07666756
0.039479945 0.06479937 0.029280914 -0.030487426 0.015147935 -0.069321685 -0.042712655 0.033228993
-0.054292936 0.052329175 -0.037640285 0.06436655 -0.07469605 -0.021118522 -0.05959929 0.043367412
-0.021818196 0.06203299 -0.051137086 0.03667205 -0.020049144 -0.054406945 0.04647261 -0.067231126
0.051577087 -0.009668643 0.066518925 -0.060972344 0.048465364 -0.034284543 0.03704974 0.022900192
0.012219214 0.010874001 -0.015836827 -0.042819854 0.040558007 -0.0881447 0.053967442 -0.05230269
-0.016170181 -0.054376837 -0.037053645 0.030575737 -0.0016772338 -0.050504122 -0.048274547 0.07272116
-0.013345926 -0.008672823 -0.061240856 -0.10678631 0.0541052 0.057831325 -0.03267725 0.052764677
0.04152237 -0.043924358 -0.04024274 -0.033274878 0.06316851 0.054525197 -0.03970042 -0.099198975
-0.050188944 -0.04615245 0.029687412 -0.06456049 -0.03598161 0.047400266 0.08620626 0.002591831
0.00957295 0.029034076 0.0022969067 -0.06633945 -0.015875632 0.03783923 0.005728087 -0.018050252
-0.0062614908 -0.033980347 -0.07958085 -0.09970403 -0.00032854226 0.06548647 -0.060193907 -0.005161693
0.06360886 0.028158948 0.04940039 0.03689672 0.024637887 0.052621845 0.0644492 -0.059885766
-0.06812712 -0.0249622 -0.020966686 0.021496968 0.050923746 -0.110825285 0.06868728 -0.043217998
-0.04062725 0.0462753 0.005707653 -0.07947552 0.05813962 -0.014076269 -0.020469671 0.057948314

2.bias f4 [128]
00000000: 0171 cf3d ec30 a7bb e1ec 5bbc 92f0 ab3c
00000010: bcf5 94bd e3fa e03b 876b 82bc 3a76 94bd
00000020: c162 93bd 0ff1 dc3d a6f4 83bb d65f bcbd
00000030: dd38 27bd db6e c03d d0f4 40bd e298 ba3b
00000040: e2e1 b03c 521f 5c3d 9acb 61bd 151a bdbb
00000050: ecbf 7cbd a05a b3bd 633a 843d 040c 66bd
00000060: 7b32 84bd f35f 863d 0112 c2bc b92c 06bd
00000070: 58f5 70bd 819e 6cbd 260d 39bd a84a 06bd
00000080: 16d5 043d 0a56 543d 2e67 14bd ffa1 b5bd
00000090: 03a4 ab3c 149f a83d 9e3a b03d 0a4e 493d
000000a0: 338a b0bd 2f5b a13d ec22 2b3c 31dc a2bd
000000b0: 66b0 bc3d 4f53 5abd 5d5f 953d aa10 5cbd
000000c0: 4bf4 b63c 5545 823d dedf 383d bf69 8dbc
000000d0: 4c16 a53d f0b0 823d e914 aabd f14b 513d
000000e0: a4af 3c3c f361 47bd 3cb9 263d a112 303d
000000f0: 694f 9bbc f77f 763d d55f df3b d19c 873d
00000100: 7a99 563d 7ae1 59bd cebe 3ebd ef43 37bc
00000110: a879 783d df3a d03c 19da 6e3d 7aed 973d
00000120: e719 a73d 6d42 143c de39 37bc bd5c 703d
00000130: 6eef 3b3d 4e5e 89bb c862 16bc c0f2 e93d
00000140: c4b9 b93d 84fa 4ebb 9537 423d b386 77bd
00000150: 5a00 153d c4d9 cebc cc19 8fbd 0b86 c039
00000160: 84d3 3dbc ff5e cabc 5938 b8bd 5b16 033d
00000170: 611a cb3d a511 d03a b723 a3bd 8b95 153d
00000180: c469 14bd d048 e3bc 216f d6bc 76d2 ed3d
00000190: 6d49 4bbd 5b60 223d 31be 9f3d 39e2 71bb
000001a0: bd40 5c3c a1c4 af3d 88a4 8f3d 7248 1fbd
000001b0: 8aa6 bf3c 7098 5a3d 2edd 863d c96c b83d
000001c0: 15db 903d 7686 bf3b e85d cb3c 04d9 01bd
000001d0: b2b9 883c ae5f bb3c beee 76bd c0e3 7d3c
000001e0: a6df 0b3d ab86 8abc 5c1c 6a3c e4b9 18bd
000001f0: 5b2d 60bd d604 c2bc bfff a53d 8be7 efbc
0.10128976 -0.0051022675 -0.013423176 0.020988736 -0.072734326 0.0068658455 -0.015920414 -0.072491124
-0.0719657 0.10788166 -0.004026967 -0.09197967 -0.040825713 0.09396144 -0.04710847 0.0056944946
0.021592084 0.053740807 -0.05512581 -0.0057709315 -0.06170647 -0.0875752 0.06456449 -0.056163803
-0.06454941 0.065612696 -0.023690226 -0.032757495 -0.058827728 -0.05776835 -0.045178555 -0.03278604
0.032429777 0.051839866 -0.036231212 -0.08868789 0.02095223 0.08233467 0.0860493 0.04914669
-0.086201094 0.0787872 0.010445338 -0.079521544 0.09213333 -0.053302106 0.0729358 -0.05372683
0.022333285 0.0636088 0.04513537 -0.017262338 0.080608934 0.063814044 -0.083047695 0.051097814
0.011516485 -0.048677396 0.040703997 0.042986516 -0.018958764 0.06018063 0.006816844 0.06621707
0.05239246 -0.053193547 -0.046568684 -0.01118563 0.060662895 0.025418697 0.058313463 0.07418342
0.08159237 0.00904904 -0.01118323 0.058682192 0.045882635 -0.00419215 -0.009178825 0.11423254
0.09068635 -0.0031582424 0.04741629 -0.060431194 0.03637729 -0.025250323 -0.06987342 0.00036720964
-0.011586074 -0.0247035 -0.089951225 0.03200374 0.09917141 0.0015874399 -0.079657964 0.03651957
-0.03623368 -0.02774468 -0.026176037 0.11612408 -0.04963057 0.039642673 0.07799948 -0.003690852
0.013443169 0.08582426 0.07013804 -0.03888745 0.023394842 0.053368032 0.065851554 0.09005124
0.070730366 0.0058448864 0.024825051 -0.031701103 0.016690109 0.022872772 -0.060286276 0.015496194
0.034148835 -0.016909918 0.014288988 -0.037286654 -0.054730754 -0.023683947 0.0810542 -0.029285213

4.weight f4 [1, 128]
00000000: 0dca a9bd b452 443d 1f82 8a3d 2275 2dbb
00000010: b081 f5b9 1ff9 343d 023d aebd c1a3 81bd
00000020: 07a4 0d3d 7883 03be d9a5 f4bd f14b e43c
00000030: 9b04 8d3d 9e92 2cbd c94a d5bc 1b7d 11be
00000040: f8b6 173d e07d a9bd 8eab b13d 6be0 353d
00000050: 4b66 66bd 40f8 3dbd 4c00 a4bd 7141 7a3d
00000060: b8c0 c33b f9c1 c5bb d1f7 2bbd cb79 053d
00000070: 6551 393d c9ce a53d 0a61 763b ee40 2fbe
00000080: c881 4b3d c1f8 e63c 81e3 803c 9654 743d
00000090: b7b8 853d ebf6 6fbd 49ea ebbd ed73 dbbd
000000a0: 25d7 7f3d f4c1 27bd c22d 8c3d aa7b 0f3d
000000b0: 8c2e ddbd b237 55bd 0349 543d 2382 f4bd
000000c0: 4259 093d 4277 cebd e40f d53b d6b7 873d
000000d0: 21a8 273d 85b1 803c 1750 6abd f8f6 01be
000000e0: d393 a0bd c655 883c 6f7e e8bd 4a2c 1c3c
000000f0: b88a 2f3a aaa5 933d ec26 653c 2809 28bd
00000100: 97b0 693d f9bf 2c3d e961 cabd 3e33 80bd
00000110: 7f5c 29bd 8ea0 eabd d05e 623d cffc dcbd
00000120: d293 e8bd ab74 debd 8e41 f0bd 4581 b9bd
00000130: 5cb5 d8bd 69a2 92bd 60fb e8bc 912e 0ebe
00000140: 938d e2bd 1c78 9fbd 686c 7b3d 6719 943d
00000150: 79ad 8a3d 19c1 99bc 172f 2cbd 0e7a 1ebe
00000160: 3c24 be3c bd0a 92bd 1a5a efba 845e 203d
00000170: cb31 14be def2 dfbc 6ece 0d3d dbc4 7c3d
00000180: d23c a63b 9f79 1c3d 6df6 c7bd 695d 27be
00000190: e2e5 c9bd dbc0 9cbd dba7 853d dfd6 1e3d
000001a0: 6865 3dbd 8c23 acbd 9792 6a3c c240 513d
000001b0: 2c1d 15be 128e 8a3c fd90 333d 6446 babd
000001c0: c20c 853d 2e66 c0bd 8d7b c8bd 454f 883d
000001d0: 3d3b d33c 5a97 d2bd 3c1b f9bd fa62 32bd
000001e0: 2f85 94bd 9a14 f9bd 2e5b a9bd ab9c e5bd
000001f0: 8d9d 993b 9080 7a3d aa59 e3bd 4b48 963c
-0.08290491 0.047930434 0.067631 -0.0026467522 -0.00046826666 0.044182893 -0.0850773 -0.06330062
0.034580257 -0.1284312 -0.119456954 0.027868243 0.06885644 -0.042132013 -0.026036637 -0.1420788
0.037039727 -0.08275962 0.086752996 0.044403475 -0.056249898 -0.046379328 -0.08007869 0.061097566
0.0059739016 -0.0060350862 -0.041984383 0.032586854 0.04524364 0.08096082 0.003759446 -0.17114612
0.049684316 0.028194787 0.015733482 0.05965098 0.06529372 -0.05858509 -0.11519296 -0.107154705
0.062461037 -0.040956452 0.06844665 0.035030045 -0.10799894 -0.05205507 0.051827442 -0.11938884
0.03353239 -0.100813404 0.0065021385 0.06626861 0.040931825 0.015709648 -0.057205286 -0.12691867
-0.07840695 0.016642462 -0.1135224 0.009532044 0.0006696391 0.07209332 0.0139863305 -0.041024357
0.057053175 0.042175267 -0.09881956 -0.06259774 -0.041347977 -0.114564046 0.0552662 -0.10790407
-0.113563195 -0.108620964 -0.117312536 -0.09057859 -0.105814666 -0.071598835 -0.028440177 -0.13884951
-0.110621594 -0.07786581 0.06138268 0.072314076 0.067713685 -0.018768834 -0.042037096 -0.15476248
0.023210637 -0.071309544 -0.0018261105 0.039152637 -0.1447212 -0.027337488 0.034620695 0.061711174
0.0050731683 0.038201924 -0.09763799 -0.16344227 -0.098583 -0.07653972 0.065261565 0.038779136
-0.046239287 -0.084052175 0.014317176 0.05108715 -0.1456191 0.016913448 0.043839443 -0.09095457
0.06496574 -0.09394489 -0.097891904 0.066557445 0.025785083 -0.10282774 -0.12163398 -0.043551423
-0.07251965 -0.121621326 -0.08269344 -0.11211523 0.004687971 0.061157763 -0.111010864 0.018345019
