recording/dqn_retail_model_3_lr_0.0005_ed_0.99_g_0.9.pth (torch, 71654 bytes, 5 tensors)

0.weight f4 [128, 3]
0	0xbeaf2f14	-0.34215605
1	0x3f008eab	0.50217694
2	0xbefb2fcd	-0.49059907
3	0x3e34d80b	0.17660539
4	0xbd05afdd	-0.03263842
5	0xbea0c201	-0.31398013
6	0x3e5c3aea	0.21506849
7	0xbeca0bdc	-0.39462173
8	0x3e8785b1	0.26469186
9	0x3e7ce922	0.24698308
10	0x3e8966e3	0.2683631
11	0xbf0905ef	-0.5352468
12	0xbefea28b	-0.49733385
13	0xbf13c12e	-0.57716644
14	0xbed9df2a	-0.42553073
15	0x3e984f20	0.29747868
16	0x3ea80aad	0.32820645
17	0xbd67a78b	-0.056556266
18	0x3bdd41c9	0.006752227
19	0x3e99bdbc	0.30027568
20	0x3f00267c	0.5005872
21	0x3df067f9	0.11738581
22	0x3e8bbc2d	0.27292004
23	0xbb5423ff	-0.0032370088
24	0x3df8c1b4	0.12146321
25	0xbe47859f	-0.19484566
26	0xbe9a6c6a	-0.30160838
27	0x3e7cfa85	0.2470494
28	0x3f060280	0.52347565
29	0xbdd2ae4c	-0.10287151
30	0x3e1f59d2	0.15561607
31	0xbf040abd	-0.51578885
32	0x3e48fce4	0.1962772
33	0x3f0f117a	0.5588604
34	0x3e95f7b5	0.29290548
35	0xbe8516eb	-0.25994048
36	0xbee95e3b	-0.45579705
37	0x3e73be7b	0.23803131
38	0xbdcedfdf	-0.10101294
39	0x3e94a799	0.29034117
40	0xbf081301	-0.53154
41	0x3d6b88bb	0.057503443
42	0xbe503f3d	-0.20336623
43	0xbecab8bc	-0.39594066
44	0x3e127d8f	0.1430571
45	0xbd69aaf9	-0.057047818
46	0xbe7d0a32	-0.2471092
47	0xbf01210f	-0.5044107
48	0x3ed6871d	0.41899958
49	0xbd86e5d6	-0.065868065
50	0xbc60577e	-0.013692735
51	0x3e0145de	0.12624308
52	0xbf08c1c6	-0.53420675
53	0xbf10c8cf	-0.5655641
54	0x3f10fda8	0.5663705
55	0xbefb6a0f	-0.49104354
56	0x3ed5f7b7	0.41790554
57	0x3e11e529	0.14247574
58	0x3e75db89	0.24009527
59	0xbe7cab96	-0.2467483
60	0x3eec9673	0.46208534
61	0x3e21774d	0.15768166
62	0xbe6563ab	-0.22401302
63	0x3edef572	0.43546635
64	0x3f051760	0.5198879
65	0x3eedf820	0.46478367
66	0x3dc19d19	0.09453792
67	0xbe7915ef	-0.24324773
68	0xbebaf542	-0.36515242
69	0xbe3cbb61	-0.18430854
70	0x3e94f4e5	0.2909309
71	0x3ec57149	0.38562992
72	0x3ed804e7	0.4219124
73	0x3e969adc	0.29415023
74	0x3f01cf5a	0.5070702
75	0x3e8e7ecb	0.2783111
76	0xbee7dd67	-0.45286104
77	0xbed63fd2	-0.41845566
78	0x3f02fd2b	0.51167554
79	0x3f002d4d	0.50069124
80	0xbedad059	-0.42737082
81	0x3ebee5e9	0.37284783
82	0x3f1475d7	0.5799231
83	0xbf0c9b0c	-0.5492408
84	0x3ed41e19	0.41429213
85	0xbe49d93b	-0.19711773
86	0x3f04de7e	0.51901996
87	0xbdd5317f	-0.10409831
88	0xbef71768	-0.48260045
89	0xbe7483f9	-0.23878469
90	0xbeeb6bb6	-0.45980614
91	0xbe61199e	-0.21982428
92	0x3ec7f664	0.3905517
93	0x3ee33c93	0.44382152
94	0x3d815dbe	0.06316708
95	0x3ed87071	0.42273286
96	0x3e9ae535	0.30252996
97	0x3eeecb80	0.46639633
98	0xbf055d2f	-0.5209531
99	0xbf0dd644	-0.5540507
100	0x3d79bd9a	0.060971834
101	0x3a785531	0.0009473144
102	0xbe5bca38	-0.21463859
103	0xbe3890e8	-0.18024027
104	0x3ea7cf2d	0.3277525
105	0xbf035bc9	-0.5131193
106	0xbe87f582	-0.26554495
107	0xbada9719	-0.0016677111
108	0xbe25cf75	-0.1619242
109	0x3e54d85a	0.20785657
110	0xbee6364a	-0.44963294
111	0xbeb49781	-0.35271838
112	0xbe55e9a3	-0.20889907
113	0x3cd2ec65	0.025747487
114	0x3ddda9a8	0.10823375
115	0x3dec3cd7	0.11535042
116	0x3e4898b7	0.19589506
117	0x3dc648d5	0.0968186
118	0x3db35ce4	0.08757952
119	0xbe134df6	-0.14385208
120	0xbe7b8a4b	-0.24564473
121	0xbd0c090c	-0.034188315
122	0xbef9a53f	-0.48758885
123	0x3e8399a4	0.25703156
124	0x3e8cce04	0.27500927
125	0xbdfa5759	-0.122236915
126	0xbd5dffc3	-0.05419899
127	0xbe73bcea	-0.23802534
128	0x3da2b32b	0.0794433
129	0x3e7dd220	0.24787188
130	0x3edb0ae6	0.42781752
131	0xbe9bf797	-0.30462334
132	0xbe20954e	-0.15681955
133	0xbefb7f59	-0.49120596
134	0x3e9e5191	0.30921605
135	0xbe577f5e	-0.2104468
136	0xbdeeb2c0	-0.116551876
137	0xbf03a1ed	-0.51418954
138	0xbce8f617	-0.028437657
139	0x3c95105f	0.018196283
140	0x3eb89a14	0.36055052
141	0x3e33938a	0.1753675
142	0x3df38450	0.11890471
143	0xbea19edd	-0.31566516
144	0x3ee8a1a0	0.4543581
145	0x3e3b678e	0.18301222
146	0xbdee0c98	-0.11623496
147	0xbe01fce2	-0.12694123
148	0xbed96b7d	-0.4246482
149	0xbeb0016f	-0.34376094
150	0x3edbd420	0.42935276
151	0xbd57fd61	-0.052731875
152	0xbe49d961	-0.1971183
153	0x3e619155	0.22028096
154	0xbe56dc90	-0.20982575
155	0x3e85d13e	0.26136202
156	0x3e9ef86a	0.310489
157	0xbf117c0c	-0.56829906
158	0xbe7ed3b9	-0.24885453
159	0x3e2086bf	0.15676402
160	0xbe3f7474	-0.18696767
161	0x3ec20e5a	0.37901574
162	0x3f06892c	0.5255306
163	0xbedb2dd8	-0.42808414
164	0x3ea05baf	0.3131995
165	0x3e7531b5	0.23944743
166	0x3e0a253c	0.13490766
167	0xbd92fdb3	-0.071772955
168	0x3ef38c17	0.47567818
169	0x3f09ac7a	0.53778803
170	0x3f026411	0.5093394
171	0xbecb010a	-0.3964923
172	0x3e7fc214	0.24976379
173	0x3f141bf7	0.5785517
174	0x3ec4781b	0.38372883
175	0x3dc55c99	0.09636802
176	0xbebee3a2	-0.37283045
177	0xbde0754a	-0.10959871
178	0x3f114dcc	0.56759334
179	0x3eb8ca2a	0.3609174
180	0x3f1482dc	0.58012176
181	0xbea41d10	-0.32053423
182	0xbdeee17d	-0.11664102
183	0x3f18329e	0.59452236
184	0x3e8a1243	0.26967058
185	0xbe0d5174	-0.13800603
186	0xbedfdf5c	-0.43725097
187	0x3dda0208	0.10644919
188	0x3d429f17	0.047515
189	0x3f0aa2ec	0.5415485
190	0xbec8b38f	-0.39199492
191	0xbe6caaa0	-0.23111963
192	0xbe454180	-0.19263268
193	0xbeb2c5e0	-0.34916592
194	0x3e947cdd	0.29001513
195	0xbe0b4e01	-0.13603975
196	0xbf0d532b	-0.5520503
197	0xbe8a8530	-0.2705474
198	0xbdf46a02	-0.11934282
199	0x3eac9c02	0.33712775
200	0xbda192ff	-0.078893654
201	0x3df1ffa8	0.11816341
202	0x3ed937c3	0.42425355
203	0x3eb3d5a9	0.35123947
204	0x3c95aad7	0.01826994
205	0xbed9bd28	-0.42527127
206	0xbf0cb6d4	-0.54966474
207	0x3dc52557	0.09626263
208	0xbf06b129	-0.52614075
209	0xbe3df7c5	-0.18551548
210	0x3ec0f03d	0.37683287
211	0x3e3404a9	0.17579903
212	0x3d818447	0.06324058
213	0xbbf171ec	-0.007368317
214	0xbeb432e6	-0.35195082
215	0x3f0fea4c	0.56216884
216	0xbe98a027	-0.29809687
217	0xbf06a47c	-0.52594733
218	0xbe2e4de3	-0.17021899
219	0xbeaded1d	-0.33969966
220	0x3e1636b4	0.14669305
221	0x3e3d7e6f	0.18505262
222	0x3eaf1807	0.3419802
223	0xbd1e875d	-0.03870331
224	0xbd704b1d	-0.058665384
225	0x3e55f6df	0.20894955
226	0x3f049980	0.5179672
227	0xbe6ca9ad	-0.23111601
228	0xbf078754	-0.5294087
229	0x3ee8f77d	0.4550132
230	0xbe922206	-0.28541583
231	0x3e8cff5a	0.27538568
232	0xbf0ca5f3	-0.5494072
233	0x3ef5c5a4	0.4800235
234	0x3f1abd84	0.6044543
235	0xbed0d1b5	-0.40784994
236	0x3ec7775d	0.38958254
237	0xbe44ff4a	-0.1923801
238	0x3e4c335b	0.19941466
239	0x3dcd5dec	0.1002768
240	0xbd8e0571	-0.069346316
241	0x3ea93a37	0.33052227
242	0xbf043e74	-0.51657796
243	0x3f03fc28	0.51556635
244	0x3f10b5d5	0.56527454
245	0x3eaf513f	0.34241673
246	0xbdea9b3c	-0.1145539
247	0xbdd94c87	-0.106102996
248	0x3ef47919	0.4774864
249	0xbc1c79b7	-0.009550503
250	0xbe86c638	-0.26323104
251	0x3c5966d5	0.013269146
252	0x3ec9ea73	0.39436683
253	0x3e83e44e	0.2576012
254	0xbed74e2b	-0.42051825
255	0xbf062c19	-0.5241104

0.bias f4 [128]
0	0x3eb6b58b	0.3568538
1	0x3f05e4c2	0.5230218
2	0x3de17110	0.11007893
3	0x3ee58e1e	0.4483499
4	0x3ee3d46e	0.44498008
5	0xbd9f19a5	-0.07768563
6	0xbbd82644	-0.0065963585
7	0xbd8a6fb1	-0.06759585
8	0x3e810a46	0.2520315
9	0x3d761459	0.060078
10	0x3f0a8aac	0.54117846
11	0x3e7fb86e	0.24972698
12	0xbea2238f	-0.31667754
13	0x3e6762f0	0.22596335
14	0xbedaaac3	-0.42708406
15	0xbf0037de	-0.50085247
16	0xbde82a02	-0.11336137
17	0x3eef166e	0.466968
18	0x3f111f3b	0.5668828
19	0x3f0129bc	0.50454307
20	0x3d8dc4d0	0.06922305
21	0xbd42a882	-0.047523983
22	0xbe07e5cf	-0.13271259
23	0x3eb8de52	0.36107117
24	0x3e814f28	0.25255704
25	0xbf141105	-0.5783847
26	0xbdc419dd	-0.095752455
27	0xbe9d4bd4	-0.30721915
28	0xbe4a23ba	-0.19740191
29	0x3ea31d3d	0.31858245
30	0xbdaa8fd5	-0.08328215
31	0xbef8000f	-0.48437545
32	0x3ea0cc99	0.31406096
33	0xbedc6a5d	-0.430499
34	0xbe868992	-0.26276833
35	0x3dd57d6b	0.10424312
36	0xbf045f29	-0.517077
37	0x3e7e542b	0.24836795
38	0xbee43b6e	-0.4457659
39	0xbf00bf54	-0.50291944
40	0xbf0c283b	-0.54748887
41	0x3e3c979f	0.18417214
42	0xbef4e5c3	-0.47831544
43	0x3e75b7d9	0.23995914
44	0xbeb7f3ee	-0.3592829
45	0x3e4bafb2	0.19891241
46	0xbe8d3ef3	-0.2758709
47	0x3ea3c0d8	0.31983066
48	0xbe6aa234	-0.22913438
49	0xbe2fde5a	-0.17174664
50	0xbd2a99ac	-0.04165046
51	0x3ec568ff	0.38556668
52	0x3e7398b6	0.23788723
53	0xbf057b28	-0.52141047
54	0xbea88d8d	-0.32920495
55	0x3e96616a	0.29371196
56	0xbe9ab5d7	-0.30216858
57	0x3ea534e4	0.32266915
58	0x3eea6310	0.45778704
59	0xbca2ec83	-0.019888168
60	0xbe9114fd	-0.28336325
61	0xbf0322ed	-0.5122517
62	0xbcd5579a	-0.026042748
63	0x3e9e23d1	0.308867
64	0xbe8e5eb3	-0.27806625
65	0x3da51445	0.08060507
66	0xbd913bbc	-0.070914716
67	0x3ec6dc70	0.38840055
68	0xbed3fcf7	-0.41403934
69	0xbe7cd8cd	-0.24692078
70	0xbe94d49d	-0.2906846
71	0xbebbd624	-0.36686814
72	0x3d4d0295	0.05005129
73	0x3e0adf17	0.13561665
74	0x3ed7e5a2	0.42167383
75	0xbeb55e31	-0.35423425
76	0xbe8d24fb	-0.27567276
77	0x3e0d788c	0.13815516
78	0x3eee5ad8	0.46553683
79	0xbd002520	-0.031285405
80	0x3ee67497	0.45010826
81	0x3ef4bf86	0.4780237
82	0xbe556129	-0.20837845
83	0xbeea5b51	-0.45772794
84	0x3e89e18f	0.269299
85	0xbe9f5476	-0.31119126
86	0x3e889751	0.26677945
87	0x3da2bb20	0.079458475
88	0xbef2c4c5	-0.47415748
89	0xbd81c169	-0.06335718
90	0xbef28e48	-0.47374177
91	0xbd688e52	-0.056776352
92	0x3ef5bdf3	0.47996482
93	0xbe84c90f	-0.25934646
94	0xbec30300	-0.38088226
95	0x3e11e07e	0.14245793
96	0x3e124790	0.14285111
97	0x3db32432	0.08747138
98	0xbf072829	-0.52795655
99	0xbe93597c	-0.2877921
100	0x3eae72ec	0.34072053
101	0xbd0f4e9b	-0.034987073
102	0x3ea57426	0.32315177
103	0xbee62655	-0.4495112
104	0x3cac913e	0.02106535
105	0x3eb57c0f	0.35446212
106	0x3e0ce38a	0.13758674
107	0x3f0f6662	0.560156
108	0xbf05d50a	-0.52278197
109	0xbe774174	-0.24146062
110	0x3e53c2ae	0.20679733
111	0x3eff3c38	0.4985063
112	0xbec778c3	-0.3895932
113	0x3efd005b	0.49414334
114	0x3d791470	0.060810506
115	0xbd04b9bc	-0.032403693
116	0x3e225898	0.15854108
117	0xbe088f7d	-0.13335986
118	0x3ee7c9f7	0.45271274
119	0xbe7be54f	-0.24599193
120	0x3e87edce	0.26548618
121	0x3e538a6b	0.20658271
122	0x3d4ad8fd	0.049523342
123	0x3e6ab165	0.22919233
124	0xbf03c54e	-0.5147294
125	0x3f17dffb	0.5932614
126	0xbece9b0b	-0.40352663
127	0xbeb0ec79	-0.34555414

2.weight f4 [128, 128]
0	0xbd9516fc	-0.072797745
1	0x3bcf2206	0.0063211946
2	0xbd74a92a	-0.05973164
3	0xbda1a527	-0.078928284
4	0x3cb8e3b7	0.02256952
5	0x3d9878aa	0.0744489
6	0x3d2e35dd	0.042531837
7	0x3a955012	0.0011391661
8	0xbd622fec	-0.055221483
9	0xbd4c5157	-0.04988226
10	0xbd6b30a6	-0.05741944
11	0x3d29311b	0.041306596
12	0xbd0d7bd2	-0.034541912
13	0x3d51bced	0.051205564
14	0x3d1f69ba	0.038919188
15	0x3cc8f32b	0.024530014
16	0x3da036f4	0.078229815
17	0x3d70915d	0.05873238
18	0xbd89cf37	-0.06728976
19	0x3d9fdad5	0.07805411
20	0x3d3af863	0.045647036
21	0xbc6b91e9	-0.014378049
22	0xbb5a3a35	-0.0033298854
23	0xbbc02fc8	-0.005865071
24	0xbc9f9d72	-0.019484255
25	0x3d69f64c	0.057119653
26	0xbd968a0b	-0.07350548
27	0x3d6585ab	0.05603568
28	0xbd482bf9	-0.04887006
29	0xbcab0e4e	-0.020880844
30	0xbd0a67a4	-0.033790246
31	0xbd9c902d	-0.07644687
32	0xbd2bd076	-0.04194685
33	0x3d4fb156	0.05070623
34	0x3d2b1464	0.041767493
35	0xbd83f6ca	-0.06443556
36	0x3d7c358e	0.06157451
37	0xbd497927	-0.049187806
38	0x3cbd5541	0.023111941
39	0xbd95822a	-0.073002174
40	0x3ccdde75	0.02513049
41	0xbcd76983	-0.02629543
42	0x3d9940cd	0.07483063
43	0x3cc3d3ba	0.02390467
44	0x3cf995ba	0.030466903
45	0x3d2d5eaf	0.042326625
46	0x3a58138c	0.0008242659
47	0xbcbd4322	-0.0231033
48	0xbcef2e63	-0.029196924
49	0x3c37c896	0.011217257
50	0xbd3cadca	-0.046064176
51	0xbd1dbe07	-0.038511302
52	0xbcd57aab	-0.02605947
53	0xbcdb87d4	-0.026798166
54	0xbd4a31d4	-0.049363926
55	0x3dac43e8	0.084113896
56	0xbd649d92	-0.055814333
57	0xbd56150d	-0.05226617
58	0x3c82dd7b	0.01597475
59	0x3d9752c4	0.07388833
60	0x3d988375	0.074469484
61	0xbd4672bd	-0.048449267
62	0xbd86c742	-0.06580974
63	0xbd7f3af1	-0.06231207
64	0x3da57a96	0.08080022
65	0x3d6901c5	0.056886453
66	0x3d3d1408	0.04616168
67	0x3d7ad57e	0.06123876
68	0x3d452641	0.048132185
69	0xbc42eacd	-0.011896801
70	0x3d2b7741	0.041861776
71	0xbd898ef3	-0.067167185
72	0x3cd1ea7b	0.025624504
73	0xbd580c3c	-0.052746043
74	0x3d378035	0.044800002
75	0x3babf95a	0.005248231
76	0xbd444765	-0.04791965
77	0xbce48b2f	-0.0278984
78	0xbd5a4ad9	-0.053294037
79	0xbd9d4b91	-0.07680429
80	0xbd9118be	-0.07084797
81	0xbc879533	-0.016550636
82	0x3da28b27	0.079366975
83	0xbcf8aa86	-0.03035475
84	0x3d0e74e6	0.03477945
85	0xbc19cc97	-0.009387157
86	0xbcbf516b	-0.023354253
87	0x3d96cc13	0.07363143
88	0xbd97d001	-0.074127205
89	0x3d8c9aab	0.06865438
90	0xbace4e28	-0.0015739845
91	0x3c8caa57	0.017171068
92	0xbd526327	-0.05136409
93	0x3d832183	0.06402876
94	0x3b7ac7fe	0.0038266177
95	0x3d8b53c2	0.06803085
96	0x3b5b9ec4	0.003351138
97	0xbda849e9	-0.08217222
98	0xbc1b6426	-0.0094843265
99	0xbd29c838	-0.04145071
100	0xbd21c76e	-0.03949683
101	0x3cdc0064	0.026855655
102	0xbd928831	-0.07154883
103	0x3c8ff164	0.017571159
104	0xbc8c4aa3	-0.017125433
105	0x3d7fe99e	0.062478654
106	0xbc80e512	-0.01573423
107	0xbcb12cca	-0.021627802
108	0x3d9ba383	0.07599547
109	0xbd019877	-0.031639542
110	0x3cbc5668	0.02299042
111	0xbd510355	-0.05102857
112	0xbcf7675b	-0.03020065
113	0x3d507137	0.05088922
114	0x3da8c49c	0.08240625
115	0xbd1ff628	-0.039053112
116	0xbc434c84	-0.011920098
117	0x3cff8d2a	0.031195242
118	0xbbdffcb4	-0.0068355445
119	0x3d6c7649	0.057729993
120	0xbda57336	-0.08078615
121	0x3da4955f	0.08036303
122	0xbccbb07c	-0.024864428
123	0xbd26c52a	-0.040715374
124	0xbb05de48	-0.002042668
125	0x3d589cdf	0.05288398
126	0x3d8096d3	0.062787674
127	0xbd55093f	-0.05201077
128	0x3b52417f	0.0032082496
129	0xbd1ce31f	-0.038302537
130	0x3c88f5a7	0.016718699
131	0xbd460150	-0.048341095
132	0xbcd6a813	-0.02620319
133	0x3cffdb83	0.031232601
134	0xbcbc113b	-0.022957435
135	0xbd09a226	-0.033601902
136	0xbd4706e3	-0.048590552
137	0xbd68a4c9	-0.056797776
138	0xbc172241	-0.009224475
139	0x3dc0dd70	0.09417236
140	0x3d3c1963	0.04592265
141	0x3de34fed	0.11099229
142	0x3daec4e3	0.08533647
143	0xbd1fb991	-0.03899533
144	0xbd1dc529	-0.038518105
145	0x3cd256f6	0.025676232
146	0x3ca446b0	0.020053238
147	0x3d90d994	0.0707275
148	0x3b52a91c	0.0032144254
149	0x3d2ab48e	0.041676097
150	0x3d72368b	0.059134047
151	0x3dccf67f	0.10007953
152	0x3cbdb778	0.023158774
153	0xbcdda3de	-0.027055677
154	0x3d1e3135	0.038621146
155	0xbd375a65	-0.04476394
156	0x3db8e4e3	0.09028032
157	0xbda12e56	-0.07870166
158	0xbd7e1426	-0.062030934
159	0x37c08887	2.295176e-05
160	0xbc32f478	-0.010922544
161	0xbd04252e	-0.03226202
162	0xbd0cce28	-0.034376293
163	0x3da95a42	0.082691684
164	0x3d7719ce	0.060327344
165	0x3d0dcdc5	0.034620065
166	0x3df9a4b1	0.121896155
167	0x3bbb6199	0.0057184217
168	0xbd216e72	-0.03941197
169	0x3da24d71	0.07924927
170	0x3da2a51d	0.07941649
171	0x3b8a5355	0.0042213597
172	0x3dd736bf	0.10508489
173	0x3a9b465c	0.001184653
174	0xbd514067	-0.05108681
175	0xbc057aad	-0.008146924
176	0x3c7a664a	0.015283177
177	0x3d27e95d	0.040994037
178	0x3deae2fc	0.11469075
179	0x3dc0de2e	0.094173774
180	0x3d8c7ea9	0.06860096
181	0xbcdeb51e	-0.027185973
182	0x3d878356	0.06616847
183	0xbcb5af41	-0.022178294
184	0xbbcf1e94	-0.006320784
185	0xbce8619e	-0.02836686
186	0x3daf9cb4	0.085748106
187	0x3d950135	0.07275621
188	0x3da8cc21	0.082420595
189	0x3ca73825	0.020412514
190	0xbd39062d	-0.045171905
191	0x3cb255fe	0.02176952
192	0x3dd4f0b7	0.10397475
193	0xbc223193	-0.009899515
194	0xbd7675b6	-0.06017085
195	0xbd27811e	-0.04089462
196	0x3d06ef6d	0.032943178
197	0x3d2a9726	0.041648053
198	0x3cb17be8	0.021665528
199	0xbccda084	-0.025100954
200	0xbd012497	-0.031529035
201	0x3d83b5c1	0.06431151
202	0x3dcce8f2	0.10005368
203	0xbd15a1b8	-0.03653118
204	0xbcf3aa0b	-0.029744169
205	0x3d804158	0.06262463
206	0x3d6fb35b	0.058520656
207	0x3cb8e9de	0.022572454
208	0xbda7861d	-0.08179877
209	0xbc21fd2c	-0.009887021
210	0xbd2ca39a	-0.04214821
211	0x3d7a2575	0.061070878
212	0x3d621677	0.055197205
213	0xbcf55479	-0.029947506
214	0xbd6e2f2a	-0.058150448
215	0xbd352e2a	-0.04423348
216	0x3d4bd8c6	0.049767278
217	0xbd3b8615	-0.045782167
218	0xbda24d20	-0.07924867
219	0x3d90ab51	0.07063926
220	0x3c036556	0.008019766
221	0x3c055f88	0.008140452
222	0x3d17783e	0.036979906
223	0x3dc1542f	0.09439885
224	0x3da924e6	0.08258991
225	0xbd88160d	-0.06644831
226	0x3df5c7f7	0.12001031
227	0xbce726e0	-0.02821678
228	0x3d4444fe	0.04791736
229	0x3d80e9c8	0.0629459
230	0xbd9a6338	-0.07538456
231	0x3c9fac62	0.019491378
232	0x3da14e76	0.07876293
233	0x3cb0da40	0.021588445
234	0x3ca1a033	0.01972971
235	0x3c10a2d9	0.008827888
236	0x3d91cd2c	0.071192116
237	0xbd4ecd37	-0.050488677
238	0x3d16cd1c	0.0368167
239	0x3def2664	0.11677244
240	0xb9e294c8	-0.0004321693
241	0xbca02c2d	-0.019552315
242	0xbcecee9a	-0.028922368
243	0x3d989f6a	0.07452281
244	0xbd657a1f	-0.056024667
245	0xbd6334fb	-0.055470448
246	0xbd3e703a	-0.046493746
247	0xbc8eb03c	-0.01741802
248	0x3da7fe57	0.08202808
249	0x3de7a932	0.11311568
250	0x3da5f533	0.08103409
251	0x3c717b62	0.014738889
252	0x3d87404a	0.06604059
253	0x3dbf42a4	0.093388826
254	0x3d456c86	0.0481992
255	0x3ded210e	0.1157857

2.bias f4 [128]
0	0x3d83c578	0.064341486
1	0x3daf99cd	0.08574257
2	0x3c12eaeb	0.008967142
3	0xbd8907ac	-0.066909164
4	0x3d78f5ba	0.060781218
5	0x3d3808bb	0.0449302
6	0x3d79fc7c	0.061031803
7	0x3d2f7251	0.04283363
8	0xbc42be63	-0.011886212
9	0x3c925fa2	0.017867867
10	0x3d872cd6	0.06600349
11	0xbba803e4	-0.005127417
12	0x3d73a461	0.059482936
13	0xbd4ac2f4	-0.049502328
14	0x3d6c8d41	0.057751898
15	0x3d587747	0.052848127
16	0x3b8f374f	0.004370607
17	0x3d9f69c6	0.077838466
18	0x3d0587ff	0.0326004
19	0xbd5b9046	-0.053604387
20	0x3d316fa8	0.043319374
21	0xbd7a98f0	-0.06118101
22	0x3dcaae5d	0.098965384
23	0x3d95f9b4	0.07323018
24	0xbd4aec70	-0.04954189
25	0xbd9f672f	-0.077833526
26	0x3d215818	0.039390653
27	0x3d0383e9	0.03210822
28	0x3ce13b77	0.027494175
29	0x3dd420e2	0.103578344
30	0xbdb37b94	-0.08763805
31	0x3bd408f6	0.006470795
32	0x3cd55a96	0.026044171
33	0x3d82d63c	0.06388518
34	0x3d1782c0	0.036989927
35	0xbc837097	-0.016044898
36	0xbc60a31f	-0.013710766
37	0x3d6232d4	0.055224255
38	0xbc731adb	-0.014837946
39	0x3d9cc3ef	0.07654559
40	0x3d5f1063	0.054458987
41	0xbc746e9e	-0.014918951
42	0x3c9f57f8	0.019451126
43	0xbd011e96	-0.03152331
44	0xbcf0ff56	-0.029418629
45	0x3d8c220f	0.06842434
46	0xbae89f51	-0.0017747675
47	0x3d890a72	0.066914454
48	0x3ca7dcc7	0.020491017
49	0xbcf70aa8	-0.030156448
50	0x3d42f30b	0.047595065
51	0xbda7d47e	-0.081948265
52	0x3c6de161	0.014519067
53	0x3d965a49	0.07341439
54	0x3d8af5a3	0.06785133
55	0x3d16a238	0.036775798
56	0xbd4a6b0d	-0.049418498
57	0xba48a2d2	-0.00076536566
58	0x3d3e7ab1	0.046503726
59	0xbd02fc05	-0.031978626
60	0x3c9c065d	0.019046003
61	0x3dd84b17	0.10561197
62	0x3baa46bf	0.005196422
63	0x3d585b61	0.05282152
64	0x3d8ab872	0.067734614
65	0x3d2f0dfc	0.042737946
66	0x3b061b45	0.0020463031
67	0xbd015bae	-0.031581573
68	0x3dac5fd6	0.08416717
69	0x3ce28931	0.027653309
70	0x3d8101ba	0.062991574
71	0x3d291faf	0.04128998
72	0x3c734740	0.01484853
73	0x3dbc2e4d	0.09188519
74	0xbd26e70f	-0.0407477
75	0xbd3a8ec3	-0.045546304
76	0x3bdbd9f2	0.0067093307
77	0x3d85f548	0.06540924
78	0x3de32ef6	0.110929415
79	0x3d8e9529	0.06962044
80	0xbd80f093	-0.06295886
81	0x3d5c4cfd	0.05378436
82	0x3dedf568	0.11619073
83	0x3dc43c6b	0.09581836
84	0xbd8029ac	-0.06257948
85	0xbc9cae58	-0.019126102
86	0xbc81a179	-0.015824066
87	0x3c6c9637	0.014440111
88	0xbd585aab	-0.052820843
89	0xbc3735e8	-0.011182286
90	0x3da1fef4	0.079099566
91	0xbd128143	-0.035767805
92	0x3cf717b7	0.030162675
93	0x3d9700db	0.0737321
94	0x3d9a480d	0.07533274
95	0xbd990213	-0.07471099
96	0x3d01cdfc	0.031690583
97	0x3db3b331	0.087744124
98	0xbdada618	-0.084789455
99	0xbc9319b2	-0.017956588
100	0x3db87d7e	0.09008311
101	0xbd117791	-0.035514418
102	0xbdb0807a	-0.08618255
103	0xbcab2eaf	-0.020896284
104	0x3d538eea	0.051649965
105	0xbb9e2ad3	-0.0048268824
106	0xbcfbcd22	-0.030737463
107	0xbbf2e9e3	-0.0074131354
108	0x3a192343	0.0005841741
109	0x3d976692	0.073926106
110	0x3db2d1f8	0.087314546
111	0xbd006ddb	-0.031354766
112	0x3d9aff37	0.075682096
113	0xbda2c75c	-0.07948181
114	0xbd29c427	-0.04144683
115	0x3dce20e6	0.10064869
116	0xbd9f5abe	-0.077809796
117	0xbcec93ba	-0.028879035
118	0xbcc18737	-0.023624046
119	0x3d222d00	0.039593697
120	0xbd3b009a	-0.04565487
121	0x3cc9bedd	0.024627144
122	0x3bb82ca3	0.0056205555
123	0xbced4b69	-0.028966622
124	0x3c30ff18	0.010803007
125	0x3d191b23	0.037379395
126	0xbd050f72	-0.032485433
127	0x3c7b18e8	0.015325762

4.weight f4 [1, 128]
0	0xbc2b38d7	-0.010450563
1	0xbe00b38c	-0.12568492
2	0x3d96f519	0.073709674
3	0x3cda7875	0.026668767
4	0xbddfdd84	-0.109309226
5	0xbd82b3c1	-0.063819416
6	0x3c95abc2	0.018270377
7	0xbd566bd4	-0.052348927
8	0xbd2492de	-0.040179126
9	0xbdf15918	-0.117845714
10	0xbddadf59	-0.106871314
11	0x3c1dbcec	0.009627562
12	0xbdee9e40	-0.116512775
13	0xbde2b704	-0.11070064
14	0xbda9d12f	-0.08291852
15	0x3d01d5b2	0.031697936
16	0x3da094d3	0.07840886
17	0xbd62e81b	-0.055397134
18	0x3da75889	0.081711836
19	0xbd94148b	-0.07230481
20	0x3d031223	0.03199972
21	0xbd149854	-0.036278084
22	0xbd108b9b	-0.03528939
23	0xbe0985df	-0.13429974
24	0xbd4792dd	-0.048724044
25	0x3cbcf727	0.02306707
26	0x3c70eec1	0.014705361
27	0xbdc00a09	-0.09376914
28	0xbdc4f530	-0.09617078
29	0xbdbf2a49	-0.09334237
30	0x3d9e8793	0.077407025
31	0xbd1f4f22	-0.038893826
32	0x3d5841c5	0.052797098
33	0x3d9f7259	0.07785482
34	0xbe07b9c5	-0.13254459
35	0xbdd7a9c6	-0.105304286
36	0xbda63443	-0.08115437
37	0xbd441ff9	-0.047882054
38	0xbdc1a967	-0.09456139
39	0xbc180476	-0.009278407
40	0xbd6b8052	-0.057495423
41	0xbd59049b	-0.052982908
42	0xbda3a07f	-0.079895966
43	0x3d5b5f51	0.053557698
44	0x3daee6a6	0.085400864
45	0xbde9c8ef	-0.11415278
46	0x3d8e1fab	0.06939634
47	0xbc16d53f	-0.009206115
48	0xbd8d44c3	-0.06897881
49	0x3dac9849	0.084274836
50	0xbd5a7b2a	-0.053340115
51	0x3c98cd3c	0.01865255
52	0xbce61efd	-0.028090948
53	0x3d8c4b77	0.06850331
54	0xbd34a27b	-0.044100266
55	0xbd11501b	-0.035476785
56	0x3d995aff	0.07488059
57	0x3d6a1613	0.057149958
58	0x3d29be80	0.04144144
59	0xbd9f41f5	-0.07776252
60	0x3d855262	0.06509854
61	0xbd896ad3	-0.06709828
62	0x3b9a6526	0.004711765
63	0xbd91fb0c	-0.071279615
64	0xbdb7fa1e	-0.08983253
65	0xbcd0ada7	-0.025473429
66	0x3d888df2	0.06667699
67	0xbdf9df66	-0.12200813
68	0xbd00b144	-0.031419054
69	0xbd4c8387	-0.04993012
70	0xbd7ada33	-0.061243247
71	0xbd84e998	-0.06489867
72	0x3cae4742	0.021274213
73	0xbd40b68c	-0.04704909
74	0x3d84335f	0.06455111
75	0xbdbc6d67	-0.09200554
76	0xbde4b914	-0.11168113
77	0xbcb0ac0d	-0.021566415
78	0xbdef1233	-0.11673393
79	0x3d4126fe	0.047156326
80	0x3bdbdd12	0.0067097032
81	0xbd1fd351	-0.039019886
82	0xbdbc01ac	-0.091800064
83	0xbd014bb4	-0.031566337
84	0x3d8d95d7	0.06913345
85	0x3cdbfec7	0.026854886
86	0xbd58ec1f	-0.052959558
87	0x3d30ba48	0.0431464
88	0xbdb5347f	-0.088479035
89	0xbddc4b99	-0.107566066
90	0x3d1c8bb6	0.038219176
91	0x3c8f857d	0.017519707
92	0xbdccadcc	-0.099940866
93	0xbe012e99	-0.12615432
94	0xbd349e16	-0.044096075
95	0x3daf650e	0.085641965
96	0xbca86064	-0.020553775
97	0xbcfd6747	-0.030933036
98	0x3bb1c713	0.005425343
99	0x3d6f6410	0.058445036
100	0xbdd1ed41	-0.10250331
101	0xbdfe9088	-0.12429911
102	0x3da35f14	0.07977119
103	0x3b014c86	0.001972945
104	0x3cb9516f	0.022621838
105	0xbdcc5568	-0.099772274
106	0x3d031743	0.032004606
107	0xbd008e79	-0.031385873
108	0xbddfc8a7	-0.10926943
109	0x3d3ff133	0.046860885
110	0xbdf22990	-0.11824334
111	0x3dade873	0.08491602
112	0xbd9c68ae	-0.076371536
113	0xbcfe2f0f	-0.031028299
114	0xbcc498a8	-0.023998573
115	0xbd1fdfbe	-0.039031737
116	0x3c9452e2	0.018105928
117	0x3c2c7db8	0.010528021
118	0x3d8c61d4	0.06854597
119	0x3cb99b1a	0.022656966
120	0x3c80ddd5	0.015730778
121	0x3d6a7285	0.05723812
122	0x3d8b5be4	0.06804636
123	0x3d08aa70	0.033365667
124	0xbd8bcbaf	-0.06825959
125	0xbd80fc4c	-0.06298122
126	0xbdbe348d	-0.09287367
127	0xbe017ddd	-0.1264567
