recording/dqn_retail_model_1_lr_0.001_ed_0.995_g_0.99.pth (torch, 71664 bytes, 5 tensors)

0.weight f4 [128, 3]
00000000: ffcf e9be 2057 b03d 7323 91bd 304d dbbe
00000010: 7439 a33e 4009 b8be 58dc 483e f27c 08bf
00000020: 2aa9 ec3e 4ce6 ff3e 59c4 9b3e bb6f c7be
00000030: bb69 d23e 6957 113d 3071 cf3d 1717 163e
00000040: 382e 893d cbd9 f7be 6dfd debe 1fee e5be
00000050: a470 dd3e 9f2d 923d f909 553e 4bed 03bf
00000060: c7b4 0a3f 4ad9 3f3e 3e5e bcbe b663 0bbb
00000070: 17c8 f3be a36a a0be 2159 afbe 8094 443e
00000080: 8d17 5f3e 1b69 c33d ec71 07bf a206 453e
00000090: 32a6 e83e f2fb dabe 4300 b73c 44a7 c6be
000000a0: 7f36 09bd 3e7d 5bbe 19f4 0a3f d8c3 33be
000000b0: 37d5 53bd 99fd e83e 1504 ca3e 9ac2 893e
000000c0: 39bf 4a3e 163e f13c 1847 bc3e 5a93 0f3f
000000d0: 2baf 76be fa7a dbbb 0733 dabe d209 50bd
000000e0: cafe afbd 4d97 cd3e 354c 263d a1a1 78bd
000000f0: 56df 373e 995d 0cbf c8b3 a6be d6c0 003f
00000100: ab40 eb3d 38cd fa3e f3c3 053f e25b c3bd
00000110: edfa 08bf a983 05be ab2d c33e db98 65bc
00000120: 4c40 ddbe fcb6 8a3e 876f 0e3f ad38 f6be
00000130: dd5a cf3e 9d63 8dbe c1cf 183f a48c 95be
00000140: 921e 8ebe 970f 8ebe 954f efbe 4d00 05bf
00000150: 5fc4 ac3e 901b b3bd 4269 063d 913e 133f
00000160: 97c5 99be c1b5 80be 7af4 153e c381 543d
00000170: 6630 f8bd 1e59 6fbe 14e7 b5be 9b96 20be
00000180: 005c cb3e 44cf ebbe 677d afbe b61c babe
00000190: 9a25 36be 5c0a 793e 14a3 013f a8ed e43e
000001a0: 1d6e 0cbd 6356 dabe 9b08 fbbe c315 03be
000001b0: f525 44bd ecaa be3e 7f19 0cbf 575f 823d
000001c0: 11c2 283e 14a1 a5be 091a 44be 6b12 913e
000001d0: a29a 703e 1b1e 153f 5593 073e 18a8 05bf
000001e0: d6cb fb3d af00 093f b43d 853e 75b5 da3e
000001f0: 524a 00bf 03bd c13d 9038 733e d253 ab3e
00000200: c957 043f 5c03 183e e5b3 46bd 255b b63e
00000210: 6c1a dcbe 29f7 04bf 02dd b03e 8ee1 0ebf
00000220: b93a c5bd 585d 90bd 8c71 9a3e 9c4c 89bd
00000230: 03c9 ad3d 3845 b13e 2ae7 de3e 724a f03e
00000240: 6aa2 263e 016c d73d cb6c 3b3e 9756 033f
00000250: 1e05 98be 8223 da3e dd9d b43d 46cb dcbe
00000260: 1ed1 f5be 8e11 b0be a8a2 95be 323e 34be
00000270: 6554 fe3d 7b00 d23e 95b1 08bf 6301 fbbe
00000280: 0477 0abe a2f8 07bf 8ae2 383e 4b2a 1dbe
00000290: 465a 2fbe 8d3c 02bf 4888 083f c7a3 c9be
000002a0: 2ece 7f3e c9a5 083f ca2a 97bc 6802 013f
000002b0: f472 e93d f88e a83e a816 8b3e ac1f 033f
000002c0: c9be 02bf e53c 83be 056d 8a3e 6f0b 2c3e
000002d0: 8fbe 3e3e 075d 09bf 0265 cf3e 89c3 e53d
000002e0: d39b d83e 0d63 be3e 0d4c e7be 6014 3abd
000002f0: 8437 0bbf c7a4 0c3f 7050 aabe 0cb0 b1bd
00000300: 2f63 06bf 72c3 b03c 515e 133f 1b97 8d3e
00000310: abb5 72be afb3 78be 1345 c1be f202 9d3e
00000320: 6f7a 043f 7316 3a3d f520 53be 6a6f d1bd
00000330: 7624 ee3d 8985 083f f0bc b83e 09a2 15be
00000340: cde6 50be e3c2 0fbe d21e d43e 94e4 173e
00000350: 1b91 98be f98c d7be c829 db3d 5c28 48be
00000360: 514e bb3e ca51 d83d 5c35 023f 7004 043f
00000370: 4580 703e 51c4 13bd e495 f2be c65e 603d
00000380: 3ae1 8d3e f05a 3abe c11c f73e 78ad 90be
00000390: 46ca 02bf f8d9 efbe 2da1 4d3e 1285 a93e
000003a0: 714c cb3e ee6e b33c 2d8d babe 5b56 b8be
000003b0: e490 44be 9868 51be 17de 093e 34d1 b63d
000003c0: fbe1 933d bb93 d6be 7979 b03e 5dc6 a83c
000003d0: ac5d 0cbf 5d0b 64be 2735 963e b2c3 c23e
000003e0: 0def 3a3c 744c 0ebe b675 0a3f efcd ac3e
000003f0: 102d 2a3e d635 853b 192f eabe c409 453e
-0.456665 0.08610368 -0.070868395 -0.42832327 0.3187977 -0.35944557 0.19615304 -0.5331565
0.46222812 0.4998039 0.3042324 -0.3895243 0.4109629 0.03548375 0.10129011 0.14657246
0.06698269 -0.4840835 -0.43552724 -0.44908234 0.4325 0.07137608 0.20804586 -0.51533955
0.54182094 0.18735233 -0.3679065 -0.002126915 -0.47613594 -0.31331357 -0.34247687 0.19197273
0.21786328 0.09541532 -0.52908206 0.19240811 0.45439297 -0.42770344 0.022338992 -0.3879949
-0.033499237 -0.21434495 0.54278713 -0.17555177 -0.05171701 0.4550598 0.3945624 0.26906282
0.19799508 0.02944855 0.3677299 0.56084216 -0.24090259 -0.0066980096 -0.42617056 -0.050790615
-0.08593519 0.40154496 0.04060002 -0.060701016 0.1795629 -0.5483032 -0.32559037 0.50294244
0.11486944 0.48984694 0.5225212 -0.0953901 -0.5350788 -0.13038506 0.3812078 -0.014013494
-0.43213117 0.2709273 0.5563893 -0.48090115 0.4049901 -0.2761506 0.5969201 -0.29208863
-0.27757698 -0.2774627 -0.46740404 -0.51953584 0.3374357 -0.087454915 0.032815225 0.57517344
-0.30033562 -0.25138667 0.14644042 0.051881563 -0.12118606 -0.2337384 -0.3552786 -0.15682451
0.39718628 -0.4605657 -0.34275362 -0.3635003 -0.17787781 0.24320358 0.5063946 0.44712567
-0.0342847 -0.42644033 -0.49030003 -0.1280127 -0.04788776 0.37239778 -0.54726404 0.06365841
0.1648028 -0.32349455 -0.19150557 0.28334364 0.23496488 0.5824906 0.13239796 -0.52209616
0.12294738 0.5351667 0.26023638 0.42716566 -0.50113404 0.09459879 0.23752046 0.33462387
0.5169645 0.14845031 -0.048511405 0.35616413 -0.42988908 -0.51939636 0.34543616 -0.5581292
-0.09630341 -0.07049054 0.30164754 -0.06704065 0.084856056 0.34623122 0.4353574 0.46931797
0.16272894 0.10518647 0.1830322 0.51304 -0.29691404 0.42605215 0.088191725 -0.43123835
-0.48011106 -0.34388393 -0.2922566 -0.1760185 0.12418441 0.41015992 -0.5339597 -0.49024495
-0.13521963 -0.5311376 0.18055168 -0.15348165 -0.1712428 -0.50873643 0.5333295 -0.39382765
0.24980995 0.5337797 -0.01845302 0.50394297 0.11398879 0.32921576 0.27165723 0.512202
-0.51072365 -0.25632396 0.270363 0.16801237 0.1862738 -0.53657573 0.4050675 0.11218936
0.42306384 0.37184945 -0.4517521 -0.045429587 -0.54381585 0.5493893 -0.33264494 -0.086761564
-0.5249509 0.02157757 0.5756579 0.27654347 -0.23702113 -0.24287294 -0.37748012 0.3066631
0.5174932 0.045431565 -0.20618041 -0.10226329 0.11628048 0.5332876 0.36081648 -0.14612593
-0.20400544 -0.14039187 0.41429764 0.1483329 -0.29798207 -0.4209974 0.107013285 -0.19546646
0.36583188 0.10562475 0.5086267 0.5156927 0.23486431 -0.036075894 -0.47379982 0.054777883
0.27710897 -0.18198752 0.48264125 -0.28257346 -0.51089895 -0.46845984 0.20081015 0.33109337
0.39706758 0.021903481 -0.36435834 -0.36003384 -0.19195896 -0.20450056 0.13463627 0.08926621
0.07220837 -0.41909584 0.34467676 0.0206024 -0.5483043 -0.2226996 0.29337427 0.3803993
0.011409533 -0.13896352 0.5408586 0.33750865 0.16618752 0.0040652556 -0.45739058 0.19242007

0.bias f4 [128]
00000000: 8f28 10bf f5c5 a43e dcad f5bd 6f93 be3e
00000010: 7c66 9dbe 0b8c 873d 702c 93be 7126 a53d
00000020: 8630 bd3e adae d73e dc8f 0e3e 2697 f63e
00000030: b41c 5cbe 4006 fd3e d102 57bd 072e be3d
00000040: 3a43 bb3e f647 173e e8e3 af3e 5681 ce3d
00000050: 20f7 bc3e 7e03 303e ecf3 d33e ed8a bfbe
00000060: 468b 3f3e dc01 ff3c c4cf a7be 1a1d 093f
00000070: 67ec c23e ac1b c53e b862 84be 454d e7be
00000080: 1418 32be bb5a 053e c2dc 413e 97ae 13bf
00000090: ad5b 093f ecce a03d 5b90 db3e d71a e43e
000000a0: 4152 113f f00a b9be 4e17 463e 5bb0 073e
000000b0: ad76 983e 15c9 1a3e ce59 973d 3d6e 3c3e
000000c0: c1c0 97bd abc1 0f3f 3997 d83e 938b c8bd
000000d0: 64ab 893e 6a04 103e 14ff f5bd d85f 673e
000000e0: f783 023f 79a9 ffbe c5c7 d1be 94dc 11bf
000000f0: a8c4 05bf ffd3 933e 9b6e d43d b134 e6b7
00000100: 609d f83e 2a8e 60be 2b4a c5be 32ae 983e
00000110: 5386 9f3e 0a19 00bf 3e4d 7bbe 8066 80bd
00000120: 9892 ba3e dfa3 1e3c 1ccb 093f 3f68 df3e
00000130: 0155 d93e e919 153f cff1 d43e c9f6 b7bd
00000140: 790d b0be ff1b 09bf 9823 e6be 7e08 d83e
00000150: b38b 113f a4a7 a03e f76c 023e 0b90 85be
00000160: 6e6f 903e 96eb bbbe 2782 d33e 2ce7 003f
00000170: 6ae6 c73d 7a99 15be 49c6 b13d a9c2 753d
00000180: 8014 343e f4ac a73e 4b28 063f c463 bd3d
00000190: e33a 71be efaa 11bf 8ae4 80be f596 9f3e
000001a0: 3f19 82be 7c3f 413e 77b8 b1bd 87ad c7be
000001b0: 0fc1 d5be 28b9 8e3e f6d0 78be 47e3 473e
000001c0: 9648 f13e 7b97 ebbe f5d6 4ebe 80d5 ccbe
000001d0: 6cfd 693e 6bf5 783e fb09 0a3f aa97 81bd
000001e0: b740 ae3e d27b 973e 0229 0f3b ae86 1b3f
000001f0: 245d 6e3e 9950 05be d10f 103f 41b6 29be
-0.5631189 0.3218228 -0.11996052 0.37221858 -0.30742252 0.06618508 -0.2874484 0.08063973
0.36951083 0.42125455 0.13922065 0.48162192 -0.21495324 0.4941883 -0.05249292 0.09286123
0.36574727 0.14773545 0.34353566 0.100832626 0.3690729 0.17188832 0.41397035 -0.3741068
0.18705472 0.031128816 -0.327757 0.5356003 0.38070986 0.38497674 -0.25856566 -0.4517614
-0.17391998 0.13022892 0.18931869 -0.5768828 0.5365551 0.07851967 0.42883572 0.44551727
0.56766135 -0.36141157 0.19344828 0.13250868 0.29778042 0.15115769 0.07390176 0.18401428
-0.07409812 0.5615489 0.42302874 -0.09792247 0.26888573 0.14064184 -0.12011543 0.22595155
0.5098261 -0.49933985 -0.40972725 -0.569772 -0.522532 0.28872678 0.10372659 -2.7442673e-05
0.48557568 -0.21929231 -0.38533148 0.298204 0.3115717 -0.50038207 -0.24541184 -0.0626955
0.36439967 0.009682625 0.53825545 0.4363422 0.42447665 0.5824266 0.41590735 -0.089826174
-0.3438528 -0.53558344 -0.4494903 0.4219398 0.5685379 0.313779 0.1273688 -0.2608646
0.28210014 -0.36703175 0.41310236 0.5035274 0.09760745 -0.14609328 0.08680398 0.060000096
0.17585945 0.3274914 0.5240523 0.092475444 -0.2355762 -0.5690145 -0.2517436 0.3116986
-0.25409886 0.18871874 -0.08677762 -0.38999578 -0.41748855 0.27875638 -0.24298462 0.19520293
0.4712569 -0.46014008 -0.20199187 -0.40006638 0.22850579 0.2431237 0.5392148 -0.06327756
0.34033749 0.29586655 0.002184451 0.6075238 0.23277718 -0.13019027 0.56274134 -0.1657343

2.weight f4 [128, 128]
00000000: 1fd7 a1bd 9d3d 0c3d c4ed 8fbc 6fe9 28bc
00000010: 6e27 ac3d cbc5 a43d caf2 3c3d aabe a63d
00000020: 10ec 463b af98 1d38 c71d 4abd cfcf 403d
00000030: d0e6 a93d 8164 b43d a2b5 cf3c eedd 85bd
00000040: 92e7 36bd 100b 0abd 89ea 6a3d bb28 e63a
00000050: 6ee5 94bd 222d 70bd 7214 b43b 6ce0 acbd
00000060: f1a7 f33c e3fc d93c 6f07 5dbd cd24 dd3c
00000070: c1ef 17bd f7e1 5dbd 85ad 813d b92e 82bd
00000080: 189e 1e3d f2f6 cc3c 7208 993d 564a 5fbd
00000090: e1c0 103d a91a 703d 9895 183d 5481 a6bd
000000a0: 02a2 84bc 3bb3 83bd 53e7 913b 29b1 9a3d
000000b0: e160 933d b005 99bd 5a23 a9bc a3e3 aaba
000000c0: e25c 7b3c 8970 60bd d24a 133c 0b17 7dbc
000000d0: f839 ad3d 9237 cfbc da8d 09bd 5e53 f5bc
000000e0: 7752 443d 81ba dabc e479 823d 0da9 983d
000000f0: 0258 bebc fc7f cabc 77b6 2bbd 2c18 873c
00000100: 2c6f a63d f719 26bd f850 a53d 634b 17bd
00000110: 4adb 48bd 931a b23c e36b 48bd 4afc eabc
00000120: ff39 81bd 3824 11bd 017c 9ebd dc62 57bc
00000130: 54e3 853d 8f26 92bd 0d5f a83d 92ab ffbb
00000140: 2434 9bbd bf8e a4bc 6b2f a0bb 1132 803d
00000150: 8eb6 0dbd dcf7 83bd e69e ad3c 064c 973d
00000160: c9b0 48bb 0c01 313d a404 74bd 131e 5b3c
00000170: a2f9 67bd 8923 953d 45af 3c3d 282c 3a3d
00000180: 5485 ba3c d723 aa3d 1a5d 97bd 880f 313c
00000190: da06 393d b88f b2bd 1e55 31bd ab3a 9dbd
000001a0: 13fa cebc f653 b2bc 0bf6 2cbd 6728 42bd
000001b0: fd0d 8f3c 2f55 5fbd 901a 43bd 5491 293c
000001c0: 87ab 8b3d ecc1 89bd 478d 863d 376c 453d
000001d0: ae50 ac3c 0aeb 58bd f7a7 6f3d 8ef3 8cbd
000001e0: 7332 283d 7393 a1bb 3795 d43c 2dea 7cbd
000001f0: d386 d93c 520f a63d ccc7 323c 5073 873d
00000200: a5fc 1a3b 684a b03c e8a4 623d 721d 953c
00000210: dfbf 3f3d 29d6 e43c da92 a23d b811 87bc
00000220: b7af a43c 9c96 d3bc 14c8 5d3c ee12 4b3d
00000230: 2b9f 823d a660 57bd 939a afbd d33d 923d
00000240: cf57 6f3d 11b0 b1bc 0071 98bd 5fda 253d
00000250: ca1c 9abd 6f1d a43d 67f5 84bc caad 983d
00000260: 2cc5 74bd edfb e83c 1d2f 89bd 9d1e abbc
00000270: 9223 87bd f4c2 91bc ce5a 963c 4a34 183d
00000280: 82d6 813d 5995 2ebc a9a7 7dbd 1a96 143c
00000290: 99e8 0c3d edf0 173d 85c7 08bd e1a3 5e3d
000002a0: 6a28 7fbd 48a1 903c 8a04 9abc ceff 80bd
000002b0: 1c2c 9b3c 2206 003d eab1 393d 28cc 90bd
000002c0: 3ade f53c d319 73bd ac32 343d ca5e d4bc
000002d0: 7cdc 5fbc 396a 633d 9a4d 443d 54d2 aabd
000002e0: b75c 66bd 4b67 153d 7888 c6bc 0520 17bd
000002f0: 4b95 913d 48b9 293c 7466 f2bc 1bd0 81bd
00000300: b10b 93bd 8641 a3bd 2901 313d c26d ae3d
00000310: 5921 973c 7c9c 083d 68b7 11bd f8f6 8c3d
00000320: b4f2 8f3d 880e 2a3d b803 81bb b3b9 e83c
00000330: 4e2b 1d3d be46 8b3d 611b 8bbd f985 9e3d
00000340: 5eac 55ba 3e68 a63d ff99 3dbd 22cf 893d
00000350: 8282 003d 0ab2 afbd cf59 01bd 7e4d 073c
00000360: 06aa 923c 46e7 29bd 6206 e4bc ea4d 0b3c
00000370: a595 04bd 4b62 49bd 8f43 e63c df58 833c
00000380: 1630 91bd 6220 0fbd 960f a73c 33a6 a73a
00000390: df8a 2abd 3123 113c b70e a0bd 00e2 84bc
000003a0: c90e 693d 5ed6 323d c2d7 bdbc 8b30 a1bd
000003b0: 8532 b13d ef67 003c 3639 393c 0a19 45bd
000003c0: ffff 993d cacd f4bc 0aaf c43b 85f7 1c3d
000003d0: a42e 21bc f67f a9bb d930 b1bd f022 f8bc
000003e0: 5fc7 913c 9ce3 ae3d 561d 87bd 9430 5d3b
000003f0: 2a64 db3b eb2b 4c3c 64b4 0d3d ddc8 acbd
-0.07902359 0.034238447 -0.01756943 -0.010309561 0.08405958 0.080455385 0.04612998 0.08141835
0.0030353107 3.7573915e-05 -0.049344804 0.04707318 0.08295977 0.08808232 0.025355164 -0.0653647
-0.044654436 -0.033701956 0.057352576 0.0017559746 -0.07270323 -0.058636792 0.0054956013 -0.084412426
0.029743167 0.026609844 -0.053962167 0.026995087 -0.03709388 -0.054170575 0.06331924 -0.06356568
0.03872499 0.025020096 0.07472314 -0.05451425 0.035340194 0.058619175 0.03725204 -0.08130136
-0.016190533 -0.0643067 0.004452625 0.07553322 0.071962126 -0.07471788 -0.02064674 -0.0013037812
0.015341969 -0.054794822 0.0089900065 -0.015447388 0.08458322 -0.025295053 -0.033582546 -0.02994698
0.047930207 -0.02670026 0.06370905 0.07454119 -0.023235325 -0.02471923 -0.04192206 0.016491018
0.08126673 -0.040552106 0.08072084 -0.03693713 -0.049037255 0.021741187 -0.048931014 -0.028684754
-0.0630989 -0.03543493 -0.077384956 -0.0131461285 0.065375 -0.07136261 0.082212545 -0.007802435
-0.075783044 -0.020087598 -0.004888465 0.062595494 -0.034597926 -0.0644376 0.021193933 0.07387547
-0.003062295 0.04321389 -0.05957474 0.0133738695 -0.056634553 0.072821684 0.046065588 0.045452267
0.022768654 0.08307617 -0.073908046 0.010806926 0.04517255 -0.087188184 -0.043294065 -0.07677206
-0.025265729 -0.021768551 -0.042226832 -0.047401812 0.017462725 -0.054524597 -0.047632754 0.01034959
0.068198256 -0.06726441 0.06569915 0.048198905 0.021034565 -0.052958526 0.058509793 -0.06882392
0.041063737 -0.0049309074 0.025950057 -0.061746765 0.026553547 0.08108391 0.010911893 0.06613791
0.0023649123 0.021519855 0.055333048 0.018202517 0.046813842 0.02793415 0.07938166 -0.016487941
0.020103319 -0.025828652 0.013536472 0.0495786 0.06378015 -0.052582406 -0.085744046 0.07140698
0.05843335 -0.0216904 -0.07443428 0.040491458 -0.07525022 0.080134265 -0.016230298 0.07455023
-0.05975835 0.02844044 -0.06698439 -0.020888621 -0.065985814 -0.017793156 0.018353846 0.03715924
0.06339742 -0.010655724 -0.06192747 0.00906899 0.03440151 0.037095 -0.0333934 0.054355506
-0.0622944 0.01765503 -0.018800993 -0.06298791 0.018941931 0.03125585 0.045335688 -0.0707019
0.030013192 -0.0593508 0.043993637 -0.025924105 -0.013663407 0.055521224 0.04792557 -0.08340898
-0.056240764 0.03647546 -0.024234995 -0.03689577 0.071085535 0.010359116 -0.02958987 -0.06338521
-0.07179964 -0.07971482 0.043213997 0.085170284 0.018448519 0.03335236 -0.0355753 0.06883043
0.07028714 0.041517764 -0.003937211 0.02840886 0.038371377 0.068006024 -0.067923315 0.07740397
-0.000815099 0.08125351 -0.04628944 0.067289606 0.031374462 -0.0857888 -0.03157979 0.008258222
0.01790334 -0.041480325 -0.027835075 0.008502463 -0.032369275 -0.049166005 0.028108386 0.016033588
-0.0708925 -0.034942992 0.020393174 0.001279062 -0.041636344 0.008858488 -0.07815307 -0.016221046
0.056898866 0.043661468 -0.02317417 -0.07870587 0.08652214 0.00783728 0.011305144 -0.048119582
0.075195305 -0.029883284 0.0060023116 0.03832199 -0.00983778 -0.005172725 -0.08651895 -0.030290097
0.017795263 0.08539507 -0.06597392 0.0033750879 0.00669529 0.012461643 0.034595862 -0.08436749

2.bias f4 [128]
00000000: 4d35 a63d e62e 40bc f093 a1bd cf24 dbbc
00000010: 9a53 923c ac80 0cbd b4a9 7bbd 8e73 8ebd
00000020: a147 76bc e107 e53b 171a f53c de73 f03d
00000030: 6a25 563b c3e0 22bc fd44 983d 8a66 aa3c
00000040: 6a53 863c ca83 0a3e 03ec 003d aa60 0f3d
00000050: 60a5 f73c 1ef1 a63c 6a58 0abd f609 b33c
00000060: 1d22 323d 8c51 bcbd acbd af3d ceba 033c
00000070: 80fd 6ebc 37ce 7abd 08f0 563d a1d0 26bd
00000080: 6ba4 843d 3806 0d3d b731 d03c b62f ac3d
00000090: 88e6 533c b685 183d 24e4 0bbd a6f9 e03b
000000a0: 5e04 9bbd b017 593d 37d8 dbbb 1e7d 9abd
000000b0: 2243 463c a4c3 7c3d b96e 6b3c fcde e7bc
000000c0: 8f6f 67bd 155d 353d 7b76 903b 62a6 9a3d
000000d0: 260c 58bd 9498 5a3d 806a 89bd 176b a3bc
000000e0: 865b c2bc 3b9e 8a3d b947 063e 5cb2 473d
000000f0: c4ae ba3b cfe0 963d 6985 2dbb af61 02bc
00000100: cf98 813d 6ef0 b53d eebe b1bd ef86 b4bb
00000110: 668d be3d 7694 ae3d c5c9 bd3c 555b 7f3d
00000120: 82ed d6bc d2e9 3dbd e946 97bd 0bdc 633d
00000130: 25d8 6ebd 2aa4 6a3c 54d9 4ebc 4691 403d
00000140: ca3c 92bb 3b3a 6c3d e6bf a23c 4251 13bd
00000150: 256a 90bd cab4 22bc 0811 b6bb 10c5 42bd
00000160: 81f2 793d a320 a13d 245b 863d 208a c0bd
00000170: 122d 153d ae1f bf3c 7d3f 9e3d ef85 ec3c
00000180: e11d 22bc b35b 7bbd 714b e73b a062 883d
00000190: 8c12 99bd 6db6 4cbc 497a 36bc e2e2 2cbd
000001a0: 8b54 5e3b e6c4 7a3d 985d e7bc b78b c33b
000001b0: 4b55 a33c 2f2e de3c 257c 003d f9dd 643d
000001c0: 6242 883c f751 123c 6d2a 703d d72a e73d
000001d0: d7e0 82bd 4465 67bc 521e 373c ef60 2bbd
000001e0: 3e23 86bd 963c 783d a57a 993d 4e56 0c3e
000001f0: 2b50 06bc 28b4 fd3c e320 813a 3c84 95bd
0.08115635 -0.011729931 -0.07889545 -0.02675095 0.01786213 -0.0343024 -0.06144114 -0.06955634
-0.015031726 0.0069894646 0.029919667 0.1174085 0.003267611 -0.009941283 0.074350335 0.020800848
0.016397197 0.13526836 0.03147508 0.035004295 0.030230224 0.020378646 -0.033775724 0.021855336
0.043489564 -0.09195241 0.08581099 0.008040143 -0.014586806 -0.061231818 0.052475005 -0.040726308
0.06476673 0.03442976 0.02541433 0.08407538 0.012933381 0.03723689 -0.03415312 0.006865698
-0.07569192 0.053001106 -0.0067091244 -0.075433955 0.012100967 0.061710015 0.01436966 -0.02830457
-0.056502875 0.044278223 0.004408655 0.07551266 -0.05274596 0.053368166 -0.067097664 -0.019948525
-0.023725282 0.06768461 0.13113298 0.04875408 0.005697103 0.073670976 -0.0026477224 -0.00795786
0.06327974 0.08883749 -0.08678995 -0.0055092494 0.09304313 0.085244104 0.0231675 0.06234296
-0.0262363 -0.046365567 -0.07386572 0.05562977 -0.0583116 0.014321366 -0.012625057 0.047013544
-0.004462813 0.05767272 0.019866895 -0.035966165 -0.070514955 -0.009930799 -0.0055562295 -0.047551215
0.061022285 0.07867553 0.065603524 -0.09401345 0.036419936 0.023330536 0.07726953 0.028872458
-0.009894819 -0.061366748 0.007058554 0.06659436 -0.07474241 -0.012494666 -0.0111375535 -0.04220856
0.0033924903 0.061222933 -0.028242871 0.005967583 0.019938132 0.027121631 0.031368393 0.055875752
0.016633216 0.008930675 0.05863421 0.11287468 -0.06390541 -0.014123265 0.0111766625 -0.04184049
-0.06549691 0.060604654 0.07494096 0.13704798 -0.0081978245 0.030969694 0.000985172 -0.07300612

4.weight f4 [1, 128]
00000000: e639 873d 7b93 1dbd 5a80 09bd a4f3 363d
00000010: 7086 823c ab14 9f3d d794 a73d 07ab e03c
00000020: a3e1 323d 9100 aa3d 2e32 18bd dc18 19be
00000030: 45cb aa3d 13f8 99bc 59bf d9bb c36d 6e3d
00000040: a4b4 0b3d 4803 d8bd 5f76 06be e408 85bc
00000050: 14cb 6c3d a025 15be b0f6 2dbc a252 a63b
00000060: 6a6e 893d 6da2 783d 4529 5c3c 2c5d d93c
00000070: d908 d2bd dd31 6d3d 60cf 2eb9 d7ad 393d
00000080: 5c1a 81bd f50d 96bd 89d7 04be 7541 b9bd
00000090: 3b40 493d 5a4e 893c 5f6d 783d 8567 acbd
000000a0: 8d2f c33c 3c65 9fbd 3bd8 d4bd 8afc 753d
000000b0: 5623 c13c e5a0 a73d 48b0 06be ee58 3bbd
000000c0: 4f95 9c3d 9d71 7e3c 8dd4 393c 7fc6 703d
000000d0: 980d 1d3c 9384 f73a 8196 76bd af97 b13d
000000e0: 58ec 01be fb31 64bd 092d c0bd dc82 39bd
000000f0: e61a 0a3d 03ab 3d3d e9c6 c1bd 05e3 a43c
00000100: f5b0 c3bd 011b 8ebd 0867 cb3c d652 29be
00000110: 6f1f 8ebd 9b4e b43d 9f2c b1bd 4704 453d
00000120: a87a eebd f168 6d3d 1eb2 843c c673 773d
00000130: 020a 883b 2789 cf3c b4e0 8e3c 28ef 4ebc
00000140: 487c e4bd 1e64 d2bd fcb6 9bbd 2d66 f93b
00000150: 3086 aabc 4f26 9d3d b511 163d 1baf 553c
00000160: e54a f6bd 4306 b3bd 4778 0c3d 2454 303d
00000170: ae40 a83d 4baf fd3c ee62 003d aa5c e63b
00000180: 5a0b b0bd b58d d0bd b21d b13c 88be b4bd
00000190: 86d4 6c3d 6f65 673d ebdf 023c 9440 133d
000001a0: 1071 653d 63fe 11be 8ed8 c93b 1410 bfbd
000001b0: a9f1 08be 0b7d 14be 37f1 fa3c 2bea b0bc
000001c0: ab5f 803d ecee 01bc 0566 823d 4ff3 02be
000001d0: d5b7 98bd eb99 ae3c 5abc 01be 9d93 633c
000001e0: a9bc a43d f914 e03c cb6d 05be afb4 cebd
000001f0: c89e c93c 3f25 5f3d 1eaa bfbc afb6 a33c
0.0660284 -0.038470726 -0.03356967 0.044665948 0.015933245 0.07767614 0.08182686 0.027425302
0.043672215 0.08300889 -0.03715723 -0.1495089 0.08339552 -0.018795049 -0.006645125 0.058210146
0.03410782 -0.10547501 -0.13131092 -0.016239591 0.057810858 -0.14565134 -0.010617897 0.0050757686
0.06710513 0.060701776 0.013437574 0.026533686 -0.10255594 0.05790888 -0.00016671186 0.045331802
-0.06303856 -0.07326881 -0.12972845 -0.09045688 0.04913352 0.016760994 0.06065118 -0.08418182
0.023826385 -0.07782981 -0.10392805 0.060055293 0.02357642 0.08184985 -0.13153183 -0.045739107
0.07645666 0.015530017 0.01134218 0.05878305 0.0095857605 0.0018884115 -0.060202125 0.086715095
-0.12687814 -0.055711728 -0.0938359 -0.045290813 0.03371706 0.046305668 -0.09461767 0.020127783
-0.09555236 -0.06938744 0.024829403 -0.16535506 -0.06939589 0.08804055 -0.08651089 0.048099782
-0.116444886 0.057961408 0.016198214 0.060413145 0.0041515836 0.025333954 0.017441131 -0.0126302615
-0.11156517 -0.10273002 -0.07603261 0.0076110573 -0.020815939 0.076733224 0.03663798 0.013042237
-0.12026004 -0.08741429 0.034294393 0.043048993 0.08215462 0.030967375 0.031344347 0.0070300894
-0.08595915 -0.101832785 0.021620605 -0.088254035 0.057819866 0.05649322 0.0079879565 0.03595026
0.056016028 -0.14257197 0.0061598485 -0.093292385 -0.13373436 -0.14500825 0.030632598 -0.021596035
0.06268247 -0.007930499 0.06367115 -0.12788127 -0.07456938 0.021313628 -0.12669507 0.013890174
0.080437966 0.02735375 -0.13030164 -0.100930564 0.024611846 0.05447888 -0.023396548 0.019984571
