recording/dqn_retail_model_4_lr_0.002_ed_0.997_g_0.98.pth (torch, 71664 bytes, 5 tensors)

0.weight f4 [128, 3]
0	0xbc585121	-0.013202936
1	0x3f12f7d4	0.57409406
2	0xbe94fdb5	-0.29099813
3	0xbd9635cf	-0.07334482
4	0xbe398508	-0.18117154
5	0x3db871f7	0.09006112
6	0x3ed408cc	0.4141296
7	0xbef0acb9	-0.47006777
8	0x3ed1ff28	0.4101498
9	0xbe072e64	-0.1320129
10	0xbe5d7656	-0.21627173
11	0xbee16f54	-0.4403025
12	0x3f0b078c	0.5430839
13	0x3dc9a03e	0.09845017
14	0x3eecad24	0.46225846
15	0xbea45056	-0.3209254
16	0xbf08f4d6	-0.5349859
17	0x3f02799c	0.5096681
18	0xbd5e1ab3	-0.05422468
19	0x3ed63feb	0.4184564
20	0x3d3aff54	0.045653656
21	0x3e4dbac1	0.20090772
22	0x3dff034b	0.124518
23	0x3dd5bf48	0.10436875
24	0x3ef1e5f3	0.4724575
25	0xbda92541	-0.08259059
26	0xbec892a5	-0.3917438
27	0x3e690e98	0.22759473
28	0x3f0ad2e1	0.54228026
29	0xbeb65afd	-0.35616294
30	0x3bd0978b	0.0063657216
31	0x3e0f836d	0.14014979
32	0x3ee42be0	0.44564724
33	0x3ee918ef	0.45526835
34	0xbe45968f	-0.19295715
35	0x3c96eb27	0.018422676
36	0xbed98e2a	-0.42491275
37	0x3de3e980	0.11128521
38	0x3df6209e	0.1201794
39	0xbe49221e	-0.19641921
40	0xbe4b23d5	-0.19837888
41	0xbe08b931	-0.13351895
42	0xbd6ddb8b	-0.0580707
43	0x3e606397	0.2191299
44	0xbdc12b7e	-0.094321236
45	0x3ecad02b	0.39611945
46	0x3e86d20b	0.26332125
47	0xbe16fae9	-0.14744152
48	0xbef31a4a	-0.47480994
49	0x3efd8111	0.49512532
50	0x3e81c572	0.2534595
51	0x3e03c440	0.12867832
52	0xbe48287d	-0.19546695
53	0xbee2ac39	-0.4427202
54	0x3b8ec933	0.004357481
55	0xbec77e95	-0.38963762
56	0xbe69f7a2	-0.2284837
57	0x3e6c4440	0.2307291
58	0x3ec05377	0.3756368
59	0x3e6c0a35	0.23050769
60	0xbed804ef	-0.42191264
61	0x3e80affc	0.25134265
62	0x3df7954b	0.12089022
63	0xbf03c243	-0.51468295
64	0x3ed1f84f	0.41009757
65	0x3effa1b5	0.4992806
66	0xbf0be4df	-0.54646105
67	0xbe66d513	-0.22542219
68	0x3eb7f5c8	0.35929704
69	0xbe0747e0	-0.13211012
70	0xbeff760e	-0.49894756
71	0x3f1241fc	0.57131934
72	0xbe191bc5	-0.14952
73	0xbdd741fd	-0.10510633
74	0xbee47a68	-0.4462464
75	0xbecbbb09	-0.39791134
76	0x3dedbb9c	0.11608049
77	0xbea1fb61	-0.316371
78	0xbf1088b5	-0.564586
79	0x3e9d98fd	0.30780783
80	0x3ea62841	0.32452586
81	0x3dd9ee61	0.1064117
82	0x3f096b23	0.536791
83	0xbea00ee1	-0.31261352
84	0x3e957cd2	0.29196793
85	0xbf0f4c59	-0.5597587
86	0xbc0057c1	-0.007833422
87	0xbf0672e8	-0.52519083
88	0x3f109524	0.5647757
89	0x3f0ef62b	0.5584437
90	0x3ebe2605	0.37138382
91	0x3ed81215	0.42201295
92	0x3e1490ab	0.14508311
93	0xbee14fcd	-0.44006196
94	0x3e21d1ba	0.1580266
95	0x3f0f9efe	0.5610198
96	0xbd089c6a	-0.033352293
97	0x3e92ecca	0.2869628
98	0xbf07cea2	-0.5304967
99	0x3ecf9131	0.4054046
100	0xbecdf240	-0.40223885
101	0x3efcfaad	0.4941
102	0x3f077563	0.5291349
103	0xbe714165	-0.23560102
104	0x3e932da2	0.28745753
105	0x3ece8454	0.40335333
106	0xbeb8ddb1	-0.36106637
107	0x3f039d59	0.5141197
108	0xbf00e987	-0.50356334
109	0xbe06da88	-0.131693
110	0x3cde01ed	0.027100528
111	0x3eb3e715	0.3513724
112	0xbd6babce	-0.057536893
113	0x3e028bd8	0.12748659
114	0x3e28314d	0.16425057
115	0x3d00fbc4	0.031490102
116	0x3ed54168	0.41651464
117	0xbe9e12cd	-0.3087372
118	0x3efec381	0.49758533
119	0x3e495ca1	0.19664241
120	0x3ed48f26	0.41515464
121	0x3da56278	0.08075422
122	0xbe8641ff	-0.26222226
123	0xbca16599	-0.019701766
124	0x3e19f34e	0.1503422
125	0x3eec94ab	0.46207175
126	0x3ee03e26	0.43797415
127	0x3dd9db4c	0.10637531
128	0x3e555056	0.20831427
129	0xbe3ecfbf	-0.18633936
130	0x3e9b6580	0.30350876
131	0xbd8460c4	-0.06463769
132	0xbd689659	-0.056784008
133	0x3d869a36	0.06572382
134	0xbe98c965	-0.29841152
135	0x3e74dd75	0.23912604
136	0x3d9439e3	0.072376035
137	0x3dc87ee2	0.09789826
138	0xbf0ac936	-0.54213274
139	0x3e91ed2d	0.28501263
140	0x3eafb5d1	0.34318402
141	0x3d3c13a4	0.04591717
142	0x3ec8479a	0.39117128
143	0x3eb55971	0.354198
144	0x3ea1a60e	0.31572002
145	0x3f007ea3	0.5019323
146	0x3f111653	0.5667469
147	0x3f06b41d	0.5261858
148	0x3e169522	0.14705327
149	0xbe3b7599	-0.18306579
150	0x3c5a52fb	0.013325448
151	0xbb8c7e7a	-0.004287538
152	0x3e866dc1	0.2625561
153	0xbea79d62	-0.3273726
154	0x3ea52d4e	0.32261127
155	0xbe243b14	-0.16038162
156	0x3eb3beb0	0.3510642
157	0xbea0e5b5	-0.31425253
158	0xbe734b1b	-0.23759119
159	0xbd9c07c7	-0.07618671
160	0x3e8ac605	0.27104202
161	0x3e436be8	0.19084132
162	0x3eb47ce5	0.35251537
163	0x3e5c3523	0.21504645
164	0x3eb967a6	0.3621189
165	0x3cae354e	0.021265652
166	0x3f133aef	0.575118
167	0x3e478753	0.19485216
168	0x3eaa544f	0.33267447
169	0xbe33c20f	-0.17554496
170	0xbe937a54	-0.28804266
171	0xbd2db77c	-0.042411312
172	0xbe1810b5	-0.14850123
173	0xbdc81bd2	-0.09770931
174	0xbdda3954	-0.10655466
175	0x3e282132	0.16418913
176	0x3e078e18	0.13237798
177	0xbe495dc2	-0.19664672
178	0xbe8619ca	-0.2619155
179	0x3f1725e3	0.59042186
180	0xbf05edff	-0.5231628
181	0xbe0f1cc8	-0.13975823
182	0x3e89c029	0.2690442
183	0x3edafd8a	0.4277156
184	0xbe36579b	-0.17806856
185	0x3e3b894c	0.18314093
186	0xbd25d89b	-0.040489774
187	0xbef9e08d	-0.4880413
188	0xbdacf60a	-0.08445366
189	0x3ee4353d	0.44571868
190	0xbe607a5d	-0.21921678
191	0x3f08e74b	0.53477925
192	0xbeaa59d1	-0.3327165
193	0xbf11cd43	-0.5695383
194	0xbeac4789	-0.33648327
195	0x3ef0ead8	0.47054172
196	0x3ee9fc92	0.45700508
197	0x3eeef907	0.46674368
198	0xbeb7bcc3	-0.358862
199	0xbeb295ce	-0.34879917
200	0x3ebb4643	0.36577043
201	0x3f0fdd96	0.5619749
202	0xbdc884c7	-0.0979095
203	0x3eb82ee8	0.35973287
204	0xbe9d3139	-0.30701616
205	0xbe00088e	-0.12503263
206	0xbe68f876	-0.2275103
207	0xbdb52758	-0.08845395
208	0x3e0408cc	0.1289398
209	0x3cfd9ac5	0.030957589
210	0x3ecb0d33	0.39658508
211	0x3de5a222	0.11212565
212	0x3f058a70	0.52164364
213	0x3f10078b	0.5626151
214	0xbe7946c5	-0.24343403
215	0xbe6d9a13	-0.23203306
216	0x3e0828d8	0.1329683
217	0x3d22dc12	0.039760657
218	0xbece7a68	-0.40327764
219	0x3f01d671	0.50717837
220	0x3eee089e	0.4649095
221	0xbe018db7	-0.12651716
222	0x3f0fae60	0.5612545
223	0xbed7671f	-0.42070863
224	0x3e875340	0.26430702
225	0xbf03a563	-0.51424235
226	0xbf1066ec	-0.56407046
227	0xbec110c8	-0.37708116
228	0xbf09f858	-0.5389457
229	0xbeff9e2d	-0.49925366
230	0xbf0c6e20	-0.5485554
231	0x3ec080a1	0.37598136
232	0x3d8ea090	0.069642186
233	0x3dff6ac3	0.12471535
234	0xbd0ea490	-0.034824908
235	0xbe914e6d	-0.28380147
236	0x3f0e2f1f	0.5554065
237	0x3eb42896	0.35187215
238	0x3e349350	0.1763432
239	0x3ef1f7ca	0.4725936
240	0xbf0527e8	-0.5201402
241	0x3edab945	0.42719474
242	0xbea80c2e	-0.32821792
243	0xbf0649cb	-0.5245635
244	0xbeef2b94	-0.46712935
245	0xbe4807fe	-0.19534299
246	0x3e0558d9	0.13022174
247	0xbef0a182	-0.4699822
248	0xbea267b7	-0.31719753
249	0x3e2fad53	0.17155962
250	0xbedf1125	-0.43567768
251	0x3ef18899	0.47174528
252	0x3e999326	0.29995078
253	0xbd8c0adb	-0.06838008
254	0x3e83ea61	0.25764754
255	0x3cf50c39	0.029913055

0.bias f4 [128]
0	0xbef6acbb	-0.48178658
1	0xbeb5cca5	-0.35507694
2	0xbdbff3c9	-0.0937267
3	0x3e8100b2	0.25195843
4	0xbe85877b	-0.26079926
5	0xbf0d15a4	-0.55111146
6	0xbe4b8422	-0.19874623
7	0x3ee9db73	0.4567524
8	0x3f0bdfb9	0.5463825
9	0x3def9e2c	0.11700091
10	0x3ead916a	0.33900005
11	0xbd556cb4	-0.05210562
12	0xbf008b82	-0.5021287
13	0x3e9b0eac	0.3028463
14	0x3e1f68de	0.15567347
15	0x3eb618df	0.3556585
16	0x3e9baf48	0.30407166
17	0x3e7b41cf	0.24536823
18	0xbef6f0c5	-0.48230568
19	0xbd8aed6f	-0.06783568
20	0x3e0f3d1a	0.13988152
21	0x3f0f8205	0.5605777
22	0x3d226735	0.039649207
23	0xbeafa8bc	-0.34308422
24	0xbe826576	-0.25468034
25	0xbeed4969	-0.4634507
26	0x3d98e866	0.074662015
27	0x3e165aa4	0.14683014
28	0xbe2a80d2	-0.16650704
29	0x3e50a56e	0.20375606
30	0xbf026163	-0.5092985
31	0xbd808698	-0.06275672
32	0xbe840e4d	-0.2579216
33	0xbf00586d	-0.5013493
34	0x3e528371	0.20557953
35	0xbe59b24c	-0.21259421
36	0xbeda8e95	-0.42686906
37	0x3dd004e2	0.10157181
38	0xbebf4d79	-0.37363794
39	0x3ee1543c	0.44009578
40	0xbf0dc4bc	-0.5537832
41	0xbb4cacb7	-0.0031230876
42	0xbf02adb2	-0.5104629
43	0x3dd690e3	0.10476854
44	0x3daa94dc	0.08329174
45	0x3f182bd7	0.59441894
46	0x3f033991	0.51259714
47	0x3f0bcec9	0.54612404
48	0xbb99b73b	-0.004691032
49	0xbb38a404	-0.0028173933
50	0xbd4f4fa1	-0.05061305
51	0x3e8cdb16	0.275109
52	0xbed06118	-0.40699077
53	0xbe1b4a57	-0.15165077
54	0x3d8349ba	0.064105466
55	0xbed8836f	-0.42287776
56	0xbf090fc6	-0.53539693
57	0x3cb1444f	0.021639017
58	0xbe009afa	-0.12559119
59	0x3a0dba9d	0.00054065307
60	0x3f0e4e18	0.5558791
61	0x3f115704	0.567734
62	0xbf12def1	-0.5737143
63	0x3dbb8829	0.0915683
64	0xbcd6725c	-0.026177578
65	0x3f161b65	0.5863555
66	0xbe960ae1	-0.29305175
67	0xbeb1a3da	-0.3469532
68	0x3f081dc0	0.53170395
69	0x3ee3d965	0.44501796
70	0x3eb8c239	0.3608568
71	0x3eccb541	0.39982036
72	0x3e9456ba	0.28972417
73	0x3e98f032	0.29870754
74	0x3e8a5d92	0.27024513
75	0x3ef372e3	0.4754859
76	0xbf07981c	-0.52966475
77	0xbef4b9ea	-0.4779809
78	0x3e31b2ef	0.17353414
79	0xbe896853	-0.26837406
80	0xbf093d90	-0.5360956
81	0xbe6ba062	-0.230104
82	0x3e9270b8	0.28601623
83	0xbeddeb12	-0.43343407
84	0x3e368cc0	0.1782713
85	0x3e5fccac	0.2185542
86	0xbc1ee243	-0.0096975
87	0x3e04b5b2	0.12959936
88	0xbd7f197c	-0.062280163
89	0x3edd5056	0.43225354
90	0xbe0563d7	-0.13026367
91	0x3ebc413f	0.3676853
92	0xbebc8304	-0.36818707
93	0x3d441ad5	0.04787715
94	0xbe3ec8fa	-0.18631354
95	0x3e0ff362	0.14057687
96	0xbe41589e	-0.18881461
97	0x3e7bc3c6	0.245864
98	0xbf04c4ce	-0.518628
99	0x3e78e8a6	0.24307498
100	0x3ed0fefa	0.40819532
101	0xbe9fe4b6	-0.3122918
102	0xbde746e0	-0.11292815
103	0x3e14aa42	0.14518073
104	0xbeef658f	-0.4675717
105	0xbedbdd51	-0.4294229
106	0x3d5b5ff1	0.053558294
107	0x3ea578ff	0.32318875
108	0x3ef14dce	0.47129673
109	0xbdf53739	-0.119734235
110	0xbe7bdb4a	-0.24595371
111	0x3eb86b34	0.3601929
112	0x3e89c538	0.26908278
113	0x3e928f7f	0.28625104
114	0x3e0b04e9	0.13576092
115	0xbf015a17	-0.5052809
116	0xbd53f521	-0.051747445
117	0x3ee9bebb	0.45653328
118	0xbcdb73ca	-0.026788611
119	0xbdcc6fc2	-0.099822536
120	0x3e7f1bf8	0.24913013
121	0xbe9dba1c	-0.30806053
122	0x3d96d14d	0.0736414
123	0x3eaeebfc	0.34164417
124	0x3deb0e18	0.114772975
125	0xbec17291	-0.3778272
126	0xbc1a35dd	-0.009412256
127	0xbed990d2	-0.42493302

2.weight f4 [128, 128]
0	0x3daeb90d	0.085313894
1	0x3d1739d7	0.036920395
2	0x3d9cf21d	0.07663367
3	0xbd4f87fb	-0.05066679
4	0x3c9796e6	0.018504571
5	0x3b423eda	0.0029639513
6	0x3d8a0a0a	0.06740196
7	0xbd052c1f	-0.03251278
8	0x3d16179e	0.036643617
9	0x3d470e85	0.04859783
10	0x3de6e80e	0.1127473
11	0xbce83159	-0.028343843
12	0xbd7cdd10	-0.06173426
13	0xbda6981e	-0.08134483
14	0xbd6314c0	-0.05543971
15	0x3d0ec552	0.034856148
16	0x3d88aea2	0.066739336
17	0x3da7e6cb	0.08198317
18	0x3ce3dff4	0.02781675
19	0x3cdba08a	0.02680995
20	0x3cf857e7	0.030315353
21	0xbd6d6411	-0.05795676
22	0x3c9e6a1c	0.019337706
23	0x3db1042c	0.08643374
24	0xbd71f934	-0.05907555
25	0xba9c1b8e	-0.0011910067
26	0x3d8f2c9c	0.069909304
27	0x3d285a02	0.041101463
28	0x3b4fd34d	0.0031711638
29	0x3da20f6f	0.079131
30	0xbd0ca960	-0.034341216
31	0xbd830586	-0.06397538
32	0xbcbed50e	-0.023294952
33	0x3ba288ea	0.004960169
34	0x3da251b2	0.079257384
35	0xbcb15c97	-0.021650596
36	0xbc589778	-0.013219707
37	0x3d4b260b	0.049596827
38	0x3d81bfce	0.06335412
39	0x39cf9f19	0.00039600654
40	0x3cdb7600	0.026789665
41	0x3c08fc62	0.008360954
42	0x3c652bfb	0.013987537
43	0xbd329cdc	-0.043606624
44	0xba6a174c	-0.0008929863
45	0x3dd4b1aa	0.10385449
46	0xbda2cdba	-0.079493955
47	0x3af4c083	0.0018673096
48	0xbd61b904	-0.055108085
49	0x3d99c259	0.07507772
50	0xbd6e33b6	-0.058154784
51	0x3d9dd5e3	0.07706811
52	0x3daf2db5	0.0855364
53	0x3c9767b7	0.018482072
54	0x3cd30b91	0.025762351
55	0x3bf6210c	0.0075112637
56	0xbd6c147a	-0.057636715
57	0xbc6347e2	-0.013872119
58	0x3c6f8b34	0.014620591
59	0x3c2b40cd	0.010452461
60	0x3c96dfb8	0.018417224
61	0x3dc44124	0.09582737
62	0x3d36c952	0.044625588
63	0x3cf6dd4d	0.030134821
64	0xbd3c248b	-0.045933288
65	0xbb93171a	-0.004488838
66	0x3d7483ba	0.059695937
67	0x3d9a2855	0.07527224
68	0xbd2ad784	-0.041709438
69	0xbd6e7c9d	-0.05822431
70	0xbd1d88ff	-0.038460728
71	0x3c74202e	0.01490025
72	0x3ceac9a6	0.028660607
73	0x3de53319	0.11191387
74	0x3d89686b	0.06709369
75	0x3da0b28e	0.078465566
76	0xbd978aec	-0.07399544
77	0xbd19999a	-0.0375
78	0xbba4fcea	-0.0050350325
79	0x3d87e5cc	0.06635627
80	0xbd9af20e	-0.075656995
81	0xbd552015	-0.05203255
82	0xbd825d1a	-0.06365414
83	0x3d8b77e8	0.0680998
84	0xbd4e962a	-0.050436176
85	0x3d52a6a0	0.051428437
86	0x3d6cccdd	0.05781256
87	0x3d23fd7f	0.040036675
88	0x3d598514	0.05310543
89	0x3d1f70ce	0.03892594
90	0xbd474785	-0.04865219
91	0x3d909ef4	0.07061568
92	0xbca1eb48	-0.019765511
93	0xbd0642c7	-0.032778528
94	0xbd4fa6a0	-0.050696015
95	0x3d571544	0.052510515
96	0x3d8e5a44	0.069508106
97	0x3d0a3d4a	0.033749856
98	0x3db77e8a	0.08959682
99	0xbd17c10b	-0.037049334
100	0x3d8bdccf	0.06829225
101	0x3bf1e902	0.007382513
102	0xbcca6a27	-0.02470882
103	0x3d8a8e1a	0.06765385
104	0xbd53e256	-0.051729523
105	0x3c0b6f58	0.008510433
106	0xbd4ffd4d	-0.050778676
107	0x3de4eff7	0.11178582
108	0xbd273f88	-0.040832072
109	0xbc2bb35f	-0.010479777
110	0x3d896218	0.06708163
111	0x3d4f33c5	0.05058648
112	0x3d4ca097	0.049957838
113	0xbbe0db87	-0.006862107
114	0xbcee6fb4	-0.029105999
115	0x3bfd8a21	0.0077374135
116	0x3c8366be	0.016040202
117	0xbd4c57c5	-0.04988839
118	0xbb0e5ab1	-0.0021721537
119	0xbd25aa5a	-0.040445663
120	0x3cf9b5e5	0.030482242
121	0x3b46e912	0.0030351323
122	0x3d337c4f	0.04381972
123	0x3d479b03	0.048731815
124	0x3ceaffd7	0.028686447
125	0x3da10b87	0.07863527
126	0x3df22910	0.11824238
127	0x3da40c4c	0.08010158
128	0x3d6a26c1	0.057165865
129	0x3b80f87f	0.003935873
130	0x3cb60820	0.022220671
131	0xbd5b7821	-0.05358136
132	0xbcb914ed	-0.022592986
133	0xbd882a77	-0.066487245
134	0xbd160e29	-0.036634598
135	0x3d3d80cb	0.046265405
136	0xbdb0ab95	-0.08626477
137	0x3d3f8c60	0.04676473
138	0x3d585da4	0.052823678
139	0xbd8cbb35	-0.068716444
140	0x3d1095a9	0.035298977
141	0x3d39802d	0.045288254
142	0x3caadcf6	0.020857316
143	0x3c4e5cb3	0.012595343
144	0x3c589d09	0.013221034
145	0xbd321ff8	-0.04348752
146	0x3d03c862	0.03217352
147	0xbc42c5b9	-0.011887961
148	0xbda328a6	-0.079667374
149	0xbd8823d3	-0.06647458
150	0xbd60fe69	-0.054930124
151	0xbc48d534	-0.012257863
152	0xbd1c4001	-0.038146976
153	0xbc4bf4c4	-0.012448493
154	0xbd3a63d4	-0.04550536
155	0x3d9ec544	0.07752469
156	0x3d8687d1	0.06568874
157	0xbc1e4bef	-0.009661659
158	0x3da42610	0.08015072
159	0x3cb12914	0.021626033
160	0x3cdcc377	0.026948674
161	0x3cb72fe5	0.022361705
162	0xbd8740be	-0.066041455
163	0xbc81112d	-0.01575526
164	0xbd3db574	-0.046315625
165	0xbd2e9712	-0.04262454
166	0xbd4c76cb	-0.049917977
167	0xbc1bc78a	-0.009508023
168	0x3c45acfb	0.012065168
169	0xbd7b1a23	-0.061304223
170	0x3da7176e	0.08158766
171	0x3da20f90	0.079131246
172	0x3c288753	0.01028617
173	0xbb19ae2f	-0.0023449769
174	0x3d6955e5	0.05696668
175	0xbce7565c	-0.028239422
176	0xbcde792a	-0.027157385
177	0x3d8c6897	0.068558864
178	0xbc95fbe0	-0.01830858
179	0x3d784930	0.060616672
180	0xbac766bf	-0.0015213116
181	0x3da82d2b	0.0821174
182	0x3cae1239	0.021248924
183	0x3d03776f	0.032096323
184	0xbd5e8e60	-0.054334998
185	0x3c126005	0.008934026
186	0xbd967c9a	-0.073479846
187	0xbd6d4257	-0.057924595
188	0xbd97490b	-0.07386979
189	0xbdae5019	-0.08511371
190	0x3b8fdb45	0.0043901526
191	0xbcb59b41	-0.022168757
192	0xbd8333ba	-0.064063504
193	0xbc4b6bc3	-0.012415829
194	0xbbea804e	-0.0071564084
195	0x3d66452f	0.056218322
196	0xbd8181e2	-0.06323601
197	0x3d7f191a	0.062279798
198	0xbda4b3ff	-0.08042144
199	0xbd2df943	-0.042474043
200	0xbd9e86c8	-0.07740551
201	0xbda164b1	-0.078805335
202	0xbd2908d9	-0.041268203
203	0xbd431825	-0.047630448
204	0x3dae84ec	0.085214466
205	0xbcd388d2	-0.025822077
206	0x3db0736e	0.086157665
207	0x3d17d077	0.037064042
208	0xbce60259	-0.028077291
209	0xbad72103	-0.0016413037
210	0xbd86ee60	-0.06588435
211	0x3da0e831	0.07856787
212	0xbd8e4e90	-0.06948578
213	0xbdb280e6	-0.08715992
214	0x3d075f5e	0.033049934
215	0x3d0de5aa	0.034642853
216	0x3daa61da	0.08319445
217	0x3d8875af	0.06663071
218	0x3d7fba66	0.062433623
219	0x3d5ff155	0.05467351
220	0xbc3a87b7	-0.011384896
221	0x3d97663d	0.07392547
222	0xbce2fd70	-0.027708739
223	0xbd32cbbd	-0.04365133
224	0x3d8fde4f	0.07024824
225	0x3ce7c434	0.0282918
226	0x3d4f0f19	0.050551508
227	0xbd9b7250	-0.07590163
228	0xbd69c89f	-0.057076093
229	0xbd6952cd	-0.05696373
230	0xbd3e356d	-0.04643767
231	0xbdb4e473	-0.08832636
232	0x3c6da240	0.014504015
233	0x3d08c7c9	0.033393655
234	0xbd3d9a32	-0.04628963
235	0x3d8b694b	0.068071924
236	0xbd10d61e	-0.035360448
237	0x3da94b97	0.08266371
238	0xbcaa4ff6	-0.020790081
239	0xbdaa5c1c	-0.0831835
240	0xbbf341d5	-0.0074236193
241	0xbcbca02b	-0.023025593
242	0xbab84865	-0.0014059661
243	0x3d3e51ca	0.04646472
244	0xbd8c6d86	-0.068568274
245	0x3c5b8790	0.01339902
246	0x3d956903	0.0729542
247	0xbd375543	-0.044759046
248	0xbd7d83b8	-0.061893195
249	0xbd75c0f5	-0.05999847
250	0x3d919ff8	0.0711059
251	0x3d1a00f8	0.03759858
252	0xbd2ab1bd	-0.04167341
253	0x3d972a95	0.07381169
254	0xbcd0f3c4	-0.025506862
255	0xbd690c82	-0.056896694

2.bias f4 [128]
0	0xbd4ba607	-0.049718883
1	0x3da2bae6	0.07945804
2	0x3cc2befc	0.02377271
3	0x3d6c6ab4	0.057718948
4	0xbba998f2	-0.005175703
5	0xbd2d6e16	-0.042341314
6	0x3d08cfd4	0.033401325
7	0x3db914ee	0.09037195
8	0xbd844843	-0.06459095
9	0xbcbebed9	-0.023284363
10	0x3d83e1a9	0.06439526
11	0xbd448b3d	-0.04798435
12	0x3c376660	0.011193842
13	0x3d190533	0.037358474
14	0x3daaef96	0.08346479
15	0xbd8edf72	-0.069762126
16	0xbd001dbf	-0.031278368
17	0x3d9e27d7	0.077224426
18	0x3dba19a7	0.09086924
19	0x3d26cf5d	0.0407251
20	0xbbf4f12b	-0.0074750385
21	0x3dd5b2e5	0.10434512
22	0xbd3c590a	-0.04598335
23	0xbd347f3c	-0.044066653
24	0x3da2329e	0.07919811
25	0xbd4eb34c	-0.05046396
26	0x3d6a19d0	0.057153523
27	0xbd679d58	-0.05654654
28	0xbcf5870d	-0.029971624
29	0xbc2297f9	-0.009923928
30	0xbd52e856	-0.051491104
31	0xbd23296f	-0.039834436
32	0x3da6e56d	0.08149228
33	0x3d0f04f1	0.034916822
34	0xbd50cebb	-0.050978404
35	0x3d6f599d	0.05843507
36	0x3d93213f	0.071840756
37	0x3d807de9	0.062740155
38	0xbd500da8	-0.050794274
39	0x3d932fc2	0.071868435
40	0xbadc33f7	-0.0016800155
41	0xba5617f1	-0.00081670197
42	0x3d816062	0.06317212
43	0xbce67b5c	-0.028134994
44	0x3d9cae02	0.07650377
45	0x3da8a511	0.08234609
46	0x3d5a6ea5	0.053328175
47	0xbce7cdb5	-0.028296331
48	0x3d841cd5	0.06450812
49	0xbcc2250a	-0.023699302
50	0xbda77f0a	-0.08178528
51	0xbcb687ac	-0.02228149
52	0x3d56cfd0	0.05244428
53	0xbd2e307a	-0.0425267
54	0x3d285c5f	0.041103717
55	0xbd4d9145	-0.050187368
56	0x3cfdd1a7	0.03098376
57	0xbd823ee2	-0.0635965
58	0xbd5691ab	-0.052385014
59	0x3d78eb66	0.06077137
60	0xbd033586	-0.032033466
61	0xbd8bc99d	-0.06825564
62	0xbdb316d0	-0.087445855
63	0xbc060714	-0.0081803985
64	0x3d68fb95	0.056880552
65	0x3d20d5f7	0.039266553
66	0x3cb3ad5e	0.021933254
67	0x3db90f9d	0.09036181
68	0x3d39e9b0	0.045388877
69	0x3cbdd37f	0.023172138
70	0xbd152e0d	-0.03642087
71	0x3d911ede	0.070859656
72	0x3bbdf99d	0.0057975785
73	0x3d5b644d	0.05356245
74	0xbd29e82a	-0.041481175
75	0xbd0b1fcd	-0.033965874
76	0x3d273f26	0.040831707
77	0xbd1eb2e7	-0.038744833
78	0x3d295226	0.04133811
79	0xbc9ff99a	-0.019528199
80	0x3c8d16e4	0.01722283
81	0xbd9887b8	-0.07447761
82	0x3cc49c31	0.02400026
83	0x3d823c47	0.06359153
84	0x3dcda228	0.100406945
85	0xbc6c2650	-0.014413431
86	0x3d4da825	0.050209183
87	0x3d111843	0.03542353
88	0x3da985ed	0.082774974
89	0xbd127bdd	-0.035762656
90	0x3d842788	0.064528525
91	0x3c893290	0.016747743
92	0x3daf2647	0.08552223
93	0x3c33e4f0	0.010979876
94	0xbdaa154f	-0.083048455
95	0x3cde6bed	0.027151072
96	0x3d2e5fc9	0.042571817
97	0x3d91b1a1	0.07113958
98	0xbd692de3	-0.056928527
99	0xbc44142d	-0.011967701
100	0xbd2a0fac	-0.041518852
101	0xbbb118b8	-0.005404558
102	0x3dab6a6d	0.083699085
103	0x3de05f91	0.10955728
104	0xbbdf1e39	-0.0068090227
105	0xbdb77705	-0.08958248
106	0xbd409ef6	-0.047026597
107	0xbd4f7e0b	-0.050657313
108	0xbd191695	-0.03737505
109	0x3dc99a70	0.0984391
110	0x3d7410f6	0.059586488
111	0xbcf1b087	-0.02950312
112	0x3d2b18f0	0.04177183
113	0xba25a03e	-0.00063181284
114	0xbd006b0d	-0.03135209
115	0xbd9ab73d	-0.07554481
116	0xbba95134	-0.005167151
117	0x3c1ffd15	0.009764929
118	0x3c0ea970	0.008707389
119	0xbd3966e9	-0.04526416
120	0xbd4adf43	-0.049529325
121	0x3b0e0604	0.0021671066
122	0x3d543cab	0.05181567
123	0x3daa861b	0.0832636
124	0x3d25f68e	0.040518336
125	0xbdaa18f5	-0.083055414
126	0x3da30097	0.07959097
127	0xbd7dfb6b	-0.06200735

4.weight f4 [1, 128]
0	0xbd8b2368	-0.067938626
1	0xbcf50388	-0.02990891
2	0xbdb103c1	-0.08643294
3	0x3d8d1467	0.06888657
4	0x3d5e337a	0.05424831
5	0x3d134319	0.03595266
6	0xbd6e149d	-0.058125127
7	0xbd75c241	-0.059999708
8	0x3d9234a0	0.07138944
9	0xbc24f974	-0.01006924
10	0x3d3a8451	0.045536343
11	0xbde677c6	-0.11253314
12	0x3cc01bee	0.023450818
13	0x3cdf12a8	0.027230576
14	0xbb3f3276	-0.0029174364
15	0xbd26f59f	-0.040761586
16	0xbd2c34e0	-0.042042613
17	0xbdbcfe98	-0.092282474
18	0xbdb810f4	-0.089876086
19	0xbdf3736d	-0.1188725
20	0xbb01e8a5	-0.0019822505
21	0xbd1df986	-0.038568042
22	0xbd704019	-0.05865488
23	0xbd87e06a	-0.066346005
24	0xbdab3fc2	-0.0836177
25	0x3d14014a	0.03613404
26	0x3d918f1c	0.07107374
27	0xbd083d25	-0.033261437
28	0xbdb1b46f	-0.08676993
29	0xbd4f3f5f	-0.050597545
30	0xbdace605	-0.0844231
31	0xbd8db952	-0.06920113
32	0x3d807bd8	0.06273621
33	0xbd8b4ad4	-0.06801382
34	0x3c9ecb53	0.019384062
35	0xbe1238a2	-0.14279416
36	0xbdfb1cd5	-0.12261359
37	0xbd61b370	-0.055102766
38	0x3da5b49a	0.08091088
39	0xbe0352d9	-0.12824573
40	0xbcdd3522	-0.027002875
41	0xbdf08e30	-0.1174587
42	0xbd8a4330	-0.06751096
43	0x3c6c84ae	0.01443593
44	0x3b1cd27b	0.0023929167
45	0x3d36ed10	0.044659674
46	0xbdadd08d	-0.084870435
47	0xbdc851b6	-0.0978121
48	0x3da7650a	0.081735685
49	0xbe05767f	-0.13033484
50	0xbd310183	-0.043214332
51	0xbda13779	-0.07871909
52	0xbb73a84c	-0.003717917
53	0xbe106d49	-0.14104189
54	0xbcb89f61	-0.022536935
55	0xbda6cd44	-0.0814462
56	0x3d23fa47	0.040033605
57	0xbd2360b0	-0.03988713
58	0x3db1090c	0.08644304
59	0x3d1f1001	0.038833622
60	0x3bf1e4c6	0.0073820082
61	0x3dab8118	0.08374232
62	0xbd285a28	-0.041101605
63	0x3d09a2bc	0.03360246
64	0x3b5f0cd1	0.0034034739
65	0x3d8bca70	0.06825721
66	0xbdaaf48a	-0.083474234
67	0xbe066d7c	-0.13127702
68	0xbdb2e4f1	-0.08735073
69	0xbdbc9abe	-0.09209202
70	0x3d616f70	0.055037916
71	0xbd85aa15	-0.06526581
72	0xbd99a84b	-0.075028025
73	0x3d754ccf	0.059887704
74	0x3d026874	0.031837896
75	0xbd93a4bf	-0.07209157
76	0xbde5d255	-0.11221758
77	0xbd8a99eb	-0.06767639
78	0xbda36347	-0.0797792
79	0x3d8bba92	0.06822695
80	0x3cf8b087	0.030357612
81	0x3d8c9634	0.068645865
82	0x3ccaa6c8	0.02473773
83	0x3d94b42d	0.07260928
84	0xbd065fad	-0.032806087
85	0x3d978303	0.073980354
86	0xbe067fdb	-0.1313471
87	0xbc8f13ab	-0.017465433
88	0x3da94642	0.08265354
89	0xbde10f6c	-0.109892696
90	0xbd4a1526	-0.049336575
91	0xbc9d6b7e	-0.019216295
92	0xbdc4129c	-0.09573862
93	0x3d78d4fc	0.060749993
94	0x3cb1c22a	0.02169903
95	0xbd8783a6	-0.06616907
96	0x3ce6cf82	0.02817512
97	0x3d81f00d	0.06344614
98	0xbda63144	-0.081148654
99	0xbd5d9b23	-0.054103028
100	0xbe07441e	-0.13209578
101	0x3c284c09	0.010272034
102	0x3c3ca6ff	0.011514424
103	0xbd8408ba	-0.06446977
104	0xbe082a54	-0.13297397
105	0x3d9873d9	0.07443971
106	0xbd1c9064	-0.03822364
107	0xbd9b8676	-0.07594006
108	0xbdb37e97	-0.087643795
109	0xbda071ed	-0.078342296
110	0xbe0a3ec3	-0.13500504
111	0x3d75a3c6	0.05997064
112	0xbdc11f85	-0.0942984
113	0xbd8def33	-0.06930389
114	0x3b9c8984	0.0047771353
115	0xbd8a1d4e	-0.06743871
116	0x3d8bb112	0.06820883
117	0x3cdb24d6	0.026750963
118	0x3d54cf96	0.051955782
119	0xbded50f4	-0.11587706
120	0xbe061f8a	-0.13097969
121	0xbd8b0e2b	-0.06789812
122	0xbd80bbbc	-0.062858075
123	0xbd8b5ebf	-0.06805181
124	0xbe10d872	-0.14145067
125	0x3da0f690	0.07859528
126	0xbdf925e5	-0.12165431
127	0x3d624137	0.055237975
